second_stage/final_model.pth (torch, 524567 bytes, 30 tensors)

feature_extractor.0.weight f4 [128, 5]
0	0x3deb9520	0.11503053
1	0x3d14f988	0.036370784
2	0xbcdc381d	-0.026882226
3	0xbe3e449e	-0.18580863
4	0xbe9c4f64	-0.3052932
5	0xbeb0d263	-0.34535512
6	0x3eea4b3e	0.4576053
7	0x3dc7e324	0.097601205
8	0x3e97d31d	0.29653254
9	0xbd6128ed	-0.05497067
10	0xbec14c2a	-0.3775342
11	0x3e0a58da	0.13510457
12	0xbf03ea31	-0.5152922
13	0xbea8e704	-0.3298875
14	0xbeb61175	-0.35560194
15	0xbe655b6d	-0.22398157
16	0xbec6e6e2	-0.38848025
17	0xbda82868	-0.08210832
18	0x3de7b4a6	0.11313753
19	0x3d0fd35e	0.035113685
20	0x3df7c307	0.120977454
21	0xbd471520	-0.04860413
22	0x3e2d72f4	0.16938382
23	0x3e9a6797	0.30157158
24	0xbdf41a72	-0.119191065
25	0xbe93444a	-0.28763038
26	0xbe1879d2	-0.14890221
27	0x3d95d198	0.073153675
28	0x3e14b679	0.14522733
29	0x3ee64764	0.44976342
30	0x3c4d6d76	0.012538305
31	0xbe52efa7	-0.20599233
32	0x3e0ba211	0.13636042
33	0x3d96f3f0	0.07370746
34	0xbe6fb317	-0.23408161
35	0xbea81598	-0.32828975
36	0x3e6eefde	0.2333369
37	0x3e5fb5ef	0.21846746
38	0x3ced417c	0.02896189
39	0xbe63a237	-0.22229849
40	0x3f03ad4b	0.514363
41	0x3ecd103f	0.40051457
42	0x3e3e4de2	0.18584397
43	0x3da046f5	0.07826034
44	0xbde7aafa	-0.11311908
45	0x3e236fad	0.1596057
46	0x3e766773	0.240629
47	0x3ec19ac9	0.37813404
48	0x3d82e372	0.06391038
49	0x3e8a1304	0.26967633
50	0xbec47c24	-0.38375962
51	0x3e2a10cb	0.16607969
52	0x3e8aa067	0.27075502
53	0x3eed6e86	0.46373385
54	0xbef81a25	-0.48457447
55	0x3b68c272	0.003551629
56	0xbdb3eaef	-0.087850444
57	0x3e4bf3e3	0.19917254
58	0xbdcd15c8	-0.1001392
59	0xbcf13d36	-0.029448133
60	0x3d2a111c	0.041520223
61	0x3eb2df5a	0.3493603
62	0xbe454676	-0.1926516
63	0x3d84e876	0.06489651
64	0xbeae5560	-0.3404951
65	0xbe05fd1b	-0.13084833
66	0x3eaab43e	0.3334064
67	0x3e143f52	0.1447728
68	0xbe90c283	-0.282734
69	0xbd69a818	-0.057045072
70	0xbebbe275	-0.3669621
71	0xbe6e932d	-0.2329833
72	0xbe1f0eaf	-0.15532945
73	0xbcf23584	-0.029566534
74	0x3e97d358	0.2965343
75	0xbcd36afb	-0.025807848
76	0xbdb41bc2	-0.08794357
77	0x3ebae1a9	0.3650029
78	0x3e39c225	0.18140467
79	0xbefce405	-0.49392715
80	0xbe334395	-0.17506249
81	0xbd9b09da	-0.075702384
82	0x3e1f50bf	0.15558146
83	0xbebc1d0e	-0.36740917
84	0x3ec3f016	0.3826911
85	0xbf14aef8	-0.5807948
86	0x3ee06949	0.43830326
87	0x3ef223ad	0.47292843
88	0xbdf19a33	-0.11796989
89	0x3eefc6b7	0.46831295
90	0x3f01b4a7	0.5066628
91	0x3ec22cf3	0.3792492
92	0x3ea712f5	0.3263165
93	0x3ed68ede	0.41905874
94	0xbf047ed3	-0.5175602
95	0x3cea2256	0.028580826
96	0x3e4c21c8	0.19934762
97	0x3d90abca	0.07064016
98	0x3d2ded3d	0.042462576
99	0x3e733286	0.23749742
100	0x3f025784	0.5091479
101	0xbed813f0	-0.4220271
102	0xbe5081f0	-0.20362067
103	0xbe5dc820	-0.21658373
104	0xbee9d568	-0.4567063
105	0xbe819113	-0.25305995
106	0x3e2a2fe5	0.16619833
107	0xbe02e752	-0.12783554
108	0x3e645b00	0.22300339
109	0xbe2f32da	-0.17109242
110	0x3ed780fe	0.420906
111	0xbee934ec	-0.4554819
112	0xbd3fae97	-0.04679736
113	0xbda09704	-0.07841304
114	0xbea6a65e	-0.32548803
115	0xbec4fc5f	-0.38473794
116	0x3d86fa9d	0.065907694
117	0xbe72149d	-0.23640676
118	0xbdd4a963	-0.103838705
119	0x3f005978	0.5013652
120	0xbf13fb27	-0.57805103
121	0x3d19dfcf	0.037566956
122	0x3ef4c1c4	0.4780408
123	0xbed3e81d	-0.41388026
124	0x3ed7a0b5	0.42114797
125	0x3d57f95c	0.052728042
126	0xbe33896c	-0.17532891
127	0xbe80fb46	-0.25191706
128	0x3e52b992	0.20578602
129	0x3e08b173	0.13348942
130	0xbed7950d	-0.42105904
131	0xbe9d631c	-0.30739677
132	0xbe24b835	-0.16085894
133	0xbeb44d79	-0.35215357
134	0xbe0ba9ee	-0.13639042
135	0xbe68e33a	-0.2274293
136	0x3e5d5214	0.21613342
137	0x3c2fb4c7	0.010724253
138	0xbed7bef4	-0.42137873
139	0x3d089338	0.033343524
140	0x3f0cc0da	0.5498177
141	0xbee11a4a	-0.4396537
142	0xbed94cbe	-0.42441362
143	0xbd69f12a	-0.057114758
144	0xbe910121	-0.28321174
145	0x3e5876e8	0.21139109
146	0xbeaae82c	-0.33380258
147	0xbe7f80be	-0.24951455
148	0xbe835d5a	-0.2565716
149	0xbbe45db0	-0.006969176
150	0x3d0b304c	0.033981606
151	0x3e2c7605	0.16841896
152	0x3ea1984a	0.315615
153	0x3e9cb1b2	0.3060432
154	0xbe15e59e	-0.14638373
155	0x3dc9c220	0.098514795
156	0xbeae98ec	-0.34101045
157	0xbee4e8f4	-0.4470898
158	0x3c43b6e4	0.01194546
159	0xbe8a736f	-0.27041194
160	0xbef38e9c	-0.4756974
161	0xbe8db057	-0.276736
162	0xbdc55423	-0.096351884
163	0x3ee3df9a	0.44506532
164	0xbe94c1ab	-0.29054007
165	0xbee5834a	-0.44826728
166	0xbde8ab13	-0.11360755
167	0x3e9adf45	0.30248466
168	0x3eadfc9c	0.33981788
169	0xbde849e9	-0.11342222
170	0xbe6c9a8f	-0.23105834
171	0x3e5f0b4c	0.21781653
172	0xbd82bd47	-0.06383758
173	0xbe26296f	-0.16226743
174	0x3e97656b	0.29569563
175	0xbe4176ff	-0.1889305
176	0x3ebcef3f	0.3690128
177	0x3ea631e1	0.3245993
178	0x3ec50fb8	0.38488555
179	0xbe4816b5	-0.19539912
180	0xbe11249d	-0.14174123
181	0xbbb86ed1	-0.0056284447
182	0x3ee0211b	0.43775257
183	0x3eeb11c3	0.4591199
184	0x3e9fb69c	0.31194007
185	0x3ecd286c	0.40069902
186	0x3e02b5f0	0.12764716
187	0x3ee25a62	0.44209582
188	0x3ed589e1	0.41706756
189	0xbebd2366	-0.3694107
190	0x3d8c92cf	0.06863939
191	0xbccb2455	-0.024797598
192	0xbe4b2acd	-0.19840546
193	0xbeadd3cc	-0.3395065
194	0xbe725772	-0.2366617
195	0xbd81598e	-0.06315909
196	0xbe5c4097	-0.21509014
197	0xbd846071	-0.06463707
198	0x3e21098e	0.15726301
199	0x3d26ef99	0.040755842
200	0x3d37202b	0.044708412
201	0xbea453d3	-0.32095203
202	0xbe303da4	-0.17211014
203	0xbda90a49	-0.08253915
204	0x3c55d8ce	0.013052179
205	0xbe97be86	-0.29637545
206	0xbeca8b59	-0.3955944
207	0x3e79818b	0.24365823
208	0xbecc4888	-0.39899087
209	0x3eeb1c0c	0.45919836
210	0x3e2b3c71	0.16722275
211	0xbecda049	-0.4016135
212	0x3e434f53	0.19073229
213	0x3dfa89dd	0.122333266
214	0x3e5c7f44	0.21532923
215	0x3c2b0eae	0.010440512
216	0xbd1a26ef	-0.037634786
217	0x3dbfc8cc	0.09364471
218	0xbe7061bb	-0.23474781
219	0x3cf4b13b	0.029869666
220	0x3edb7bb6	0.4286782
221	0xbedcc689	-0.4312022
222	0xbec3b44b	-0.3822349
223	0xbee7f534	-0.45304263
224	0x3ec0d876	0.37665147
225	0xbcf6ef3b	-0.03014337
226	0x3e01fc5f	0.12693928
227	0x3e00c3a9	0.12574638
228	0x3e98dfe1	0.29858306
229	0xbe51a697	-0.20473705
230	0x3ecd45da	0.40092355
231	0xbe584d44	-0.21123224
232	0xbee30564	-0.4434005
233	0xbe0d6898	-0.1380943
234	0xbf10e7dc	-0.5660379
235	0xbdce9d66	-0.10088615
236	0x3db55739	0.08854527
237	0x3edd0d6a	0.43174297
238	0xbe3f3510	-0.18672585
239	0xbe94c89e	-0.2905931
240	0x3e826f2d	0.25475445
241	0x3e9e1cb3	0.3088127
242	0xbe505b61	-0.20347358
243	0x3eec5a64	0.46162713
244	0xbed53850	-0.41644526
245	0xbe8f41cf	-0.27979895
246	0xbede94ad	-0.43472806
247	0xbea0d530	-0.3141265
248	0x3e85a367	0.2610123
249	0x3d819dce	0.06328927
250	0x3d896c7d	0.067101456
251	0x3ec8004d	0.3906273
252	0xbe96d58d	-0.294598
253	0xbece119a	-0.40247804
254	0x3ee4da8f	0.44697997
255	0xbe2e61fa	-0.17029563

feature_extractor.0.bias f4 [128]
0	0xbf1cb31e	-0.6121081
1	0x3e3fe081	0.18737985
2	0x3e22f202	0.15912631
3	0xbe59db9e	-0.21275184
4	0xbf14083e	-0.57825077
5	0x3f0a94a9	0.5413309
6	0x3e87ca87	0.26521704
7	0x3e8e66e9	0.2781289
8	0x3e3900d5	0.18066724
9	0x3e96e2ea	0.29469997
10	0xbc40371d	-0.01173189
11	0xbf15338e	-0.5828179
12	0xbe1c9964	-0.15292889
13	0xbf171bad	-0.59026605
14	0x3e8f489c	0.27985084
15	0x3e3e8223	0.1860433
16	0x3e618bfd	0.22026058
17	0xbd60f883	-0.0549245
18	0x3eca0022	0.39453226
19	0xbf1ec9b4	-0.62026525
20	0x3eb0d6b1	0.34538797
21	0xbeee8b89	-0.46590832
22	0x3e87e802	0.26544195
23	0x3e21a309	0.15784849
24	0x3e715423	0.23567252
25	0xbeedadde	-0.46421713
26	0xbe86eacc	-0.2635101
27	0xbd94c833	-0.072647475
28	0x3e1ad3fb	0.15119927
29	0xbf0b3d17	-0.5439009
30	0x3f0c935e	0.54912364
31	0x3e3a0e04	0.18169409
32	0x3da1afae	0.07894836
33	0x3e85c3af	0.26125857
34	0x3e28ba42	0.16477302
35	0x3e3bf699	0.18355788
36	0x3e614dde	0.2200236
37	0x3dd8a3bf	0.10578107
38	0x3e10df7a	0.1414775
39	0xbf01ed54	-0.5075276
40	0xbf04e0b4	-0.5190537
41	0x3f15916f	0.5842504
42	0xbed25c17	-0.41085884
43	0xbef4b3bb	-0.47793373
44	0x3ea80157	0.32813522
45	0xbf232549	-0.6372877
46	0x3d4a02de	0.04931914
47	0x3f191345	0.5979503
48	0x3ea7b60b	0.32756075
49	0x3f1e1b1e	0.6176013
50	0x3ecfbe34	0.405748
51	0x3ec35fd4	0.3815905
52	0xbf1d2898	-0.61390066
53	0xbe9ecf26	-0.31017417
54	0x3e7243dc	0.23658699
55	0x3eb2729f	0.34853074
56	0x3e27d139	0.16388406
57	0x3f20915e	0.6272181
58	0x3d44b87e	0.048027508
59	0xbf2726d9	-0.6529365
60	0xbf171c93	-0.59027976
61	0x3f1a6691	0.60312754
62	0xbe933e61	-0.2875853
63	0xbcea27e3	-0.028583473
64	0x3d9b43cb	0.0758129
65	0xbf004d16	-0.50117624
66	0xbf054f3a	-0.52074015
67	0x3e75143f	0.23933505
68	0x3ea7d772	0.3278156
69	0x3ebc240d	0.36746255
70	0x3e2ad59e	0.16683051
71	0xbe100ad5	-0.14066632
72	0x3ec64c81	0.38730243
73	0xbf21b697	-0.63169235
74	0x3efcfad3	0.49410114
75	0x3e9897f0	0.2980342
76	0x3dc023d7	0.09381836
77	0x3f09a568	0.53768015
78	0xbf0c67db	-0.5484597
79	0xbef8a73d	-0.48565093
80	0x3e09826e	0.13428661
81	0x3ebb7255	0.36610666
82	0x3ed78b13	0.42098293
83	0x3ee2f664	0.44328606
84	0x3f1bf222	0.6091634
85	0x3ef56f6e	0.47936577
86	0x3f0b5194	0.54421353
87	0xbf04b064	-0.5183165
88	0x3e81e299	0.25368193
89	0x3f15c1d6	0.58498895
90	0xbf0f582b	-0.5599391
91	0x3e5c1b46	0.21494779
92	0x3edc77f2	0.4306026
93	0x3e2678f3	0.16257076
94	0x3e612de7	0.21990167
95	0x3f1742b9	0.59086186
96	0x3d12732c	0.035754368
97	0xbec23da1	-0.37937644
98	0x3cdc4ad9	0.026891159
99	0x3c3054e8	0.010762431
100	0x3e9eef8a	0.3104213
101	0x3e0d2bfb	0.13786308
102	0xbf23cbb8	-0.63982725
103	0x3ee06d71	0.43833497
104	0xbea1a6ba	-0.31572515
105	0x3ccf6710	0.025317699
106	0x3e8ccca2	0.27499872
107	0x3e4b66b3	0.19863395
108	0x3f1284b6	0.5723375
109	0x3e12e3bd	0.14344688
110	0xbf027e1d	-0.50973684
111	0x3efcf09f	0.4940233
112	0x3e87e953	0.265452
113	0x3f077d53	0.52925605
114	0x3ec12851	0.3772607
115	0x3e845106	0.25843066
116	0xb9a8f982	-0.00032229355
117	0x3ebe83b2	0.3720985
118	0xbf01d09a	-0.50708926
119	0x3f10e2c4	0.56596017
120	0xbeded813	-0.43524227
121	0x3d9da41a	0.076973155
122	0x3e9762b3	0.2956749
123	0xbf3017d2	-0.68786347
124	0xbf0c5443	-0.54816073
125	0xbee0fb86	-0.43941897
126	0x3ecdacdb	0.4017094
127	0x3f00cbed	0.50311166

feature_extractor.2.weight f4 [64, 128]
0	0x3d28de9f	0.041227933
1	0xbd824d93	-0.06362452
2	0xbdebdb99	-0.11516494
3	0xbd335dc4	-0.043790594
4	0x3d3ae167	0.045625117
5	0x3c6bf017	0.014400504
6	0xbe05ed7b	-0.13078873
7	0xbd37d074	-0.04487653
8	0x3c829f7b	0.015945187
9	0xbcbdbcfe	-0.023161408
10	0xbcd8b88f	-0.026455192
11	0xbaa8dccb	-0.0012883184
12	0x3dd71f0d	0.10503969
13	0x3e15023d	0.14551635
14	0x3c5d347b	0.013501282
15	0xbddccdb3	-0.107814215
16	0x3d0298be	0.031883948
17	0x3c72e94c	0.01482613
18	0xbdfc9eb7	-0.1233496
19	0x3db7fe53	0.08984055
20	0xbd141ce2	-0.036160357
21	0x3ddcba81	0.1077776
22	0xbccc1ae4	-0.024915166
23	0x3cd754e1	0.02628559
24	0xbdffdcdc	-0.124932975
25	0x3df294c2	0.118447796
26	0x3cf0a2f9	0.029374586
27	0xbd29a9f5	-0.04142185
28	0xbcbd2668	-0.023089603
29	0x3e187041	0.14886571
30	0xbdcdc347	-0.10047012
31	0xbb99313b	-0.004675058
32	0xbd7d4ce0	-0.06184089
33	0xbd64f27d	-0.055895317
34	0xbe01c9d6	-0.1267465
35	0x3cd5fbe0	0.02612108
36	0xbc679a79	-0.01413595
37	0x3b53425d	0.00322356
38	0xbd835b11	-0.06413854
39	0xbbb99ec5	-0.0056646788
40	0x3d8ffac8	0.070302546
41	0x3a942783	0.0011303279
42	0xbc7ace1a	-0.0153079275
43	0x3dec1668	0.11527711
44	0xbddd64af	-0.108102195
45	0xbc1ae325	-0.00945357
46	0x3d106f75	0.035262544
47	0xbd301808	-0.042991668
48	0xbd899e83	-0.06719687
49	0xbdf996e8	-0.12186986
50	0xbdf28b6c	-0.11842999
51	0x3c55e60b	0.013055335
52	0x3d04bf26	0.032408856
53	0x3d0b0287	0.033937957
54	0xbc0d0783	-0.008607748
55	0xbdfef337	-0.12448733
56	0xbdb96905	-0.09053234
57	0xbdf2b5b0	-0.118510604
58	0xbd6956ee	-0.05696767
59	0x3cbe597c	0.023236029
60	0x3da8bd18	0.08239192
61	0x3ca5d1a3	0.020241564
62	0x3cecb360	0.028894126
63	0xbd31cf6d	-0.043410707
64	0x3d115342	0.03547979
65	0xbab941f2	-0.0014134033
66	0xbceb69eb	-0.028737029
67	0xbdc9eda2	-0.09859778
68	0x3d1c63da	0.038181163
69	0xbdfafc61	-0.12255169
70	0x3ced6a9a	0.028981496
71	0x3b4f751b	0.0031655494
72	0xbd90e123	-0.070741914
73	0x3db5ec54	0.08882967
74	0xbdaf584f	-0.085617654
75	0xbde5cdfe	-0.112209305
76	0x3ce7d388	0.028299108
77	0xbdb59fe9	-0.08868391
78	0x3ce10bda	0.027471472
79	0x3d9d0ad0	0.07668078
80	0xbd0afa89	-0.033930335
81	0xbdc56697	-0.09638708
82	0xbdd5b6ac	-0.104352325
83	0xbc731905	-0.014837508
84	0xbd9bfe06	-0.076168105
85	0xbcc2f6ba	-0.023799289
86	0xbd6d4173	-0.057923745
87	0x3d3ba1a7	0.04580846
88	0xbd995a72	-0.07487954
89	0xbbaa7ed4	-0.0052031074
90	0x3b382225	0.0028096524
91	0xbc514645	-0.012773101
92	0xbcef10ff	-0.029182909
93	0xbde70fd2	-0.11282314
94	0xbdfd4fa1	-0.12368704
95	0xbca30279	-0.01989864
96	0xbd7dc5e1	-0.06195629
97	0x3c32be96	0.010909697
98	0xbd952246	-0.07281928
99	0x3d8519e3	0.06499078
100	0xbd392353	-0.045199703
101	0xbc47a5e0	-0.012185544
102	0xbc69e5da	-0.014275992
103	0xbc97e8df	-0.018543659
104	0xbb0b2934	-0.0021234276
105	0xbe0d4c3c	-0.13798612
106	0xbcaf63fd	-0.021409983
107	0xbde11bff	-0.10991668
108	0xbca36f22	-0.019950453
109	0xbdabd7c1	-0.08390761
110	0x3d28d74b	0.041220944
111	0x3d24f619	0.04027376
112	0x3ceaf4c7	0.028681172
113	0xbd66c35e	-0.05633866
114	0xbdae0143	-0.084963344
115	0xbd2378f6	-0.03991028
116	0xbd359b04	-0.044337288
117	0xbd39e099	-0.04538021
118	0x3dd4a7e7	0.10383587
119	0xbdcb6104	-0.09930614
120	0x3c533623	0.012891325
121	0xbc51e9af	-0.012812062
122	0x3c0137be	0.007886825
123	0x3e14f07e	0.14544865
124	0x3d30d72c	0.043173954
125	0x3ded87e2	0.11598183
126	0xbd593796	-0.053031527
127	0xbd27a12b	-0.040925186
128	0xbe35a737	-0.17739569
129	0x3d9f4a0c	0.07777795
130	0x3d4d07b6	0.05005618
131	0xbdc8b413	-0.097999714
132	0xbe4d9161	-0.20074989
133	0x3dec954b	0.11551913
134	0x3df46c65	0.11934737
135	0x3d607ec1	0.054808382
136	0x3e225128	0.15851271
137	0x3e1caf02	0.15301135
138	0x3da84945	0.082171
139	0xbe62afcc	-0.22137374
140	0x3bbd2d7d	0.005773245
141	0xbe66e2c0	-0.22547436
142	0x3d194c2e	0.037426166
143	0x3ddb0dc6	0.106959864
144	0x3d1ec5ff	0.038763043
145	0x3d417646	0.047231935
146	0x3d7905f5	0.060796697
147	0xbe50a502	-0.20375445
148	0x3d1254df	0.03572547
149	0xbe2fe65c	-0.17177719
150	0x3d9b2984	0.07576278
151	0x3d599364	0.05311908
152	0x3d81eec7	0.06344371
153	0xbe205cd5	-0.15660413
154	0x3d3718ab	0.04470126
155	0xbdcc43df	-0.09973883
156	0x3c9bc248	0.019013539
157	0xbd224978	-0.039620847
158	0x3d337d51	0.043820683
159	0x3da52461	0.08063579
160	0x3e0c4b6b	0.13700645
161	0x3ccd2b53	0.025045073
162	0x3e59c80f	0.21267723
163	0x3b4d2a67	0.0031305791
164	0x3dbe1e9d	0.09283183
165	0x3dba9e97	0.0911228
166	0x3dc7da50	0.09758437
167	0xbe4a1827	-0.19735776
168	0xbe22c152	-0.15894058
169	0x3e396ab6	0.18107113
170	0xbdbc1977	-0.091845445
171	0xbe4b0dd1	-0.1982949
172	0x3daa964b	0.08329447
173	0xbdddb6f9	-0.10825915
174	0x3dc2db08	0.09514433
175	0x3dd57525	0.10422734
176	0x3d6fb0fc	0.058518395
177	0x3e06dad4	0.13169414
178	0x3e020497	0.12697063
179	0x3d116894	0.035500124
180	0xbe09f6ea	-0.13473096
181	0xbc8d72dc	-0.017266683
182	0x3ddf64ee	0.10907923
183	0x3df1ed20	0.11812806
184	0x3e1bc4a2	0.15211728
185	0x3e7234dc	0.23652977
186	0x3d32dfd7	0.0436705
187	0xbe63244c	-0.22181815
188	0xbe6ad4aa	-0.22932687
189	0x3e000b33	0.12504272
190	0x3ce5929c	0.02802401
191	0x3c9a88b6	0.018864017
192	0x3e159831	0.14608838
193	0xbdfd1c0f	-0.123588674
194	0xbde711d7	-0.112826996
195	0x3e510c57	0.20414864
196	0x3e5521c0	0.20813656
197	0x3e45d7ba	0.19320574
198	0x3e332125	0.17493112
199	0xbda66b7b	-0.08125969
200	0x3e09c72c	0.13454884
201	0xbda22036	-0.079163
202	0x3e0e2a98	0.13883436
203	0x3df664d3	0.120309494
204	0x3cd91af3	0.026502108
205	0x3e128cd8	0.1431154
206	0xbd6e53a5	-0.05818524
207	0xbe2705de	-0.16310832
208	0x3ddeeca4	0.10884979
209	0x3e668108	0.22510159
210	0x3dabed7a	0.083949044
211	0x3e3697cc	0.17831343
212	0x3e04a072	0.1295183
213	0x3e16fa62	0.14743951
214	0x3e20be5b	0.15697615
215	0xbe488416	-0.19581637
216	0xbca8f93e	-0.02062666
217	0x3e265760	0.16244268
218	0xbe0aa6c3	-0.13540177
219	0x3e38f49a	0.18062058
220	0x3e298080	0.16552925
221	0x3dc68d0e	0.09694873
222	0x3df16166	0.117861554
223	0x3e480579	0.19533338
224	0xbc9c12d0	-0.01905194
225	0xbe45a7b0	-0.19302249
226	0xbc9e8031	-0.019348236
227	0x3cafb1a9	0.02144702
228	0x3e43f4af	0.19136308
229	0x3c19b5f3	0.009381759
230	0xbe39359b	-0.18086855
231	0x3db6aa5f	0.089192145
232	0xbdf68bce	-0.120383844
233	0x3d941837	0.07231181
234	0x3e18137f	0.14851187
235	0x3e163ccf	0.14671634
236	0x3d691f49	0.0569146
237	0x3d8bb0f7	0.06820863
238	0xbe880dcf	-0.26573035
239	0x3e411573	0.18855838
240	0x3dd093b4	0.10184422
241	0x3dcef72c	0.10105738
242	0x3def25aa	0.11677106
243	0x3e0d09ba	0.13773242
244	0x3df06c4c	0.11739406
245	0x3e59f22d	0.21283789
246	0xbe59ebb3	-0.21281318
247	0x3ddac460	0.10681987
248	0xbe50609d	-0.20349355
249	0x3dd3fc8d	0.103509046
250	0x3d647d38	0.05578348
251	0xbe6bb951	-0.23019911
252	0xbd97ed3b	-0.07418295
253	0xbdf42433	-0.11920967
254	0x3ddff08a	0.10934551
255	0x3e61859e	0.22023627

feature_extractor.2.bias f4 [64]
0	0x3c09fcda	0.008422101
1	0x3d9d028e	0.07666503
2	0x3df1b185	0.11801437
3	0x3dddea5e	0.108357176
4	0x3d817272	0.06320657
5	0x3e0baf9a	0.13641205
6	0xbc4f3212	-0.012646215
7	0x3e1edec7	0.1551467
8	0x3e344362	0.1760383
9	0xbd64c96d	-0.055856157
10	0xbcba13ac	-0.022714458
11	0xbc26d768	-0.010183193
12	0x3b09c2a6	0.002102056
13	0xbded0071	-0.1157235
14	0x3e02dc24	0.1277929
15	0xbdc946ca	-0.09827955
16	0x3ddbd253	0.107334755
17	0x3e13df41	0.14440633
18	0x3c798b86	0.015231019
19	0x3cfca76b	0.03084155
20	0x3dd3330b	0.1031247
21	0x3c25cb02	0.010119202
22	0x3d3c9d6f	0.046048578
23	0xbdd5be34	-0.10436669
24	0xbd303de2	-0.043027766
25	0xbc6c42c3	-0.014420214
26	0x3de76984	0.112994224
27	0x3e1e743e	0.1547403
28	0xbca29fe9	-0.019851642
29	0x3e29c0c8	0.16577446
30	0x3d9e100f	0.07717907
31	0x3cd9b2d9	0.026574539
32	0x3d15e400	0.03659439
33	0xbddc43ab	-0.10755094
34	0x3c252f5f	0.010082095
35	0xbcfb6b9c	-0.03069096
36	0x3d001567	0.03127041
37	0x3dde34bb	0.10849901
38	0x3e3055b9	0.172202
39	0x3deeff7e	0.11669825
40	0x3e00fe6e	0.12597057
41	0x3e2f8664	0.1714111
42	0x3e07e60d	0.13271351
43	0xbe053c67	-0.13011323
44	0x3ca8b01f	0.020591794
45	0x3d2d2433	0.04227085
46	0x3c8df1d4	0.017327227
47	0x3d8d47de	0.06898473
48	0x3c31b149	0.010845491
49	0x3da1dd7c	0.07903573
50	0x3d809aa8	0.06279498
51	0xbd80ae79	-0.06283278
52	0xbe0cee6a	-0.13762823
53	0x3d2db251	0.042406384
54	0x3dae6c66	0.08516769
55	0x3e31fdae	0.17381927
56	0x3d23e42d	0.040012527
57	0xbd11a455	-0.03555711
58	0xbd195266	-0.037432097
59	0xbce813b9	-0.028329717
60	0x3e1362f0	0.1439321
61	0x3dd1b510	0.10239613
62	0x3dc9c4bf	0.098519795
63	0xbd953aef	-0.07286631

lstm.weight_ih_l0 f4 [256, 64]
0	0xbe3c7e32	-0.18407515
1	0x3d107e4c	0.035276696
2	0x3dae8363	0.08521154
3	0x3e3a12eb	0.18171279
4	0x3e609092	0.21930149
5	0x3d288126	0.04113879
6	0xbe5b2724	-0.2140165
7	0x3d433c58	0.04766497
8	0x3d987543	0.07444241
9	0xbe35d4b2	-0.17756918
10	0xbdc340a7	-0.09533816
11	0xbd8daf5c	-0.06918213
12	0xbe577d3c	-0.21043867
13	0xbd97b04a	-0.07406671
14	0x3d257dfe	0.04040336
15	0xbe4e3c03	-0.2014008
16	0x3e7565b4	0.23964578
17	0x3e539613	0.20662718
18	0x3ce77945	0.028256068
19	0xbdb7b525	-0.089700975
20	0x3dde11ea	0.108432606
21	0xbc0ec14b	-0.008713077
22	0xbce1f9d6	-0.027584951
23	0xbe0f7760	-0.14010382
24	0xbddcae53	-0.10775437
25	0xbd287fa0	-0.041137338
26	0x3e8574b4	0.260656
27	0x3e0a6122	0.13513616
28	0xbd481a81	-0.0488534
29	0x3e046cb3	0.1293209
30	0x3d79d527	0.060994294
31	0xbdd05a6d	-0.10173497
32	0x3c84e675	0.016223172
33	0xbe50f65d	-0.2040648
34	0xbc489688	-0.012242921
35	0xbdc4b900	-0.096055984
36	0x3d97f657	0.074200325
37	0x3d7b1ece	0.061308675
38	0x3de4eeaa	0.11178334
39	0x3e07f321	0.1327634
40	0x3c49684f	0.0122929355
41	0x3e7bb56f	0.2458093
42	0xbc212d8a	-0.0098375175
43	0xbda77f74	-0.08178607
44	0xbd797743	-0.060904752
45	0x3df13a1a	0.1177866
46	0x3e6eb7e5	0.23312338
47	0x3d4ba129	0.04971424
48	0x3cfba5a8	0.03071864
49	0x3dcf9a0d	0.10136805
50	0x3e60a3b2	0.21937445
51	0xbdf7d755	-0.12101618
52	0xbe632e75	-0.2218569
53	0xbbbe37a3	-0.0058049723
54	0x3e6db942	0.23215201
55	0x3dcc2c92	0.099694386
56	0xbd974d67	-0.0738781
57	0xbc9897b2	-0.018627021
58	0xbe0c7fb2	-0.13720587
59	0x3e2a42bc	0.1662702
60	0x3d0e76f5	0.034781415
61	0xbd339d36	-0.0438511
62	0xbd052238	-0.032503337
63	0xbbad9796	-0.0052976115
64	0xbdbf887d	-0.09352205
65	0x3e38477a	0.17996016
66	0x3e2b46e1	0.16726257
67	0x3e19f3f9	0.15034474
68	0x3e1dc049	0.15405382
69	0x3e08d5e0	0.13362837
70	0xbd273e37	-0.040830817
71	0x3be1251c	0.006870879
72	0x3e4afe68	0.19823611
73	0x3c1d1458	0.00958737
74	0xbda4e4d7	-0.0805146
75	0x3b98df96	0.0046653254
76	0x3ca07b7a	0.019590128
77	0xbe58839e	-0.21143958
78	0x3cc40b94	0.023931302
79	0xbd672169	-0.056428347
80	0x3e28b79c	0.16476291
81	0xbc474702	-0.012162926
82	0x3c382336	0.011238864
83	0xbcfe2b2d	-0.031026447
84	0x3e6ee87e	0.23330876
85	0xbcef7f51	-0.029235514
86	0x3e5caf5a	0.21551266
87	0xbd64c83a	-0.055855013
88	0x3d48b78c	0.04900317
89	0xbdab40cb	-0.08361968
90	0x3d57dce7	0.052700903
91	0x3d453148	0.0481427
92	0xbd92086f	-0.07130515
93	0x3e4a9229	0.19782318
94	0x3da5267b	0.0806398
95	0x3d0cf672	0.034414716
96	0x3cb9bc61	0.022672834
97	0x3cf9e2d6	0.030503672
98	0xbd585e1f	-0.052824136
99	0x3d382210	0.04495436
100	0x3dbadfe1	0.09124733
101	0x3dbb4e30	0.091457725
102	0x3dc110e6	0.09427051
103	0x3e8f03dd	0.27932635
104	0x3cdb8748	0.026797906
105	0x3e727b8b	0.2367994
106	0x3c263a89	0.010145792
107	0x3d50a203	0.050935756
108	0xbd84994b	-0.06474551
109	0x3d71eaa9	0.05906168
110	0x3d997d20	0.07494569
111	0x3e155b4c	0.14585608
112	0x3d1f31b9	0.03886578
113	0x3d400505	0.046879787
114	0x3bba5ba4	0.005687194
115	0xbbff6e8a	-0.0077951597
116	0xbd95053e	-0.072763905
117	0xbd9f85fc	-0.07789227
118	0x3e5e4be3	0.21708636
119	0x3cd812d9	0.026376175
120	0xbe05cfb7	-0.13067518
121	0xbe2bc6f6	-0.16775116
122	0x3ce0488a	0.02737834
123	0x3da4c248	0.08044869
124	0x3d9a9575	0.07548038
125	0x3dd2a35b	0.10285064
126	0x3e5317e2	0.2061458
127	0xbe0f77ab	-0.14010493
128	0xbcca8618	-0.024722144
129	0x3e03c8cc	0.12869567
130	0x3e3ce595	0.18446954
131	0x3e582461	0.21107627
132	0x3d5a9490	0.053364336
133	0x3d25a568	0.040440947
134	0xbd8aa963	-0.06770589
135	0xbd01772f	-0.031607803
136	0x3d3677cd	0.044547845
137	0xbd37786f	-0.04479259
138	0xbd9cb1ae	-0.07651077
139	0xbe105af1	-0.14097191
140	0x3d34a075	0.044098336
141	0x3cce1669	0.02515717
142	0x3e5c0c6d	0.21489115
143	0x3cca13c4	0.024667628
144	0x3e45c3b0	0.1931293
145	0x3c6bc6a4	0.014390621
146	0xbe0a7b92	-0.13523701
147	0xbca1b4e2	-0.019739572
148	0x3e2805be	0.1640844
149	0x3c627ccc	0.013823699
150	0x3e37ddbc	0.17955679
151	0xbc9a958c	-0.018870138
152	0xbdab0b84	-0.08351806
153	0x3d4385bc	0.04773496
154	0x3e51919b	0.204657
155	0x3d84d2a1	0.06485487
156	0xbe13c8d6	-0.14432082
157	0x3dd4b0e8	0.10385305
158	0x3e2d9312	0.16950634
159	0xbbc93521	-0.0061403667
160	0x3d5c3ae5	0.053767104
161	0xbd221fa5	-0.03958096
162	0xbd2f45e4	-0.042791262
163	0xbca011da	-0.019539762
164	0x3c27a34e	0.010231806
165	0x3e22fc13	0.15916471
166	0x3e53d719	0.20687522
167	0x3da0eba2	0.078574434
168	0x3c505b32	0.012717055
169	0x3dab0f35	0.0835251
170	0x3dd424db	0.10358592
171	0xbce07459	-0.027399229
172	0xbd7bdd88	-0.061490566
173	0x3c9ff598	0.019526288
174	0x3e124b1e	0.14286467
175	0x3e5408af	0.20706438
176	0x3cb0b885	0.02157236
177	0x3e1b2fd1	0.1515496
178	0x3e32337e	0.17402455
179	0xbe429a55	-0.19004185
180	0x3c7ad075	0.015308489
181	0xbdfc9026	-0.12332182
182	0x3d4dfc33	0.050289344
183	0x3e2323c6	0.15931615
184	0x3d420d11	0.047375742
185	0x3c50354e	0.012708021
186	0xbd5cdd2b	-0.05392186
187	0x3e0c3087	0.13690387
188	0x3c2de6c9	0.0106141055
189	0x3e2be40b	0.1678621
190	0x3e045726	0.1292387
191	0xbe11d481	-0.1424122
192	0xbddd92e8	-0.10819036
193	0x3e3f8e14	0.18706542
194	0x3e0aa6be	0.1354017
195	0x3dd9078a	0.10597141
196	0x3dea9197	0.1145355
197	0x3e3b4806	0.18289194
198	0xbe1f1b2d	-0.1553771
199	0xbc86a6ea	-0.016437013
200	0x3daa7034	0.08322182
201	0xbb88c0b2	-0.0041733617
202	0xbca2e777	-0.019885762
203	0xbd50f648	-0.051016122
204	0xbe138641	-0.14406683
205	0xbe423d0d	-0.18968602
206	0x3c8b5155	0.017006556
207	0xbd0c95a7	-0.034322407
208	0x3e252602	0.1612778
209	0x3cbd04dd	0.023073608
210	0xbd99e600	-0.07514572
211	0xbe06b3b2	-0.13154486
212	0x3df2034a	0.118170336
213	0xbd89b93f	-0.06724786
214	0x3d178794	0.03699453
215	0xbcbdf30b	-0.023187181
216	0xbdc6b47f	-0.09702396
217	0xbd082a81	-0.03324366
218	0x3e74a9e9	0.2389294
219	0x3d79b7c9	0.060966287
220	0xbdebc8d0	-0.11512911
221	0x3d9df763	0.07713201
222	0x3dfc38d1	0.12315524
223	0x3d7a31e9	0.061082754
224	0x3e42be17	0.19017826
225	0xbe1d9ae8	-0.15391123
226	0xbd2592bc	-0.04042314
227	0xbd6d628d	-0.057955313
228	0x3de2c4b3	0.11072674
229	0xbc2d3419	-0.010571503
230	0x3d9e25ea	0.07722075
231	0x3e326e0b	0.1742479
232	0xba1223b5	-0.0005574779
233	0x3da7ae4e	0.08187543
234	0x3e67345a	0.22578564
235	0x3c36006b	0.011108498
236	0xbdc607fe	-0.09669493
237	0x3dc3a68d	0.095532514
238	0x3e614ede	0.22002742
239	0x3de017db	0.1094205
240	0x3c0af4ed	0.008481246
241	0x3daa96a0	0.08329511
242	0x3d10755b	0.03526817
243	0xbd65bb8f	-0.056087073
244	0xbe4376c4	-0.19088274
245	0x3d094ec2	0.033522375
246	0x3df01c7e	0.117241845
247	0x3e0d7151	0.13812758
248	0xbd355c93	-0.04427774
249	0xbe2fa1ba	-0.17151538
250	0xbe260cf2	-0.16215876
251	0x3e3eaca7	0.18620549
252	0x3ce3afde	0.027793821
253	0x3d40240f	0.04690939
254	0x3e219f46	0.15783414
255	0xbe18323d	-0.14862914

lstm.weight_hh_l0 f4 [256, 64]
0	0x3d149a82	0.036280163
1	0x3bb342a2	0.0054705897
2	0x3d354aa2	0.04426063
3	0x396e6bd1	0.00022737613
4	0x3db25528	0.087076485
5	0x3db01eb6	0.08599608
6	0x3e0ead4c	0.13933295
7	0x3cfdec9a	0.03099661
8	0x3d8c4cde	0.06850599
9	0xbd216c86	-0.039410137
10	0xbc608917	-0.01370456
11	0xbde1b017	-0.110199146
12	0x3d27d0c5	0.040970583
13	0x3d1f65f7	0.0389156
14	0x3de17799	0.110091396
15	0x3e1cc7f4	0.15310651
16	0x3c910cb6	0.017706256
17	0x3d5c0d85	0.05372383
18	0x3ddae534	0.10688248
19	0x3e15c8e2	0.14627412
20	0xbd443bd8	-0.047908634
21	0x3c58a3b4	0.013222624
22	0x3ddcb413	0.10776534
23	0x3db42b56	0.08797328
24	0xbe1e8d13	-0.15483503
25	0xbdd22097	-0.10260122
26	0xbdaecdfb	-0.085353814
27	0x3d0a6fb0	0.03379792
28	0xbdf1aa8f	-0.118001096
29	0xbdcc6abc	-0.099812955
30	0xbcba894b	-0.022770545
31	0x3e15ca99	0.14628066
32	0x3dabb78d	0.08384619
33	0x3b0db81b	0.0021624628
34	0x3c013cd3	0.007888037
35	0x3dc16781	0.0944357
36	0x3e07c8e4	0.13260227
37	0xbddac168	-0.106814206
38	0x3da69343	0.08133557
39	0xbd977a75	-0.07396404
40	0xbdd2c239	-0.10290951
41	0x3daccfe0	0.084380865
42	0xbcef4001	-0.029205324
43	0xbdb66302	-0.08905603
44	0xbe052e14	-0.13005859
45	0x3d6e2b3f	0.05814671
46	0xbd17414e	-0.036927514
47	0xbdd6d90b	-0.104906164
48	0x3e225150	0.15851331
49	0x3df436d6	0.119245216
50	0xbd444d1f	-0.04792511
51	0x3d9b13f0	0.07572162
52	0x3e1056b7	0.14095579
53	0xbd49d39f	-0.049274083
54	0x3d0ee722	0.034888394
55	0xbcb640fb	-0.022247782
56	0x3da38ce9	0.07985861
57	0x3da62c5c	0.0811393
58	0xbcab929c	-0.020943932
59	0x3e04a52c	0.12953633
60	0xbcccdc8c	-0.025007509
61	0xbcfadf76	-0.030624133
62	0xbccd32e3	-0.025048679
63	0x3e076a38	0.13224113
64	0xbd290cba	-0.041271903
65	0xbd73fdca	-0.059568204
66	0xbd5dbfd3	-0.054138016
67	0x3d5cc9db	0.053903442
68	0xbddbe1c3	-0.1073642
69	0x3c199806	0.009374624
70	0x3ce89477	0.028391106
71	0x3e1a7a40	0.15085697
72	0xbd844349	-0.06458146
73	0x3d92339f	0.07138752
74	0xbdb6b600	-0.089214325
75	0xbd3c79a7	-0.046014454
76	0x3d795d29	0.06087986
77	0x3d776f64	0.060408965
78	0x3da34327	0.07971793
79	0x3c8e5c44	0.01737798
80	0xbdf50778	-0.11964315
81	0x3c3ab6ce	0.011396123
82	0x3cf17ada	0.029477526
83	0x3d06bceb	0.03289501
84	0xbd419da7	-0.04726949
85	0xbdf69cc4	-0.120416194
86	0x3ab998ad	0.0014159881
87	0x3d521291	0.051287238
88	0xbd9d38d5	-0.076768555
89	0x3d817c84	0.063225776
90	0x3db318b4	0.08744946
91	0x3e23a2da	0.15980092
92	0xbdd9f0c2	-0.10641624
93	0x3cb4434d	0.022004748
94	0xbd3b1572	-0.04567475
95	0x3dcb36f1	0.099225886
96	0xbd9c6f3f	-0.07638406
97	0xbd9ceefc	-0.0766277
98	0xbdc3f72b	-0.09568628
99	0xbd9e01f0	-0.07715213
100	0x3d4117fb	0.04714201
101	0x3c126a09	0.008936414
102	0x3daecd31	0.08535231
103	0xbda740ec	-0.0816668
104	0x3db354af	0.087563865
105	0x3da6c301	0.08142663
106	0xbd8f9333	-0.07010498
107	0xbd90c9c5	-0.070697345
108	0x3cfb4c56	0.030676048
109	0xbd7a8d38	-0.061169833
110	0xbdb34a11	-0.087543614
111	0xbc97625c	-0.018479519
112	0x3d7923c3	0.06082512
113	0x3dd25d1e	0.10271667
114	0x3bc2472c	0.0059288945
115	0xbd19d84b	-0.03755979
116	0xbb4ce20e	-0.0031262669
117	0x3d5d5f0b	0.05404572
118	0xbd81d8df	-0.06340193
119	0x3d24c7d8	0.04022965
120	0x3d8fbd9f	0.07018589
121	0xbc91de45	-0.017806182
122	0x3d4be1e7	0.049775984
123	0x3dbcc671	0.09217537
124	0x3e18fe7e	0.14940831
125	0x3e212e17	0.15740238
126	0xbccd1ff3	-0.025039649
127	0xbbeea176	-0.0072824312
128	0xbd5b2a9d	-0.053507436
129	0xbdf02e00	-0.11727524
130	0x3d7fa736	0.062415324
131	0x3d1b31a6	0.037889145
132	0x3db4af08	0.08822447
133	0x3dd2c7f9	0.10292048
134	0xbd7076b5	-0.058706958
135	0xbd81541c	-0.06314871
136	0x3e03a8b1	0.1285732
137	0x3d5352e0	0.051592708
138	0xbd441aa5	-0.047876973
139	0xbbb1562b	-0.0054118834
140	0xbdaa2f71	-0.0830983
141	0xbd88a1a1	-0.06671453
142	0x3cee984c	0.029125355
143	0xbd6b5921	-0.057458047
144	0xbdf233a4	-0.11826256
145	0x3c7fa133	0.015602398
146	0x3e18df24	0.14928871
147	0x3dde1f65	0.10845832
148	0x3ddf3616	0.10898988
149	0xbe18c9a9	-0.14920677
150	0x3e10174e	0.1407139
151	0xbd8c94e2	-0.06864335
152	0x3db2d5ce	0.08732186
153	0x3a88ce5c	0.0010437476
154	0xbd7322d5	-0.05935939
155	0xbc30b081	-0.010784269
156	0x3cfd435d	0.03091591
157	0x3cec4f86	0.028846513
158	0x3c9241b3	0.017853593
159	0xbc2fdff0	-0.010734543
160	0xbd522f3e	-0.051314585
161	0xbdba4c9b	-0.090966426
162	0xbd8aea66	-0.06782989
163	0xbcdc712f	-0.026909439
164	0x3e0afc16	0.13572726
165	0xbe0befb8	-0.13665664
166	0x3d9ca7f3	0.07649221
167	0xbc9ced59	-0.019156145
168	0xbc8e0b6d	-0.017339433
169	0xbc333a76	-0.010939231
170	0xbd94cb71	-0.07265366
171	0xbd58500e	-0.05281072
172	0xbe0716ef	-0.13192342
173	0xbd8f9f1d	-0.0701277
174	0x3e0bcf87	0.13653384
175	0x3d904fa0	0.07046437
176	0x3af1a923	0.0018437247
177	0x3de5927c	0.1120958
178	0x3d995973	0.07487764
179	0xbc36d45c	-0.011159029
180	0x3d3ddf13	0.04635532
181	0xbd9168ac	-0.07100043
182	0xbd0819fc	-0.033227906
183	0xbe051e0f	-0.12999748
184	0x3e19123b	0.1494836
185	0x3dc4ea92	0.09615053
186	0xbd741c16	-0.059597097
187	0xbd40f9dc	-0.047113284
188	0xbc9971f6	-0.018731099
189	0x3b2f0e0d	0.0026711256
190	0xbcf26033	-0.029586887
191	0xbcf48fb1	-0.029853674
192	0x3d444277	0.04791495
193	0xbdc6ea4d	-0.09712658
194	0xbe14203a	-0.14465418
195	0x3b0259a8	0.0019889865
196	0xbda6c01c	-0.08142111
197	0xbda6865b	-0.08131095
198	0x3d39ff6c	0.045409605
199	0xbbf8c255	-0.0075915256
200	0x3bab82d0	0.0052341
201	0xbd00e673	-0.031469774
202	0xbe004d4d	-0.12529488
203	0x3ba12106	0.004917267
204	0x3d490aa8	0.04908243
205	0xbe0ba335	-0.13636477
206	0x3dd902a9	0.105962105
207	0xbd494ee7	-0.049147513
208	0xbd6ac184	-0.057313457
209	0xbdfa1b05	-0.12212185
210	0x3e05373a	0.13009349
211	0xbc8ffec3	-0.017577535
212	0xbd05dadd	-0.032679427
213	0x3d6820f3	0.056672048
214	0xbcc761f5	-0.024338702
215	0x3dbbfbe3	0.09178903
216	0xbd9ac758	-0.07557553
217	0xbca405cd	-0.020022297
218	0x3de833d4	0.113380104
219	0xbc17b714	-0.009259958
220	0x3da4c7d8	0.0804593
221	0xbc02508e	-0.007953776
222	0x3d2463b6	0.040134154
223	0x3cd99ba6	0.026563477
224	0xbd8af314	-0.06784645
225	0xbdbbcaf1	-0.091695674
226	0x3c60030c	0.013672601
227	0xbdd4190b	-0.10356339
228	0xbcf136f4	-0.029445149
229	0xbe0f2571	-0.13979127
230	0xbd917810	-0.07102978
231	0xbdd5afc3	-0.104339145
232	0x3cbfc390	0.023408681
233	0x3d30980c	0.043113753
234	0xbdb0051e	-0.08594726
235	0xbd9720cd	-0.07379303
236	0x3d9a9e84	0.07549766
237	0x3e19f1cf	0.15033649
238	0x3e19efc3	0.15032868
239	0xbd8ffb01	-0.07030297
240	0xbd682d3c	-0.056683764
241	0xbcce24a8	-0.025163963
242	0xbd2b72bc	-0.041857466
243	0x3c1af6ad	0.009458226
244	0x3d591c5a	0.053005554
245	0xbc8bafcd	-0.017051602
246	0x3db94ce9	0.090478726
247	0xbdf33e76	-0.11877148
248	0x3d2de106	0.042450927
249	0xbd7ec9c7	-0.06220415
250	0x3df06621	0.117382295
251	0x3c294124	0.010330472
252	0xbd3d7544	-0.04625441
253	0xbd8bc612	-0.06824888
254	0x3e125eaf	0.14293931
255	0xbd0c8ae8	-0.03431216

lstm.bias_ih_l0 f4 [256]
0	0x3bae5658	0.0053203516
1	0x3c2de5c2	0.010613861
2	0x3d4666e2	0.04843796
3	0x3dfa6977	0.12227147
4	0x3d6f3bb1	0.058406536
5	0x3d287798	0.04112968
6	0x3d6d9044	0.05799891
7	0x3d81c43a	0.06336255
8	0x3deea907	0.11653333
9	0x3d9d24d5	0.07673041
10	0x3e00aa5a	0.12564984
11	0x3bacba77	0.005271252
12	0x3e25a9dd	0.16178079
13	0x3e104838	0.1409005
14	0xbb6a4a4c	-0.003574985
15	0x3e13bb05	0.14426811
16	0x3dcc3dc0	0.099727154
17	0x3e442296	0.19153818
18	0x3e067389	0.1313001
19	0x3e23567c	0.1595096
20	0x3e3b6852	0.18301514
21	0xbd89a940	-0.06721735
22	0x3e1b2e62	0.15154412
23	0x3e21db77	0.15806375
24	0x3b0913b4	0.0020916285
25	0xbd26d461	-0.040729884
26	0xbd026c7e	-0.031841747
27	0xbc629e4d	-0.013831687
28	0xbd83f81c	-0.064438075
29	0x3e2d8b06	0.16947564
30	0x3e472617	0.19448124
31	0x3b23feaf	0.002502363
32	0x3df21310	0.11820042
33	0x3ba96912	0.005169996
34	0xbd9e22b8	-0.07721466
35	0x3e2806aa	0.16408792
36	0x3e134eb4	0.14385492
37	0xbceb6e12	-0.028739009
38	0x3dbca972	0.09212007
39	0x3db72bfe	0.08943938
40	0x3d5cd928	0.053918034
41	0x3e391578	0.18074596
42	0x3c492bd1	0.012278513
43	0x3e1c2fc0	0.1525259
44	0xbc8fcb27	-0.017552925
45	0xbd0a4454	-0.03375657
46	0x3d237157	0.03990301
47	0x3e218936	0.15774998
48	0x3e2f860c	0.17140979
49	0xbc0014ae	-0.00781743
50	0x3d068d7c	0.032849774
51	0x3d55efbf	0.052230593
52	0xbd0238fa	-0.03179262
53	0x3e11ce1f	0.14238785
54	0x3e2b8b9a	0.16752473
55	0x3e13f499	0.14448775
56	0xbdb2fd8f	-0.08739769
57	0x3bf29eeb	0.0074041984
58	0x3e22dc4b	0.15904348
59	0x3ddb66d7	0.107129745
60	0xb939daa7	-0.00017724429
61	0xbba6176f	-0.0050687115
62	0x3bfb05a1	0.007660583
63	0xbcd5221d	-0.026017243
64	0x3dd1f634	0.10252038
65	0xbceed568	-0.029154494
66	0xbd4c0b95	-0.049815733
67	0xbda47c9c	-0.0803158
68	0x3ce2f20d	0.02770331
69	0x3bc39002	0.005968095
70	0x3d6e26c7	0.05814245
71	0x3cd8ed3f	0.026480315
72	0xb9c9ee0a	-0.0003851506
73	0x3d5e3cb2	0.054257102
74	0x3d1673d9	0.036731575
75	0x3db90baa	0.09035428
76	0xbd8ca376	-0.06867115
77	0x3d6410f8	0.055680245
78	0x3e0d3759	0.13790645
79	0xbce9c4ef	-0.028536288
80	0x3c96d6e6	0.018413018
81	0xbbbe5a5b	-0.005809111
82	0x3da24caa	0.07924779
83	0x3e02581c	0.12728924
84	0x3d59373a	0.053031184
85	0x3d0c9084	0.03431751
86	0xbc846a10	-0.016163856
87	0x3d5b25fc	0.05350302
88	0x3b0bfc14	0.0021359967
89	0x3d9f498d	0.077777006
90	0xbd3f7dbd	-0.046750773
91	0xbd546005	-0.051849384
92	0x3d090262	0.033449538
93	0x3d1d0a5b	0.038339954
94	0x3e18c621	0.1491933
95	0xbd1ec45f	-0.038761493
96	0x3e16834f	0.14698528
97	0x3d95a0a9	0.07306034
98	0x3cd917f4	0.02650068
99	0x3e078855	0.132356
100	0x3d0577fe	0.032585137
101	0x3d954cde	0.07290052
102	0x3d7f4afb	0.062327366
103	0x3e182e3b	0.14861386
104	0x3dccc78c	0.09998998
105	0x3dcb8d33	0.09939041
106	0x3dc3b3f0	0.09555805
107	0x3de6b2be	0.11264561
108	0x3ce51f31	0.027968975
109	0x3d9ae3ec	0.07563004
110	0x3d21ecbb	0.039532404
111	0x3b19fe9a	0.0023497702
112	0x3dc9d699	0.098553844
113	0xbcf5eed5	-0.03002111
114	0x3db41193	0.087924145
115	0x3d0e3e99	0.034727667
116	0x3e16ce39	0.14727105
117	0xbdabcf10	-0.083891034
118	0xbd691dec	-0.0569133
119	0xbd8ea2a7	-0.06964617
120	0x3c40ffb3	0.011779713
121	0x3e09e42e	0.1346595
122	0x3d0b35e7	0.033986952
123	0x3d846b39	0.064657636
124	0x3d9e4fee	0.07730089
125	0xbb1b00a4	-0.0023651505
126	0x3df0ac2d	0.1175159
127	0xbd9b37ff	-0.0757904
128	0xbc6f669b	-0.014611865
129	0x3d68de5b	0.05685268
130	0x3d5d9416	0.054096304
131	0xbd6c50b8	-0.057694167
132	0xbded10a0	-0.115754366
133	0x3de279a2	0.11058356
134	0xbd347acd	-0.044062424
135	0x3d91cbbe	0.07118939
136	0x3dd04a17	0.101703815
137	0xbda70b02	-0.081563964
138	0xbdabfa47	-0.08397346
139	0xbe02e78d	-0.12783642
140	0xbd511b54	-0.051051453
141	0xbe045ddd	-0.12926431
142	0x3e14cf6e	0.14532253
143	0x3d4c9768	0.04994908
144	0xbb89749d	-0.0041948096
145	0xbdab9ff9	-0.08380122
146	0xbdaf5043	-0.085602306
147	0xbd5cc0fb	-0.053894978
148	0xbcf77108	-0.030205265
149	0xbdd75b03	-0.10515406
150	0x3cbec5b1	0.023287626
151	0xbd17772a	-0.036978878
152	0xbc0ac00b	-0.008468638
153	0x3d5ae988	0.05344537
154	0xbd2b8aac	-0.041880295
155	0x3dc096f6	0.094037935
156	0x3da35ea9	0.07977039
157	0x3c2cd780	0.010549426
158	0xbda80f02	-0.082059875
159	0xbdc11eca	-0.09429701
160	0xbe07c557	-0.13258873
161	0xbcc34834	-0.02383814
162	0xbb45617a	-0.0030117915
163	0x3d8aa896	0.067704365
164	0x3d16f24d	0.03685217
165	0x3cfd1a47	0.03089632
166	0x3cd6ecf1	0.02623603
167	0x3bbc6bb2	0.005750143
168	0xbdbb44f6	-0.09144013
169	0x3d6e000a	0.058105506
170	0xbc619473	-0.013768303
171	0xbd033a69	-0.032038126
172	0xbd64f233	-0.05589504
173	0xbd638ddf	-0.05555522
174	0x3e09476e	0.13406155
175	0x3daf698d	0.08565054
176	0xbdbcce2d	-0.092190124
177	0xbd260020	-0.040527463
178	0xbdc07ee1	-0.093992
179	0xbdcd5c6a	-0.10027392
180	0xbc85672b	-0.016284546
181	0x3d90371f	0.070417635
182	0x3d061cb2	0.03274221
183	0xbdf0cc30	-0.11757696
184	0x3cf352b0	0.029702514
185	0x3d510c31	0.051037017
186	0xbd0017e9	-0.031272803
187	0x3d8871aa	0.06662305
188	0xbd931b3d	-0.0718293
189	0x3cc3e8fc	0.023914807
190	0xbdab0020	-0.08349633
191	0x3dcb5c92	0.09929766
192	0x3d6186d5	0.055060226
193	0x3d9fe6e5	0.078077115
194	0xbcaf8d67	-0.02142973
195	0xbcf12197	-0.029434962
196	0x3d0971a5	0.033555645
197	0x3d507084	0.050888553
198	0x3dd00e64	0.10158995
199	0x3c25a05a	0.010109032
200	0x3de07939	0.109606214
201	0x3d2e768d	0.042593528
202	0x3e09f77c	0.13473314
203	0xbcc813da	-0.024423528
204	0xbd0dc4a1	-0.034611348
205	0x3d876fe9	0.06613142
206	0x3c9c45bf	0.019076226
207	0x3e2bc1af	0.16773103
208	0x3da0c425	0.078499116
209	0x3d9cb255	0.07651202
210	0x3d77572d	0.06038587
211	0x3d92ca89	0.07167537
212	0xbd7f1cac	-0.062283203
213	0x3e1a5ce9	0.15074505
214	0x3dda528f	0.10660278
215	0xbb968e75	-0.004594619
216	0x3e2e17be	0.17001244
217	0xbb5208c2	-0.0032048677
218	0x3d69c94a	0.05707673
219	0xbd339af4	-0.043848947
220	0x3cfaab54	0.030599274
221	0xbd0a259e	-0.03372728
222	0x3de0593a	0.109545186
223	0x3de9aa4e	0.11409436
224	0x3df3f3bc	0.11911723
225	0x3e2c9be0	0.16856337
226	0x3e048fcb	0.12945478
227	0x3c563d18	0.013076089
228	0x3a622c66	0.00086278317
229	0x3cf92315	0.030412236
230	0xbd01c302	-0.031680115
231	0x3e26929a	0.16266862
232	0x3e181f9a	0.14855805
233	0x3be4857e	0.0069739213
234	0x3d811f3f	0.06304788
235	0x3c68a55f	0.014199584
236	0x3dacae57	0.0843169
237	0x3e048bdb	0.12943976
238	0x3dcfde7f	0.1014986
239	0x3d1a310c	0.03764443
240	0x3d0c09dc	0.03418909
241	0x3d00cc38	0.03144476
242	0x3e0ece05	0.13945778
243	0x3e28f011	0.16497828
244	0xbc731678	-0.0148369
245	0xbc245e1f	-0.010032206
246	0x3d9b96e0	0.075971365
247	0xbd33e1ce	-0.043916516
248	0x3c5d1f0e	0.013496174
249	0x3c354b8b	0.011065374
250	0x3d70d400	0.05879593
251	0x3e021302	0.12702563
252	0x3e027f31	0.12743832
253	0x3d9a718f	0.07541191
254	0xbc517e8f	-0.012786522
255	0x3db899f1	0.09013737

lstm.bias_hh_l0 f4 [256]
0	0xbd43779e	-0.047721498
1	0x3d633a9a	0.05547581
2	0x3cb5854a	0.022158284
3	0xbd4650ed	-0.04841702
4	0x3d6149fa	0.05500219
5	0x3d01f607	0.03172877
6	0x3e23c938	0.15994728
7	0xbd6f7dc5	-0.058469553
8	0xbcca985e	-0.024730857
9	0x3e15d2b1	0.14631154
10	0x3dab6c60	0.0837028
11	0x3dac6b52	0.08418907
12	0x3e201cac	0.15635937
13	0x3cf84840	0.030307889
14	0x3d86142c	0.06546816
15	0x3d23d10f	0.039994296
16	0x3e179db8	0.14806259
17	0x3e358bb7	0.17729078
18	0x3d3182f6	0.043337785
19	0x3d8f73a3	0.07004478
20	0x3cb45802	0.022014622
21	0x3dabc19c	0.083865374
22	0x3e39326a	0.18085638
23	0x3cf64a69	0.030064778
24	0xbb2fbc9e	-0.0026815305
25	0x3e263fbf	0.16235255
26	0x3dc6abc5	0.09700731
27	0x3d8d3c73	0.068962954
28	0x3a5832f7	0.00082473404
29	0x3d9213a3	0.07132652
30	0x3e1e02bc	0.1543073
31	0x3d0ceb24	0.034403935
32	0x3e0d6b7c	0.13810533
33	0x3d3bf386	0.04588654
34	0x3defcad6	0.1170861
35	0xbca219da	-0.019787718
36	0x3ddc7858	0.10765141
37	0xbc5e1018	-0.013553642
38	0x3dffa091	0.124817975
39	0x3e2f351e	0.17110106
40	0x3e0aa20d	0.1353838
41	0x3cc43751	0.023952158
42	0xbd6e7eba	-0.058226325
43	0xbd5d4f00	-0.05403042
44	0x3d564a96	0.052317224
45	0xbd2562f6	-0.04037758
46	0x3da915f4	0.0825614
47	0x3dd06cca	0.10177
48	0x3d58eebd	0.052962054
49	0xbd95b8d1	-0.073106416
50	0x3e014aad	0.12626143
51	0x3d080a7e	0.03321313
52	0x3dac76d3	0.084211014
53	0x3b258b8a	0.0025260174
54	0x3e1daeab	0.15398662
55	0x3ddb1df5	0.10699073
56	0xbdba5003	-0.09097292
57	0x3daa4be0	0.08315253
58	0x3e2241f2	0.15845469
59	0x3db59aea	0.08867438
60	0x3e1114b3	0.14168052
61	0x3d9f988d	0.077927686
62	0xbb82c9b2	-0.003991329
63	0x3e0b6f30	0.13616633
64	0x3dfc9b36	0.12334292
65	0xbd9d27c1	-0.07673598
66	0xbd41e1f2	-0.04733462
67	0x3e146232	0.14490584
68	0x3df66a9c	0.12032053
69	0x3d913d47	0.07091766
70	0x3d902a95	0.07039372
71	0x3d972179	0.07379431
72	0x3dab8819	0.08375568
73	0xbd9a3de9	-0.0753134
74	0x3e16a70b	0.1471216
75	0x3acc5c1c	0.0015591416
76	0xbda3a520	-0.079904795
77	0x3dbb3acf	0.09142076
78	0x3d4f267e	0.05057382
79	0xbcd5e681	-0.02611089
80	0x3ba415de	0.0050074896
81	0x3e14c6d7	0.14528976
82	0xbd9c075d	-0.07618592
83	0x3ce3b3af	0.02779564
84	0xbd131e7e	-0.03591775
85	0x3cbdf262	0.023186866
86	0xbd83f31e	-0.06442855
87	0xbd99d5a0	-0.07511449
88	0x3db41568	0.087931454
89	0x3d1c0c18	0.03809747
90	0x3d43b44f	0.047779378
91	0xbce9a7df	-0.02852243
92	0x3c9fbad3	0.019498264
93	0x3dd34277	0.103154115
94	0xbd8f578f	-0.06999122
95	0x3e1925d6	0.1495584
96	0x3e267cf5	0.16258605
97	0x3e0cbb45	0.13743313
98	0xbc97e583	-0.018542057
99	0xbc8b5861	-0.017009916
100	0xbdbd2925	-0.09236363
101	0xbbb2b333	-0.005453491
102	0xb95b3580	-0.00020905398
103	0x3e251cd2	0.16124275
104	0xbcea9c0a	-0.028638858
105	0x3e0f56d4	0.13997966
106	0x3e199082	0.14996532
107	0x3cdf3a54	0.027249493
108	0x3dc8d49f	0.09806179
109	0x3dd16003	0.10223391
110	0xbd8f1ee4	-0.06988314
111	0x3da0a37a	0.07843681
112	0x3d1d07b2	0.038337417
113	0xbd80758c	-0.0627242
114	0x3b388631	0.0028156156
115	0x3dbd6cee	0.09249292
116	0xbd8f1f72	-0.069884196
117	0x3cb89f13	0.02253679
118	0xbb8c5c7a	-0.004283485
119	0x3e19f17b	0.15033524
120	0xbd08b00e	-0.033371024
121	0x3e2b1751	0.16708113
122	0x3d978234	0.07397881
123	0xbc8c14f9	-0.017099844
124	0x3c377892	0.01119818
125	0x3d15052d	0.03638189
126	0x3d194df6	0.037427865
127	0x3e025e0f	0.12731193
128	0xbdaeaa5e	-0.08528589
129	0x3d53cd81	0.051709656
130	0xbc30db28	-0.010794438
131	0xbd01d0bc	-0.031693205
132	0x3c945afd	0.018109793
133	0xbdcd8c82	-0.10036565
134	0x3d1f0f56	0.038832985
135	0xbd26316d	-0.04057448
136	0x3dccce11	0.100002415
137	0xbe0bc532	-0.13649443
138	0x3da02794	0.07820049
139	0xbe0182af	-0.12647508
140	0xbdfea0c4	-0.12433007
141	0xbda8f777	-0.08250325
142	0x3cf365a6	0.029711556
143	0xbdb092ab	-0.08621725
144	0xbdacf528	-0.08445197
145	0x3c1ee902	0.009699108
146	0x3d307f9c	0.043090448
147	0x3e0eb4c7	0.13936149
148	0x3d889387	0.066687636
149	0xbdd8deb3	-0.105893515
150	0xbd79c5c6	-0.060979627
151	0x3db62a4c	0.08894786
152	0x3dc14e9c	0.09438822
153	0xbd8ef17a	-0.06979652
154	0xbccafb00	-0.02477789
155	0xbca995cd	-0.020701313
156	0xbe080074	-0.13281423
157	0xbdd50913	-0.104021214
158	0xbbb8b7cb	-0.005637144
159	0x3cf24ff2	0.029579137
160	0xbbbb38f2	-0.0057135755
161	0xbcedc0d1	-0.029022606
162	0xbd322352	-0.043490715
163	0xbd77c99a	-0.060494997
164	0x3d5d8c40	0.05408883
165	0x3ce8b7b7	0.028407915
166	0xbd18ba3c	-0.037286982
167	0xbda8120e	-0.08206569
168	0xbda1355b	-0.07871505
169	0x3dfa98d9	0.122361846
170	0xbe15e923	-0.14639716
171	0xb94e8680	-0.00019695796
172	0x3d82bf2c	0.063841194
173	0x3d968693	0.07349887
174	0x3db47827	0.0881198
175	0xbe02a9ab	-0.12760036
176	0xbd87c331	-0.06629027
177	0xbd910e97	-0.07082861
178	0x3ba26d8a	0.0049569057
179	0x3b870d8a	0.004121487
180	0x3bd5317a	0.006506142
181	0x3cde6f65	0.027152726
182	0xbcb7f205	-0.022454271
183	0xbdf1c7a2	-0.11805655
184	0x3d753a1b	0.059869867
185	0x3d90fd8b	0.070796095
186	0xbc83c24a	-0.016083855
187	0xbdd13654	-0.102154404
188	0xbce8bbf0	-0.028409928
189	0x3e0789e7	0.132362
190	0x3d2e84b1	0.042607013
191	0x3a2367d7	0.000623343
192	0x3e47d29b	0.19513933
193	0x3987dc6b	0.0002591343
194	0x3e17fa4c	0.14841574
195	0x3d971f73	0.07379045
196	0x3e2e9628	0.17049468
197	0xbd04ad9f	-0.03239214
198	0x3c9926f1	0.018695327
199	0x3d417d8a	0.047238864
200	0x3e1b1f10	0.15148568
201	0x3e0eed8b	0.13957803
202	0xbb5d5e94	-0.0033778297
203	0x3d8d5d94	0.06902614
204	0x3d3e37ab	0.046439808
205	0xbcfa3e7b	-0.030547371
206	0x3e31d64b	0.17366903
207	0x3de0956a	0.109659985
208	0x3c32529c	0.010883953
209	0x3cd550b5	0.02603946
210	0xbbe72a55	-0.007054607
211	0xbc8faf1f	-0.017539559
212	0x3e01d739	0.12679757
213	0x3e2ed377	0.17072855
214	0x3db1723c	0.086643666
215	0x3d6e0854	0.05811341
216	0x3e115b98	0.14195096
217	0xbb14c6d8	-0.0022701528
218	0x3e27ecc2	0.1639891
219	0x3e29ac13	0.16569547
220	0x3dcbd735	0.09953157
221	0x3d9ec3f9	0.077522226
222	0x3e1b629d	0.15174337
223	0x3db2da8a	0.08733089
224	0x3dc5de73	0.096615694
225	0x3cd0307a	0.02541374
226	0x3e15a88a	0.14615074
227	0x3db35e43	0.08758213
228	0x3dce64ef	0.10077845
229	0x3dc2601e	0.09490989
230	0x3e1b8224	0.15186363
231	0xbcebd0ab	-0.028786024
232	0xbcf850cf	-0.03031197
233	0x3e0cc2e3	0.13746218
234	0x3da4594e	0.08024846
235	0xbd1c1b1b	-0.038111787
236	0x3c450d4b	0.012027095
237	0xbd329311	-0.043597285
238	0x3d230c5a	0.0398067
239	0x3d50691b	0.050881486
240	0x3e33be07	0.17552958
241	0x3dc56d6f	0.096400134
242	0x3b955af4	0.0045579616
243	0x3e3ddbf1	0.18540932
244	0x3e23fe34	0.1601494
245	0x3decb85f	0.115586035
246	0x3e0cb23d	0.13739868
247	0xbd0abd36	-0.03387185
248	0x3d783d2f	0.060605224
249	0x3e2bc539	0.16774453
250	0x3cf01811	0.02930835
251	0xbd3dee24	-0.046369687
252	0x3e1cf77c	0.15328783
253	0x3d61ac0a	0.05509571
254	0x3dfb11dc	0.12259266
255	0x3e25e07f	0.1619892

actor_mean.weight f4 [1, 64]
0	0x3dafd66b	0.08585819
1	0xbdd35bf2	-0.103202716
2	0x3db2f367	0.087378316
3	0xbd43fd34	-0.047848895
4	0x3d9be1a8	0.076114
5	0xbdc77a0c	-0.097400755
6	0x3cae6b78	0.02129148
7	0x3c987a8d	0.018613124
8	0xbde55148	-0.11197144
9	0x3d820d6a	0.06350215
10	0xbd6793a7	-0.056537297
11	0x3d428c3e	0.047497027
12	0x3da452c1	0.080235966
13	0x3c8f2010	0.017471343
14	0x3de4db43	0.11174633
15	0x3de15e0f	0.110042684
16	0x3d59440f	0.05304342
17	0x3ddc31b6	0.10751669
18	0x3c4b8b15	0.012423296
19	0xbbaadb5f	-0.0052141394
20	0x3cd5e8ee	0.026112046
21	0xbbc9cda7	-0.006158549
22	0x3df1c5dd	0.118053176
23	0x3d35c162	0.044373877
24	0xbddbe97c	-0.10737893
25	0xbde7aa0c	-0.11311731
26	0x3d881144	0.06643918
27	0x3ce89ae9	0.02839418
28	0xbdcc8bcc	-0.09987602
29	0x3dcb2a86	0.0992022
30	0x3dfe921f	0.12430214
31	0xbd8e6b26	-0.06954031
32	0x3db60813	0.08888259
33	0x3d33ca8c	0.043894336
34	0xbdce1c1d	-0.10063956
35	0x3d7dd6db	0.06197248
36	0x3dc04cdc	0.0938966
37	0x3db7b7c8	0.089706
38	0xbc1ea0c7	-0.009681887
39	0xbd6ef0e6	-0.058335207
40	0xbdeb187a	-0.11479278
41	0x3dc541dc	0.09631702
42	0x3d8a766e	0.0676087
43	0x3c85d401	0.016336443
44	0x3ca0cc4a	0.019628663
45	0xbe000809	-0.12503065
46	0xbdd07c11	-0.10179914
47	0xbd8358f5	-0.064134516
48	0x3d17212e	0.036896877
49	0xbd0c70d2	-0.03428728
50	0xbdf76e7f	-0.12081622
51	0x3c809251	0.01569477
52	0x3d970239	0.07373471
53	0xbd4472e1	-0.04796112
54	0x3d9c8b36	0.0764374
55	0xbc8ecf27	-0.017432762
56	0xbc1bbe89	-0.009505876
57	0xbda5e61e	-0.08100532
58	0x3d238190	0.039918482
59	0xbd845396	-0.06461255
60	0xbcb3e8b4	-0.021961547
61	0x3df3ed83	0.11910536
62	0x3c80d98c	0.015728734
63	0x3c92d20a	0.01792242

critic.weight f4 [1, 64]
0	0x3fa26bfd	1.2689205
1	0x3fa5ff68	1.2968569
2	0x3fa08c60	1.2542839
3	0xbfa28ab9	-1.2698585
4	0x3fa3e00a	1.2802746
5	0xbfa963a0	-1.3233528
6	0xbfa09b46	-1.2547386
7	0xbf9f2d35	-1.2435671
8	0xbfa010eb	-1.2505163
9	0x3f9af2e4	1.2105374
10	0x3fa0bf6f	1.2558421
11	0x3f9bdae8	1.217618
12	0x3fa1ae7e	1.2631376
13	0x3fa47539	1.2848274
14	0xbf9ca58a	-1.2238019
15	0xbfa36f60	-1.2768364
16	0x3f9e69fe	1.2376096
17	0x3fa19e87	1.2626504
18	0xbf9d659c	-1.2296634
19	0xbfaa4984	-1.3303685
20	0xbfa75df0	-1.3075542
21	0x3fa1149c	1.2584414
22	0xbfa2da82	-1.2722933
23	0xbfa66065	-1.2998167
24	0x3fa96535	1.3234011
25	0x3fa45426	1.283818
26	0xbfa186c4	-1.2619252
27	0xbfa99bf0	-1.3250713
28	0x3fa896e3	1.3171047
29	0x3f9a7b63	1.2068905
30	0xbfa3fa9b	-1.2810854
31	0xbf9ddc8e	-1.2332933
32	0x3f9d3575	1.2281939
33	0x3f98418c	1.1895003
34	0x3fa72273	1.3057388
35	0x3fa01bca	1.250848
36	0xbfa3971a	-1.2780488
37	0x3f9f746e	1.2457407
38	0xbfa39472	-1.2779677
39	0xbfa9c94b	-1.3264555
40	0x3f9aebce	1.2103212
41	0xbf9c4def	-1.2211283
42	0x3fa437a5	1.2829481
43	0x3f9cceed	1.2250649
44	0x3fa766a7	1.3078202
45	0xbfa9dabd	-1.3269879
46	0xbfa86873	-1.3156875
47	0x3fa2678e	1.2687852
48	0xbf9e89aa	-1.2385762
49	0xbfa69769	-1.3014957
50	0x3fa23907	1.2673653
51	0xbfa411ef	-1.2817973
52	0xbfa5358f	-1.290697
53	0xbf96a2dd	-1.1768452
54	0x3f9cfed1	1.2265264
55	0x3faa1921	1.3288919
56	0xbf9d0609	-1.2267467
57	0xbf9e7088	-1.2378092
58	0xbf9fdca1	-1.2489206
59	0xbf9e6a55	-1.23762
60	0xbfa6a7a8	-1.3019915
61	0xbfa30812	-1.2736838
62	0xbfa0f2c6	-1.2574089
63	0xbfa2ae70	-1.2709484
