second_stage/final_model.pth (torch, 524375 bytes, 30 tensors)

feature_extractor.0.weight f4 [128, 5]
00000000: 494e fcc0 1d75 ac3f f04f 8cc1 8a6a 83c0
00000010: b221 843d 640c dfc1 7f8b aebf 83e6 a2c0
00000020: 988f 853f 863f 88be fd49 29c0 3c10 d43f
00000030: ad03 97c1 c573 08c1 3af6 57bd 12cd a7c0
00000040: 1ed7 62c0 74a9 40c1 f11f 14c0 5f2f f53e
00000050: ccae d4c0 5d26 45bf db65 5cc1 527d d4c0
00000060: 703a 68bf 7b41 97c0 a0ca a9bf d2ad 2ec1
00000070: 599b 6abf 2e67 1440 475d d840 0e2c dfbf
00000080: 674f 823f d152 a23d b160 dfbf 053c 2c41
00000090: 398c ccbe ed00 febf 8920 d43e 8500 963f
000000a0: 7608 29c1 5768 3bbf e289 0bc1 31e0 893f
000000b0: ba93 b03e 52a2 d9be 8e5d eb3f b298 04c0
000000c0: df91 aebf 7e4d 27bf 25d2 c33f f7e8 5dbe
000000d0: 04fe 2641 c12a 38c0 2c2a bdbf 46d4 cbc1
000000e0: dd68 9ebf b06e 31c1 cbea 0740 d73d c5bf
000000f0: 37e5 45c1 dc0e 86be e7ae b541 5df4 6bbd
00000100: 6bc5 a93e 98b0 87c0 64d4 d4bf 5f26 1241
00000110: ee0b c240 8879 1dc0 9ec9 3d3f 2416 1c40
00000120: 928e 09c0 5ee6 f4bd 4a89 0a41 ebeb 49c1
00000130: ecaa 77be 8021 a541 8910 0ebe 632b 2f3f
00000140: 9827 d1c1 e9ce 05bf 0581 d4c0 619d fa3e
00000150: 8ba5 d8be 8510 8041 6e93 253f 274d 84bf
00000160: acad 7fbf 06c0 ae3b 6407 0641 f5ca 9abe
00000170: a6d7 8640 421f 80c0 9e3a bcbf bcac 0bbc
00000180: 3bdf 3740 a8bb 34c0 82bd c5bc 64be 813c
00000190: 55d4 9540 488e 2140 56d1 9a41 9172 1d40
000001a0: e3d0 42bf 7e5e f0c1 d386 8cbd cf71 3240
000001b0: a9cf adc0 78f5 7dbf e4de 2ac1 9931 76bf
000001c0: e518 6841 f27c 6c3f fdc0 ccbf fc23 1541
000001d0: 0334 0940 faad 1e40 4fc3 06c1 4086 2b40
000001e0: a9b1 21c0 8288 633f d9af d4c0 e736 3440
000001f0: 46ca d23f bf1c 8340 77db 7a3e 9fcd 7840
00000200: fad2 d63e 04cd e6bf e872 59c1 1f50 7c40
00000210: c54f e5c0 efe3 593f e7e4 f1be 60b6 4941
00000220: 730d 1640 4faf 74c1 d0bd 04c0 b07e 87be
00000230: 6e40 1441 a6f3 f03f 9fbb 4cbe e14f c1bf
00000240: e078 d83f ef47 ac41 689c d53f 555c a540
00000250: 48c9 d9be 7058 edbb 6f8f a841 5c45 c53f
00000260: b6a8 a440 8c91 92be 8fb3 e33d edc0 e440
00000270: 6e25 2b40 77df 06bf e06b 07c1 12d6 863f
00000280: b839 d9c1 b15d 073e 81f0 d5c0 95cb abbf
00000290: 5dd4 1abf 365b f640 cd82 6c3d 5967 19c0
000002a0: 5476 72c0 5f24 59bf 0ebb 4e40 1889 943f
000002b0: 2993 2840 1342 f5bf 952d ec3e 2bc5 3d40
000002c0: 7336 a53f a914 2b3f 4f50 1dbf f73a 1640
000002d0: d739 3d41 0bbc cd3f 5613 8e41 47e3 ec3f
000002e0: 18e4 22bf ba79 7040 100e 0e40 a82c 4bc0
000002f0: 0afa 423d 198c 6dbf e7d9 8741 1c02 6b40
00000300: 5ae7 2341 425b f5bf 2139 c23e 6ab9 1240
00000310: 6453 0e3f 2ef1 8cc0 5eac f3bf 0c67 6b40
00000320: cf78 2041 a23b 093f d01c 32be a83a 4cbf
00000330: 5932 90bf e999 24c1 3318 8ebf ed80 14c1
00000340: 8d52 373e f044 55bf 664c 5541 26d2 f43e
00000350: bba9 0cc0 9565 47bf 7db6 243f 99bd 95c1
00000360: 03cb d4bf fe6c 2541 e948 bfc0 fb56 3cbf
00000370: c470 2840 5fb4 9dbe 8443 b440 d65d fcbf
00000380: ef6f 4fbd 662d fa40 ef00 743d 93ca 48c0
00000390: 99c4 f3bf c415 cbbf 8603 4e40 6707 7b3e
000003a0: e2a6 41c0 3e21 fabf d537 58bf 50ce a340
000003b0: ec74 74c0 5f8c 5e41 2398 7a3f 3376 e1be
000003c0: dcbc 7f41 0ceb d83f 5c02 95c1 1d80 c1bf
000003d0: 9da7 e43e 7b64 c840 2229 aa3e 161c eabf
000003e0: c4f5 3ec0 5e82 6ebf 9387 9141 f620 0440
000003f0: 629a 5740 b8cb 86bf f9a1 773f c5df 9abf
-7.8845563 1.347324 -17.539032 -4.1067553 0.06451739 -27.88105 -1.3636321 -5.0906386
1.0434446 -0.26610965 -2.645141 1.6567454 -18.876795 -8.528264 -0.052725054 -5.243783
-3.5443797 -12.04137 -2.3144495 0.47887704 -6.6463375 -0.7701166 -13.774867 -6.640298
-0.9071417 -4.726743 -1.3264961 -10.917437 -0.9164329 2.3187976 6.7613864 -1.743532
1.0180482 0.07925952 -1.7451383 10.764653 -0.3995073 -1.9844033 0.41431072 1.1718909
-10.564566 -0.73206085 -8.721163 1.0771543 0.34487706 -0.42506653 1.8387926 -2.0718198
-1.3638266 -0.6535262 1.5298506 -0.216709 10.437016 -2.8776095 -1.4778495 -25.47865
-1.2375752 -11.089523 2.1237056 -1.5409497 -12.368461 -0.26183212 22.710402 -0.05760609
0.3315843 -4.240307 -1.6627316 9.134368 6.0639563 -2.4605427 0.7413577 2.4388514
-2.1493268 -0.119580016 8.658518 -12.620097 -0.24186295 20.641357 -0.13873495 0.6842558
-26.144333 -0.52268845 -6.6407495 0.48948196 -0.423138 16.008066 0.64678085 -1.0336045
-0.9987438 0.0053329496 8.376804 -0.3023297 4.2138243 -4.0038157 -1.4705389 -0.00852507
2.873 -2.8239536 -0.024138216 0.015837856 4.6821694 2.5243092 19.352215 2.4601176
-0.76099986 -30.046139 -0.06861653 2.7881963 -5.431599 -0.9920268 -10.679417 -0.9616943
14.506078 0.9237815 -1.5996395 9.321285 2.1437995 2.4793687 -8.422683 2.680069
-2.5264685 0.8888017 -6.646466 2.815851 1.6467979 4.097259 0.24497782 3.88755
0.41957837 -1.8031316 -13.590553 3.9423902 -7.1659875 0.85113424 -0.4724495 12.607025
2.3445709 -15.2928 -2.0740852 -0.26463842 9.26573 1.8824356 -0.19993447 -1.5102502
1.6911888 21.535124 1.6688356 5.167521 -0.42536378 -0.0072432086 21.070036 1.5411792
5.1455946 -0.28626668 0.111182325 7.1485505 2.6741595 -0.5268473 -8.463837 1.0534079
-27.153183 0.13219334 -6.6856084 -1.3421503 -0.6048029 7.698634 0.05774193 -2.3969328
-3.7884722 -0.8482112 3.230167 1.1604338 2.633982 -1.9160789 0.46128526 2.9651592
1.2907242 0.668284 -0.61450666 2.347349 11.826621 1.6073011 17.759441 1.850686
-0.63629293 3.7574296 2.2196083 -3.1746006 0.047601737 -0.927919 16.981398 3.6720037
10.243982 -1.9168475 0.3793421 2.2925668 0.55595994 -4.404441 -1.9036977 3.6781645
10.029494 0.5360662 -0.17393804 -0.79777 -1.1265365 -10.287576 -1.1101135 -9.281476
0.17902584 -0.83308315 13.331152 0.4781658 -2.1978595 -0.77889377 0.64340955 -18.717577
-1.6624454 10.339109 -5.97765 -0.7357022 2.6318827 -0.30801675 5.6332417 -1.9716136
-0.050643858 7.818042 0.059571203 -3.1373641 -1.9044372 -1.5866017 3.218965 0.24514543
-3.0258107 -1.9541395 -0.8446019 5.1189346 -3.8196363 13.90927 0.9788839 -0.4403549
15.983608 1.6946731 -18.626152 -1.5117222 0.4465913 6.2622657 0.33234507 -1.8289821
-2.9837503 -0.93167675 18.191198 2.0645118 3.3687978 -1.053092 0.96731526 -1.2099539

feature_extractor.0.bias f4 [128]
00000000: ffc9 e8c0 c336 54c1 8ce2 9c3f 8b80 a240
00000010: e62e 96c0 76d8 0e41 e267 1b41 6598 88c1
00000020: 86ae 16c0 9083 c9c0 2a6d 1840 ad10 d2c0
00000030: 2aeb 66c0 041b 1340 3e28 6440 48f8 c9bf
00000040: 9456 b3c0 7921 aec1 4a59 1941 c3f6 ae41
00000050: 9e3e 89c1 158f a6c1 5398 3a40 dda6 53c1
00000060: 2321 bd41 edbc 66c1 34e6 1041 1cb3 15c1
00000070: 592f a940 f355 3ec1 dfb6 3cc1 3756 58c1
00000080: 9635 86c1 e030 b741 3341 74c1 c732 29c1
00000090: b0f2 89c1 3a6b 6741 318e 6cc1 c207 9641
000000a0: 6acf 74c1 4825 2341 2b9c 9dc1 021a 0dc1
000000b0: e548 e340 4535 5d41 98f9 0641 ce13 6140
000000c0: 7b72 30c1 5592 4a41 7abf 6bc1 3c66 b641
000000d0: bec6 5141 301e 11c1 11a6 7cc1 10d0 b9be
000000e0: 2da7 8ec0 b69b bac1 e025 4fc1 9d0e 1dc1
000000f0: 6a46 a7c1 34f6 e140 b25a 5541 46f0 8341
00000100: 1f09 25c1 809a 8ec1 3257 5fc1 83a6 a341
00000110: 3c88 47c1 19fd bbc1 9e21 57c1 248a bcc1
00000120: 22db e0c0 c1de 8d40 0811 2ac0 980d a341
00000130: f94f 79c1 f77e d6c1 02e4 98c1 2209 9641
00000140: ab78 9d41 b84b 3dc0 805a 4cc1 7077 8241
00000150: 7c7d 1bc1 ead8 6ac0 a19b 84c1 49b4 2cc1
00000160: 5751 e93f 681f 0ec0 7830 8bc1 3b54 76c1
00000170: 9ba7 17c1 17f7 a4c1 1d3e ffc0 9ed1 2dc1
00000180: c452 3cc1 6fbb 96c1 6e15 a33f 4772 43c1
00000190: 89d3 fac0 c519 acc1 4013 e1c0 bba7 51c1
000001a0: 186d 6ac1 1a88 e440 c3d9 afc1 e16b 23c1
000001b0: 0ad9 073f 9547 9dc0 baaa 853f 133e 74c1
000001c0: a1df 9ac1 0fb8 9bc1 1193 40c1 cb1f 8e41
000001d0: 4778 44c1 e25c 58c1 de71 b741 a605 fdbf
000001e0: d1a1 3f41 f490 9dc0 d28c 34bf b07f a2c1
000001f0: 5492 2bc1 3287 afc1 a174 4ec1 c930 13c0
-7.2746577 -13.26337 1.2256637 5.0781913 -4.693225 8.927847 9.712862 -17.074411
-2.354402 -6.29731 2.3816628 -6.5645356 -3.6081033 2.298524 3.5649562 -1.5778894
-5.6043186 -21.766344 9.584299 21.87049 -17.155575 -20.819864 2.9155471 -13.228238
23.64118 -14.421124 9.056202 -9.356228 5.2870297 -11.895984 -11.794646 -13.521049
-16.776165 22.898865 -15.265918 -10.574897 -17.2435 14.463678 -14.784715 18.753788
-15.300638 10.196602 -19.701254 -8.81885 7.1026483 13.825505 8.435936 3.5168338
-11.027949 12.660726 -14.734247 22.79992 13.111021 -9.06987 -15.790544 -0.36291552
-4.457907 -23.32603 -12.946747 -9.816068 -20.909382 7.061304 13.334642 16.492321
-10.314727 -17.82544 -13.958788 20.456305 -12.47076 -23.498583 -13.445707 -23.567451
-7.0267496 4.4334416 -2.6572895 20.381638 -15.582025 -26.811995 -19.111332 18.75446
19.68392 -2.9577465 -12.772095 16.30832 -9.718136 -3.6694894 -16.57599 -10.794015
1.8227948 -2.220667 -17.398666 -15.395564 -9.478419 -20.62065 -7.976332 -10.863676
-11.770206 -18.84152 1.2740915 -12.2154 -7.838322 -21.512583 -7.0336 -13.10345
-14.651634 7.141614 -21.981329 -10.213838 0.5306555 -4.914988 1.0442727 -15.265155
-19.359194 -19.464872 -12.035905 17.765524 -12.279365 -13.522676 22.9306 -1.9767349
11.977006 -4.9239445 -0.70527375 -20.312347 -10.723225 -21.941013 -12.903474 -2.2998526

feature_extractor.2.weight f4 [64, 128]
00000000: 079e 8c40 4f1b 1541 3494 77bd c972 f240
00000010: e6e3 fa40 b1f2 fb40 b10f 34c0 5511 05c1
00000020: fcea 8840 230f 2040 7d48 b5bf 626c 1c41
00000030: 510d a4c0 5730 26c1 80f2 7740 04c3 10c0
00000040: 4493 bf40 5826 c0c0 c41d 123f 0d81 f840
00000050: cf76 87c1 13c8 4641 4c49 88c0 9c31 70c1
00000060: d2b4 7840 a34c debf 24c3 9f41 8ba9 64c0
00000070: f66d 16c0 9777 74c0 6660 5dc0 e7f2 5cc1
00000080: 051a eb40 9025 fc40 8bcf 1640 afb9 19c1
00000090: ce26 97c1 4d2e 3b41 52fb f5c0 0c66 a640
000000a0: f067 a7c0 a86c 0d41 27bf 1ac1 d1cc e840
000000b0: 15dc f33f 25e3 d740 c614 fdbf f3fe 37c1
000000c0: ff0d ad3f e295 3940 c017 51c0 39f5 ef40
000000d0: 6ccd 6d40 98c5 dbbf eed7 90c0 f9eb 2cbf
000000e0: 3c7a 17c1 1acb 51c1 5ef1 0941 8045 83c1
000000f0: d790 53c1 33e9 11be 3f71 9a40 f108 0741
00000100: 9769 b6c0 251a 9541 9ebd 06c1 3889 2541
00000110: 4a95 33bf 4ca5 81c1 721b 8d3f a0c2 4ac1
00000120: 070b 9ec1 22b6 adc0 c702 53bf 9883 d840
00000130: d7d5 56c1 3c32 d340 e711 67c1 6b5f 2641
00000140: 514d c640 f90c e540 d622 ebbf 9b96 38c0
00000150: 58d7 75bf 74f7 c5c0 e38f cd40 7f6f 02bf
00000160: 9ec1 c3c0 4d89 5ac0 c62b 90c1 2a0e 64c0
00000170: 87b1 1e41 dd10 69c0 873f 94c0 b9cd c23f
00000180: ec18 113f 7a15 0ec1 2579 1dbf 6b05 2c3e
00000190: f44d d0c0 3405 82c1 d7ad 0a41 0ba5 03c1
000001a0: 3d24 29c1 becb 0441 083d d3c0 5064 9ec0
000001b0: fec7 9e40 da00 22c1 3eae 5540 3d21 27c0
000001c0: 737f 3141 f312 7dc1 ee31 563f 170f d0bf
000001d0: 9cec 16c0 51f1 47c1 1d90 8241 30d8 34bf
000001e0: 2d4b 8941 84c9 22c1 caeb 2dbf fee4 22c1
000001f0: 8566 27c1 8b34 23c1 4860 8140 df8b 3341
00000200: 84a9 3bc0 957c 2e40 a9cf 7cbf 2c36 8fbf
00000210: ec6f a1be 07fa a33f 7502 3cc0 cf05 cb3c
00000220: e9c5 e0bc 506e 7bbf 6093 cbbf ac56 d23f
00000230: 5693 cbbe c252 423f 21ad 9bbf 0c14 37bd
00000240: a78a 7b3d 027d 443f 0f99 02c0 afaa 1bbf
00000250: 5d38 1a3e 48f7 1340 e4e1 8a3e d7d3 023f
00000260: d986 a7bf fcfa 6abf 6c5f a1bf 44fa 29c0
00000270: 6606 6cbe ebdf 23bd cce8 853e 9dbf 4c3e
00000280: e365 343d 4107 41be 753f a9bc c46e a6bf
00000290: b2a8 0abf 075d 30bf 7a36 ddbd 513c 84bf
000002a0: 691d 8f3f bf7d edbf da94 143f edb2 26c0
000002b0: d53f 0bc0 2b78 e4bf 433a ecbf 95fc 393f
000002c0: a042 8dbd 9ba0 2fc0 1e76 833e c461 5fc0
000002d0: 8dee c2bf 6170 b1ba d72e 9f3e f8c2 a43d
000002e0: a043 c13d f051 a1bc 3798 0740 934d 37bd
000002f0: 4ce8 833f 6a2b ffbf c350 c5bf 5ab3 a2bf
00000300: e9cb a0bf ae80 1040 4d29 ecbf 500c c7bf
00000310: 3332 d1be 6209 a93e 9438 00c0 95eb 283f
00000320: 3fe0 12c0 f906 f1bf f4d0 53be 6e49 6dbf
00000330: bdc9 6bbd 46b5 6c3e 2e7c f33e ba5e f5bf
00000340: 2a47 2bc0 9eb4 c93f 6786 c7be a20a d8bf
00000350: 4355 fbbf 12f8 c9bf 6913 1340 6e4b 903f
00000360: e179 19c0 5633 9e3e 38be 39be ed0f 203f
00000370: d497 b83f 956e df3e eb30 4e3e a8aa edbe
00000380: 58b2 d9bf 63dc 423f a51b 14c0 1806 e23e
00000390: 1e9c bebf b410 c8be cf74 f0be 9160 06c0
000003a0: c3f9 5f3d de2c cbbf 4ccb 2b3d 421a b6bf
000003b0: c151 8dbf c2eb c7bc 61f0 ccbf bde9 b4be
000003c0: a64b 4340 0dfd 36be 3ac6 b3bf 44f2 62c0
000003d0: 9501 6f3d d202 85bf efcb abbf c452 d4bf
000003e0: e2f6 21be 8b9d a7bf b147 d4bf fdc3 31bf
000003f0: 36a9 573f fdda 323f 19b9 cabf 1581 50bf
4.3942904 9.319167 -0.060444072 7.576512 7.8403196 7.8733754 -2.8134577 -8.316731
4.2786846 2.5009239 -1.4162747 9.776461 -5.1266255 -10.386802 3.874176 -2.2619028
5.9867268 -6.0046806 0.5707667 7.7657533 -16.933012 12.423846 -4.2589474 -15.012112
3.8860364 -1.7367138 19.970284 -3.572848 -2.3504615 -3.8197992 -3.4590087 -13.809302
7.346926 7.8795853 2.3564174 -9.607833 -18.893948 11.698804 -7.6869287 5.199957
-5.2314377 8.839027 -9.671668 7.275002 1.9051539 6.7464776 -1.9771965 -11.499743
1.3519896 2.8997731 -3.2670746 7.4986844 3.715663 -1.7169676 -4.5263586 -0.67547566
-9.467342 -13.112085 8.621428 -16.408936 -13.222861 -0.14249115 4.826324 8.439683
-5.7003894 18.637766 -8.421293 10.346001 -0.7014967 -16.205711 1.1024001 -12.672516
-19.755384 -5.428483 -0.8242611 6.7660637 -13.427207 6.599882 -14.441871 10.398295
6.196938 7.1578336 -1.8370006 -2.8841922 -0.96031713 -6.1864567 6.4238143 -0.5095138
-6.117385 -3.4146302 -18.021374 -3.5633645 9.918342 -3.6416543 -4.632755 1.5219032
0.5667865 -8.880243 -0.61512977 0.16798942 -6.509516 -16.25254 8.667441 -8.227794
-10.571347 8.299742 -6.6012 -4.949745 4.961913 -10.125208 3.33876 -2.6114037
11.093616 -15.817126 0.83669937 -1.6254605 -2.3581915 -12.496415 16.320368 -0.70642376
17.161707 -10.174198 -0.6793791 -10.180906 -10.462529 -10.200328 4.043003 11.221648
-2.9322214 2.726354 -0.98754364 -1.1188407 -0.31530702 1.2810677 -2.93765 0.024783043
-0.02743812 -0.982152 -1.590435 1.64327 -0.39760846 0.7590753 -1.216221 -0.044696853
0.061411526 0.76753247 -2.040592 -0.6080732 0.15060563 2.3119678 0.27125466 0.5110449
-1.3088027 -0.9178922 -1.2607245 -2.6559 -0.23049316 -0.040008467 0.26154172 0.1999497
0.04404248 -0.18850423 -0.020660141 -1.3002553 -0.5416366 -0.6889195 -0.10801406 -1.0330907
1.118085 -1.8554 0.5803963 -2.6046708 -2.175771 -1.7849172 -1.845528 0.72651035
-0.06897473 -2.7441776 0.25676054 -3.4903421 -1.522905 -0.001353752 0.31090423 0.08045
0.094367266 -0.019692391 2.1186655 -0.044751715 1.0305266 -1.9935124 -1.5415272 -1.2710984
-1.2562228 2.257854 -1.8450104 -1.5550632 -0.4085861 0.3301497 -2.0034533 0.6598447
-2.294937 -1.8830253 -0.20685178 -0.9269017 -0.05756544 0.23116025 0.4755568 -1.9169533
-2.6762185 1.5758245 -0.38969728 -1.6878245 -1.9635395 -1.577883 2.2980597 1.1273019
-2.398064 0.3089854 -0.18138969 0.625243 1.4421334 0.43639055 0.20135848 -0.46419263
-1.7007551 0.76117533 -2.3141873 0.44145274 -1.4891393 -0.39075243 -0.46964118 -2.099644
0.05468155 -1.5873067 0.041941926 -1.4226763 -1.1040574 -0.02440441 -1.6010858 -0.35334578
3.0514922 -0.17869969 -1.4044869 -3.5460367 0.058351118 -1.0391486 -1.342161 -1.6587758
-0.15816835 -1.3094953 -1.6584378 -0.6943968 0.8424257 0.698654 -1.5837737 -0.81446964

feature_extractor.2.bias f4 [64]
00000000: 1322 b540 daf2 88bf 475b 903f 5eae 49c1
00000010: 1032 f83e 2981 10bf ca37 a4be ef34 4541
00000020: cdb9 e2be 6aeb 97be 813b 573f b7ed e7c1
00000030: 9ed4 a4bf b268 a4be 49a1 2540 8c3c 4fc0
00000040: c773 983f f72e 3341 71de 62bf 2959 0141
00000050: 34ae dfc0 3cc4 bdbe 8e6c e640 25c6 5541
00000060: 1771 493f 83d7 c240 1679 78bf 2363 05c1
00000070: fd2e 683f bae8 38bd 1984 bb3f 97ee abc1
00000080: 3855 1fc1 9d3e b33e 164c 2cc0 310a b83e
00000090: cbe3 b53c 5711 c8c0 ae24 c4bf 482b 6e41
000000a0: a24c 8dbf 9196 83c1 976d 7b3e aada 30c1
000000b0: 105c b3bf f1de 40bf 8d4f 09be bbc3 4abe
000000c0: 5611 d73f b778 793f df32 dd3e 0c69 f840
000000d0: f16d 7ac1 8dee bb40 ba70 cfbf ea3b 33c1
000000e0: de8b 0341 ad4f 753f 6c20 27c0 ea88 1cbf
000000f0: 1fc4 18bf 5397 13be 4fb3 3140 94da 7fc1
5.6604095 -1.0699112 1.1277856 -12.60507 0.48475695 -0.5644708 -0.32073814 12.325423
-0.4428238 -0.29671794 0.8407517 -28.991072 -1.2877386 -0.32111126 2.587969 -3.2380705
1.1910332 11.198966 -0.8862067 8.084268 -6.990015 -0.37063777 7.2007513 13.360875
0.78688186 6.0888076 -0.9705976 -8.336703 0.906967 -0.04514382 1.4649688 -21.491499
-9.958305 0.35008708 -2.692144 0.35945275 0.022203347 -6.2521167 -1.5323694 14.885567
-1.1039011 -16.448519 0.24553524 -11.053385 -1.401247 -0.7534018 -0.13409252 -0.19801228
1.6802166 0.9744982 0.43202874 7.762823 -15.651841 5.87287 -1.6206276 -11.202127
8.221647 0.958247 -2.6113539 -0.61146414 -0.5967426 -0.14413194 2.7765691 -15.990864

lstm.weight_ih_l0 f4 [256, 64]
00000000: f001 523f 310d 2bbe 1187 0c3e 98f5 ba3e
00000010: 03b1 d23e 81a6 f1bd a61d cabe 9ad1 943f
00000020: 40ba 903f c436 703f 1331 80be 483e 11bf
00000030: 2b94 c53e 8d27 463f f0c8 6c3f 259a a9bd
00000040: 48de cc3e e9cd 213f c688 fe3c 075e 1a3e
00000050: b192 303f df6e 1f3f 0add 493f c4e2 9a3e
00000060: fa66 1d3f 321f ba3f df4d 18be d8ff 983e
00000070: 9fb5 943d 6513 623e 5b57 6a3f e2dd 823f
00000080: 8d50 293f 5ce6 043f 1d38 213e d5b7 933f
00000090: 7d06 7cbe c5c2 d93e 08fd 633e def7 2e3f
000000a0: 80cf b83e 7ee2 9cbe eee9 693d c076 ab3e
000000b0: 38d0 953e 08cb c43c efe5 513d 862b 42be
000000c0: 7fcc 3b3f 140b 6bbe 598f fb3e 28d0 cbbd
000000d0: dabf b33f 829a 743f b166 573f 17c1 633f
000000e0: 73c3 443f 9d11 8fbe c24a ab3f fa7f c33e
000000f0: b7c2 e83e 1f50 f53e 13b2 643c 86d8 793f
00000100: 2253 b53e d9bd 923f 1708 ab3e 56e0 7d3f
00000110: 0b94 553d 9a28 02be 0395 14bf 43e6 61bc
00000120: de49 2abe bb57 3f3f f3b8 493e b85f cbbe
00000130: aaaa 96be e8c6 f53d fc22 673e bdc0 5f3e
00000140: 9a88 b13e 68d8 dc3d 3b0d 0f3e 00b9 2d3f
00000150: c441 093f ed78 853f b66c c43e 44db 303f
00000160: def4 253f ca87 7f3e 64db 643d bba0 923f
00000170: c60c 9bbe 312c 913f 41fc 3a3f 501f 303e
00000180: 2919 bfbe a143 883f 714f a83e 1d6f 893e
00000190: c64e b43f 065a 883f 2158 f7be 74c6 783f
000001a0: 8b62 c23e b047 533e a97a 933f 3014 793f
000001b0: 2e3b 9c3f 5457 073e ac77 603e 3c10 cfbe
000001c0: 4bd8 e03d ada2 e33d eebc 083e 4403 b6be
000001d0: 8396 5d3e 708c 59be 37a3 e43d b3c5 263e
000001e0: 14a4 a33e a315 4c3e 68bc 703f 64cc e93e
000001f0: 5570 083f 682f 273f 1299 673e d097 c43e
00000200: d4d4 e53e 9a87 f6bd b61c a53f d90e afbe
00000210: 51b3 c2bd 8280 74be 7e70 15bf c5a7 98bf
00000220: 113e d7be b3b0 16bf a15b e93b 0b36 0ebe
00000230: 53b6 a83c c058 d63e 940b 193f 1e2f 223e
00000240: b2ff 0340 25fe 5c3f 10b3 5bbd d6c4 bbbe
00000250: e628 513e 8076 0a3f 0ee5 c03e 6a8d f63f
00000260: cc2d febe 2585 b53f 2e1c 1dbe e5bd 963f
00000270: 3096 323f 319c 1740 621b d73e 48f5 cb3f
00000280: 0175 fc3f cc36 10bf 4f24 893d 8235 663f
00000290: 77fe 1ebe 24bb 30bd 8ec8 2cbd 6461 8640
000002a0: 02be d13e 77d6 a4be d5f4 643f 8b51 053f
000002b0: 5d48 b83e 43f2 c4bd f4f0 3b3f 9d3f 00be
000002c0: ca17 bd3d 7bad 86be b7f8 433e 0806 54be
000002d0: d456 0d3f e432 1640 3827 0240 dbfa f33e
000002e0: 4980 a7bf c2e9 b43f d7c9 f83f a599 a53e
000002f0: 0e5e a4bd a9b0 0f3f 6cb1 213e 1993 d23f
00000300: 3b7b 42bc f754 943e d0da f73e ae89 cabe
00000310: 381d 3d3e 5b3b 463d 197e 16bf 2170 f2be
00000320: 4027 21bf 40ae a53e 5173 18bf 0495 91be
00000330: 82bf 1a3f 3eba 9cbe cb6d a13e 5497 cf3c
00000340: 2f61 b53e f5bb 2f3b e8fa fabe a22a 0b3c
00000350: dcbb 9bbd 265e a03e f73a 023e 055a 3fbe
00000360: 546f aa3e f2fc db3e 264b f33e 393f e73e
00000370: 335f 18bf e8d7 803e 6994 a63e 93e9 1c3e
00000380: 7a80 9d3e e7f9 00bf b6f2 1b3e c883 e73e
00000390: 1906 bb3e f293 47be 0c38 bfbe a647 fb3e
000003a0: b8ee 383d 3da3 49be 82d9 443e ff47 d2bd
000003b0: 2dbd 13bd bd65 0bbf e2c6 2d3f ba89 4b3e
000003c0: c19c b53e c069 3ebd 6e57 8b3e 6997 9b3e
000003d0: bdc1 c53e a0c0 91be 850c 18bf 5365 e23e
000003e0: e3b4 67be d767 003e ce19 e23e 6f4f bc3d
000003f0: 2fd6 a2be 2e21 973e 313c b4bc 4adf 8bbc
0.82034206 -0.16704251 0.13723399 0.36515498 0.41150674 -0.11799336 -0.39475745 1.1626465
1.1306839 0.93833566 -0.2503744 -0.5673566 0.38589606 0.774041 0.92494106 -0.08281354
0.40013337 0.6320482 0.031071078 0.15074931 0.68973833 0.6227855 0.78852904 0.30251133
0.61485255 1.454077 -0.14873455 0.29882693 0.07261204 0.22077711 0.91539544 1.0223963
0.66138536 0.51914 0.15744062 1.1540476 -0.2461185 0.4253141 0.22264493 0.68346965
0.3609581 -0.3064155 0.05710786 0.33489037 0.2926042 0.024022594 0.051244672 -0.18961915
0.7335891 -0.22953445 0.49132803 -0.09951812 1.4042923 0.9554826 0.8414107 0.88966507
0.7686073 -0.27943125 1.3382189 0.38183576 0.45461056 0.4791269 0.013958472 0.97596014
0.35414988 1.1464187 0.3340461 0.99170434 0.052143138 -0.12710801 -0.58039874 -0.013787809
-0.1662974 0.7474324 0.19699459 -0.39721465 -0.2942708 0.12000829 0.22571939 0.21850868
0.3467453 0.10783464 0.13969891 0.6786041 0.53615975 1.0427529 0.3836419 0.6908457
0.6482676 0.24954143 0.05587329 1.1455301 -0.30283183 1.1341611 0.7304116 0.17199445
-0.37323883 1.0645639 0.3287311 0.26842585 1.408654 1.0652473 -0.48309425 0.97177815
0.37965807 0.20632815 1.1521808 0.9729643 1.220556 0.13216907 0.21920651 -0.40442073
0.109787546 0.11115012 0.13353321 -0.35549366 0.21639447 -0.21244979 0.11163943 0.16286354
0.3196112 0.19930129 0.94037485 0.4566375 0.53296405 0.6530671 0.22616985 0.38397074
0.44888937 -0.12037583 1.2899387 -0.34191015 -0.09506858 -0.23877147 -0.58374774 -1.1926199
-0.4203954 -0.5886337 0.0071215187 -0.13887803 0.020594751 0.41864586 0.5978329 0.15838286
2.0624814 0.86325294 -0.053637564 -0.3667361 0.20425758 0.54087067 0.37674755 1.9261906
-0.49644315 1.4181257 -0.15342781 1.1776701 0.6976042 2.3689082 0.4201308 1.5934229
1.9723207 -0.56333613 0.066963784 0.89925396 -0.15526758 -0.04314722 -0.04218345 4.1993885
0.40965277 -0.32194874 0.89436084 0.5207755 0.3599271 -0.0961652 0.7341454 -0.12524267
0.09233053 -0.2630423 0.19137846 -0.20705426 0.55210614 2.346856 2.0336437 0.47652325
-1.3086025 1.4133837 1.9436597 0.32343784 -0.08025752 0.56128937 0.15790337 1.6451141
-0.011870201 0.28971073 0.48409128 -0.39558166 0.18468177 0.04839645 -0.5878616 -0.47351173
-0.62950516 0.32359505 -0.5955096 -0.28434002 0.6044847 -0.30610842 0.31529078 0.025340714
0.35425708 0.0026814912 -0.4901955 0.008494051 -0.07604191 0.3132183 0.12717806 -0.18686683
0.33288062 0.4296642 0.4751827 0.45165423 -0.5952026 0.25164723 0.32535103 0.15323476
0.30762082 -0.5038132 0.15229306 0.4521773 0.3652809 -0.1949003 -0.37347448 0.490781
0.045149535 -0.19691177 0.19223598 -0.102676384 -0.036069084 -0.54452115 0.67881596 0.19876757
0.35471156 -0.04648757 0.2721514 0.30388954 0.38624373 -0.28467274 -0.59394103 0.4421793
-0.22627597 0.12539612 0.44160312 0.09194838 -0.31804034 0.29517502 -0.022001358 -0.017074246

lstm.weight_hh_l0 f4 [256, 64]
00000000: 6b03 18bf 3bdd 37bf 35b2 abbf 18ef 3c3f
00000010: 98ad 09bf aee6 e03f 3d72 273f 9814 8fbf
00000020: 1475 1e3f 8aa8 9bbe 5ea5 ec3e 6d5d e23f
00000030: f8b4 9cbf 3e62 d63e c14f 37bf afa5 8fbf
00000040: 62dd bc3d b0dc 0a3f e7c6 b33e c7cf 24be
00000050: a9b7 813f e57c 9a3e 6036 0a3f a7c1 1cbf
00000060: 08c6 473e 4ef5 57bf 3ba1 d1be 73b0 72bf
00000070: 2f1d 9b3e 0f6f 8fbf 02ab 973f bb1a 053f
00000080: ad2d 9fbf 3dc5 e63f be6e b5be 84da 60bf
00000090: 8025 fd3e 7ffe d7be 3b4e a13e b0e6 c1be
000000a0: 182d 073f 899c 1dbf f701 88bf 5ed8 b73e
000000b0: 4b61 0140 8512 60bf 2796 b93e 1a07 cdbe
000000c0: 9456 de3f fccb 77be 09d3 9d3e 1361 e63e
000000d0: d96f 0cbf 5a78 f73e f724 ff3e 4766 8dbe
000000e0: 8766 573f 914f 83bf a9f0 663f 9f9b 0f3f
000000f0: 69c9 ec3e 395e a5be 58ee 19bf ea0e f13e
00000100: b652 b6be 9361 9cbe 2c49 6ebe ec77 993d
00000110: d9fe 83be 8c8b 053e d262 02bf c8d7 afbe
00000120: 849e 4dbe 03b6 a4be 7d35 a43e 39c7 f7be
00000130: 2aeb 37bd d137 6c3e e522 12bf 2ae9 8abf
00000140: a86f 8b3e 01f5 d03d 80d7 a03e 8ef0 f0be
00000150: d8dc 50be 36b2 9c3e 6b25 053f 5551 36bf
00000160: 4777 9a3e 51e6 fcbe f02a cfbe 5ff0 47bf
00000170: 86c4 e9be 430c adbe c149 81be 07a9 1fbe
00000180: f401 9bbe 4ce7 233f 8f50 16bf 29d5 01bf
00000190: aa2e c23e b5fd b63e f182 153e 590e c4be
000001a0: 69ce 0d3f 8156 18bf f7e0 63be b963 043f
000001b0: c85c 623e 43a2 70bf c42a 0f3f 762f 3bbf
000001c0: b0c8 413f cd78 04bf be0b 85bd cd2b 053f
000001d0: f2eb 2ebf c89e 52be f1bf e83e 54a0 8fbf
000001e0: 1aef 583d 3ef9 25bf 0153 033f 598a d4be
000001f0: c381 f53e 9085 f6be 7b78 ec3e 4ff2 06bd
00000200: ecf6 08bf c4e9 743f 0d1a 733e fdff 273f
00000210: 2237 46be 7570 123f d49a 863f 6302 b2bf
00000220: f6b5 bfbe 1116 853e 1b43 2d3f a71e 85bd
00000230: cbe7 3cbf 4326 07bf 9a53 023e ff50 bebf
00000240: 1f34 86be cf17 a6be bc0e d3be 8ea1 163e
00000250: 0aab 483f fc06 7d3e 6c8f 613f b79c 33bf
00000260: fdf0 94bd d3e5 c6bf 6f9b 7b3e 439c 39bf
00000270: 5317 18bf fab7 07be 2915 013f 0553 8a3e
00000280: aa25 893e 58d4 fa3f 3c9b 78bf 0b55 9fbe
00000290: 453a 16bf 69e9 a8bf 6a9c 96be ad63 45be
000002a0: 3e38 34be 1edb 833e ae90 bdbf 0323 89bc
000002b0: 2991 693f 917a 743e 489b d13e 0397 1a3f
000002c0: afd5 ac3f 2d1e 10bf 4f30 47be 9198 493d
000002d0: 2ae7 85be 5bc6 61bd 1a38 a73e 2bf3 653f
000002e0: c095 a73e 6075 c8bf 43a9 0e3f 962d a2bd
000002f0: 986b 063e c672 45bd a101 39bf 5d32 4b3e
00000300: 7f30 89be ff77 aebe a798 223e 22c2 d23e
00000310: f2eb efbe f217 f73e 6897 43be 1d67 01bf
00000320: 9bae 8dbe dd22 24be e19b 163f 9d35 e6bc
00000330: 62a7 21bf 73a2 cd3e 5c52 e9be fa1a e8be
00000340: 7867 8d3e d4e2 c73e 35c4 863e 6165 9abd
00000350: f9de 4d3e 2897 a83e bcd5 c73e daa1 94bd
00000360: 2624 773e 44fa c8be 94df 94be 1e57 ccbe
00000370: 39ad ab3e 1bbf 68be 4f94 50be 7cac 90be
00000380: 973c 42bf 7f6c bf3e 8e66 a2be 9ab7 c9be
00000390: 32bf bc3e 2189 b4be 4fd5 8e3e e019 d0be
000003a0: 5cc5 913e af26 15be 936f e6be d384 483e
000003b0: 6bb2 d73d 3d9d 8abe 3646 d33e 5e05 b3bd
000003c0: dab1 af3e b012 bfbe c1e1 383e 3b02 583e
000003d0: 9233 e7be 18ce babe 7f1d 913e 1f37 4c3d
000003e0: 340e 0d3d 9cdb debe bb41 e43e 96bb 52be
000003f0: 27ac bb3e 7fc4 9abe 3310 b0bd ec8f 06be
-0.59380215 -0.71821946 -1.341376 0.7380233 -0.5378051 1.7570398 0.6540869 -1.117816
0.618974 -0.30402023 0.46219915 1.7684761 -1.2242727 0.41871828 -0.7160607 -1.1222438
0.09221913 0.5424299 0.35112688 -0.16094886 1.0134174 0.30173412 0.5398922 -0.6123299
0.19509137 -0.8435868 -0.40943322 -0.9480049 0.30295703 -1.1205767 1.1849062 0.5199391
-1.2435814 1.8028942 -0.35436052 -0.8783343 0.49442673 -0.42186353 0.31504998 -0.37871313
0.5280318 -0.6156698 -1.06256 0.35907263 2.0215633 -0.8752826 0.3624737 -0.4004448
1.7370172 -0.24198908 0.3082507 0.44995937 -0.54858166 0.48334008 0.4983289 -0.27617094
0.8414082 -1.0258657 0.9021097 0.56096834 0.46247414 -0.3229845 -0.6012931 0.4708169
-0.35609978 -0.30543193 -0.232701 0.074935764 -0.2578037 0.13041514 -0.5093204 -0.34344316
-0.2008 -0.32170114 0.32072058 -0.48394182 -0.044902004 0.23068167 -0.57084495 -1.0852406
0.27233624 0.10202981 0.31414413 -0.4705853 -0.20396745 0.30604714 0.5201022 -0.7121785
0.30169126 -0.49394467 -0.40462446 -0.7810115 -0.45657748 -0.33798417 -0.25251582 -0.15591823
-0.30274928 0.64024806 -0.5871667 -0.5071588 0.37926227 0.35740438 0.14600731 -0.38292196
0.5539308 -0.59506994 -0.22253786 0.51714665 0.22105706 -0.9399759 0.5592463 -0.73119295
0.7569685 -0.5174683 -0.0649638 0.5201996 -0.68328774 -0.20568383 0.4545894 -1.1220803
0.0529624 -0.6483344 0.5129853 -0.415118 0.47950563 -0.48148775 0.4618567 -0.032945927
-0.5350177 0.956692 0.23740406 0.6562498 -0.19356969 0.57202846 1.0516 -1.3906978
-0.37443513 0.25993398 0.6768052 -0.06499987 -0.7379119 -0.5279276 0.12727204 -1.4868468
-0.2621164 -0.3244004 -0.4122218 0.14710066 0.78385985 0.24709696 0.8810947 -0.70161
-0.07272527 -1.5538887 0.24571012 -0.7250406 -0.5941059 -0.13253775 0.5042291 0.27016464
0.26786548 1.9596052 -0.9711187 -0.3111957 -0.5868266 -1.3196231 -0.2941621 -0.19276305
-0.1759958 0.2575311 -1.4809778 -0.016740328 0.9123712 0.2387488 0.40938783 0.60386676
1.3502711 -0.56296045 -0.19452022 0.049217764 -0.26152927 -0.055120807 0.3265999 0.8982417
0.32731438 -1.566082 0.5572702 -0.07918851 0.13126981 -0.04820516 -0.7226811 0.19843431
-0.26794812 -0.34075925 0.15878545 0.41163737 -0.468597 0.48260456 -0.19100726 -0.50547963
-0.27672276 -0.16028924 0.588316 -0.028101737 -0.6314603 0.40163 -0.45570648 -0.4533308
0.27618003 0.39040244 0.2632157 -0.07538868 0.20104589 0.32927823 0.39030254 -0.07257433
0.24134883 -0.39253438 -0.29076827 -0.39910215 0.33530596 -0.22729151 -0.20369075 -0.28256595
-0.758737 0.37387463 -0.31718868 -0.3939789 0.3686462 -0.3526087 0.27897117 -0.4064474
0.28470886 -0.14565538 -0.45007 0.19581918 0.105320774 -0.27073088 0.41264504 -0.08741258
0.34315377 -0.37318945 0.18054868 0.21094601 -0.45156533 -0.36485362 0.28342816 0.049857255
0.034437373 -0.43526924 0.44581398 -0.20579371 0.3665478 -0.3022804 -0.0859684 -0.1314084

lstm.bias_ih_l0 f4 [256]
00000000: 61d6 0b3f 689e ab3d 559e 1f3f 1432 7a3e
00000010: 2081 14bf 67eb 8b3f 1bb5 b0be 7c92 7f3f
00000020: 7eee c2be 0bd4 213f 2404 a9be 6955 1fc0
00000030: faba 803f 0234 b43e 67fd 503c 09f7 7ebe
00000040: 7b55 813f 2f2f 2d3f 16e3 38bf abcf 93bf
00000050: 66af ddbd 47f8 f93e 638b ff3e 439a 6cc1
00000060: b733 203f 8343 e13e b869 9e3e c113 b23f
00000070: 6590 013f cb23 f83e 645b 423f 8ea2 c2be
00000080: d2b9 da3e 3d22 1b3f 9b6e 583f 2ad8 533e
00000090: 1268 cf3f d644 273f 5304 adbe 864c 373f
000000a0: 4097 1e3d 9a4e 733f 5ef8 dd3e ed2d ff3f
000000b0: ba1d c73e c8a5 68bc 2417 61be 40be 70be
000000c0: 17e4 913e fa92 133f 338a b83e 86dd 213f
000000d0: a188 7a3e 07a4 a0bf a1cd 033e d598 f13e
000000e0: d97c f63e 105d 8d40 347b 1e3f 3c1a 0240
000000f0: e44e 753e baa8 103f 63eb a8be 8435 213f
00000100: cdc1 b9bc e844 2cc0 5243 3e3f eabc 0fbc
00000110: 5698 233e 2095 433e 5466 3cbd 7884 ff3e
00000120: 53ec bdbe 1609 c43f c804 c1be 928d 30bf
00000130: 96ad 873f d8ab 1ebf ddf6 4f3e f035 ed3c
00000140: 6b87 3fbf 8c64 7c3e 2146 70bf bc33 9dbd
00000150: 615f 56bd c9b0 ca3f c38f ac40 ac38 80bf
00000160: 0ceb 183e f3b1 4741 1a80 88bc 8366 fd3e
00000170: 18e7 0a3f 5040 31be 3cad c23e 8b0e c4be
00000180: 0d03 d83e b3dc 393f a593 fa3e 8c40 16be
00000190: ab44 a8be c6de debe 82f1 463f 722e 003f
000001a0: 708d 353c ee89 bbbd 7fe3 0d3e 2330 7d3f
000001b0: 3b2f 5f3f 406b cfbf 3aa1 12be 23ae d6be
000001c0: 2629 08bf 527c 713f 02f1 0bbf e7f4 233f
000001d0: 744c 843f 9cf4 8dbf 127f a53e 5acd 923e
000001e0: f5db c93e 1891 103f e586 db3e 8d9f d1be
000001f0: ecbb a7be 3286 f63e 18b9 d0be ff95 d73e
00000200: 658e ccbe 0c1f 1bbe 42b6 a1be a644 ca3e
00000210: 8485 d3be 8135 0c3f f1c3 2bbe 3812 a4be
00000220: 189c 48be 5e7d 02bf 6764 8e3e 4f26 1cbe
00000230: b233 99be e445 96be 4e85 a2be 23d4 303e
00000240: 1bf3 8abd 2db5 a43e c0e4 6cbe 02a6 d7be
00000250: ab94 1cbd 8ba5 ec3e e495 f93e 3527 1f3e
00000260: b73c a03e 9e3d 07c0 77fa dfbe 76e1 6dbf
00000270: 2d7d cd3d 1cfc fdbe d62f 973f 786d 82be
00000280: 5254 cfbf f92f 193f f0f4 d9be fb71 53be
00000290: f825 0b3f e667 52c1 9c96 963e b3a8 c6be
000002a0: 4ee1 cc3e 1f0c 1dbf 8ea9 fa3d 3960 a63e
000002b0: ba9c 9e3e c4e6 5bbe aef9 953e 3914 6fbe
000002c0: 3b5f cc3e d560 fdbe b7c9 a53e a62f de3e
000002d0: 0d2b 10bf 6eff 0fbc 3551 d83e 3a0f afbe
000002e0: 1459 e53e 7b7f 0bbf d463 283f 90fe c7be
000002f0: 0d78 133f 2637 9bbe 013f ac3e 57e7 babd
00000300: 08e3 8d3f e4b7 1e3d b461 0b3f 4cad a23e
00000310: 791b fb3e e3ba 0b3f 1353 043f b584 e8bd
00000320: 6aa1 67be 8d42 2a3f a2fa d6be c291 513e
00000330: 17d1 5b3e c6d8 6c3f f839 933e 9d26 8d3d
00000340: 8c0d 21c1 9276 1dbd 9a60 a7bf e1ac ea3e
00000350: c21a aa3e 87a9 ae3f b950 cd3e 41b9 c6bf
00000360: cfda 96bf fd20 243f 174c c83e 36fb af3e
00000370: 901d 263f e128 8c3e 5e60 103f fb04 01bf
00000380: 4b9a 613f 9d10 8e3f 0440 753f 0bd9 8c3f
00000390: ef35 e2c0 f778 f13f b2d5 e83e 9447 8e3f
000003a0: 631a acbd 39a2 013f 3357 0640 d8ed 8f3f
000003b0: ef90 b33f 50a6 65bf f2e4 d73e 6287 b7be
000003c0: d725 9e3e 5bb5 dc3f 6d9f 073f 5213 bc3e
000003d0: d6d2 113f 00ce a03e 69fe e83e 9c1c 643e
000003e0: fd0b 163f 4336 6a40 3c70 083f 54dd 1a3e
000003f0: 52c4 343f fb6e c93f 57bb 94be f456 8d40
0.5462399 0.08379823 0.6235097 0.24433166 -0.5800953 1.0931214 -0.34513173 0.9983289
-0.3807258 0.63214177 -0.33010972 -2.489588 1.0057061 0.3519593 0.012755728 -0.24898924
1.0104212 0.6765012 -0.72221506 -1.154775 -0.1082447 0.48822233 0.4991103 -14.787662
0.6257891 0.4399682 0.30940032 1.3912278 0.50610954 0.48464808 0.759207 -0.38014644
0.42719895 0.6059912 0.8454377 0.20687929 1.6203635 0.6533941 -0.33792362 0.7160114
0.038718462 0.9504181 0.43353552 1.993589 0.38889867 -0.014199682 -0.21981484 -0.23510075
0.2849433 0.57646143 0.36042938 0.6322864 0.24466182 -1.2550057 0.1287141 0.47186914
0.48142126 4.41761 0.61906743 2.0328512 0.23955876 0.56507456 -0.32992086 0.62972283
-0.02267542 -2.6917057 0.7432147 -0.008773068 0.1597608 0.19099855 -0.045996025 0.49905753
-0.37094364 1.5315273 -0.3769896 -0.6896602 1.0599849 -0.6198096 0.20309015 0.028956383
-0.74816006 0.2464773 -0.9385701 -0.07675883 -0.052337054 1.58352 5.392549 -1.0017295
0.14933413 12.480945 -0.016662646 0.49492273 0.5425887 -0.1730969 0.38022792 -0.38292345
0.42189828 0.72602385 0.4894077 -0.1467306 -0.3286489 -0.43529338 0.7771226 0.5007087
0.011081085 -0.091571674 0.13856314 0.98901576 0.8718144 -1.6204605 -0.14319316 -0.4192973
-0.5318779 0.9433032 -0.54664624 0.64045566 1.0335832 -1.1090274 0.3232351 0.28672296
0.39425626 0.56471395 0.42876354 -0.4094204 -0.3276056 0.48149258 -0.40766215 0.42106625
-0.39952388 -0.15148562 -0.31584364 0.395055 -0.41312802 0.5476914 -0.16773964 -0.3204515
-0.19590795 -0.50972545 0.27810976 -0.15248989 -0.29922253 -0.29350197 -0.31742328 0.17268424
-0.0678465 0.32169476 -0.23134136 -0.4211884 -0.03822772 0.4622005 0.4874717 0.155423
0.31296322 -2.1131358 -0.43745777 -0.9292215 0.10033641 -0.49606407 1.1811473 -0.25474143
-1.6197608 0.59838825 -0.42569685 -0.20648949 0.5435481 -13.150366 0.2941178 -0.38800582
0.40015644 -0.6134662 0.12239371 0.32495287 0.30978948 -0.21474749 0.29292053 -0.23347558
0.39916405 -0.4948794 0.3238046 0.43395728 -0.5631569 -0.0087889265 0.42249456 -0.34191304
0.44794524 -0.54491395 0.65777326 -0.39061403 0.5760506 -0.30315512 0.33641818 -0.09126156
1.108491 0.03874959 0.5444596 0.3177284 0.49044397 0.5458204 0.5168926 -0.11353437
-0.22620168 0.665078 -0.41988093 0.20465758 0.2146648 0.9251827 0.28755164 0.068921305
-10.065807 -0.038443156 -1.3076355 0.4583502 0.3322354 1.3645486 0.4010065 -1.5525285
-1.1785525 0.64112836 0.39120552 0.34371346 0.6488886 0.27374938 0.56397045 -0.50398225
0.8812606 1.109882 0.95800805 1.1003736 -7.0690837 1.886504 0.45475537 1.1115594
-0.0840347 0.5063816 2.0990722 1.1244459 1.4028605 -0.897069 0.4216686 -0.35845476
0.30888245 1.7242845 0.5297764 0.3673349 0.56962335 0.31407166 0.455066 0.22276539
0.5861204 3.6595619 0.53296256 0.15123492 0.7061206 1.5736994 -0.2904918 4.4168644

lstm.bias_hh_l0 f4 [256]
00000000: 6025 fc3e e341 c13d 0724 383f cb1f 693e
00000010: 3041 24bf 77e5 653f 7ddd 41be b5bb 893f
00000020: a7e4 d3be 98fc 1c3f c465 b2be 3f10 16c0
00000030: 622b 503f bb03 0c3e 5783 96bd dafe 1dbe
00000040: 9725 823f 352b 2f3f ed6e 59bf 7804 75bf
00000050: c3f2 e9bd 5841 e33e 3da9 083f 1337 6ec1
00000060: e912 3f3f fc2c fc3e 28a1 843e e284 c93f
00000070: 270e e53e 8cd2 353f df89 543f 5503 a3be
00000080: ea8b 163f ad52 ed3e 9756 853f f3bd 763e
00000090: cb84 e93f 24af 3f3f 2c52 78be a3c3 3b3f
000000a0: 1c1b 263e 95fc 623f 21a7 1d3f ee04 ff3f
000000b0: 7f8f ff3e ce56 fcbd f520 89be eb1d 48be
000000c0: 42d0 fc3e b1b2 233f 5c82 eb3e 6b5f 3e3f
000000d0: 3663 a03e 6873 a2bf d26c ab3e 5d7a b83e
000000e0: e71a d93e c728 8b40 11f9 2f3f 4477 0040
000000f0: 2d9f d63e 9ce7 cb3e 3410 66be 8051 3c3f
00000100: d70b 073e d245 26c0 8f40 513f ed25 253d
00000110: 3800 f13d b41c 993d 9f06 5dbe 2687 bf3e
00000120: 4b77 a1be 1d38 b63f 2d84 91be a869 40bf
00000130: bd83 923f 176b 35bf 0edd 463e 4010 ec3c
00000140: 5091 36bf 5eba e73d 287a 88bf 30e4 4ebe
00000150: a49e 8bbe c356 c53f 5347 a940 5382 8ebf
00000160: 3f8b 973e 8081 4641 2554 cd3d ab3d e63e
00000170: f25e 063f 4694 a4bd f83d b13e 3f0b 91be
00000180: e78b 073f fa52 203f 137a 0c3f 6220 53be
00000190: 6c2c 5bbe 92ab b9be 3f38 453f 4219 9f3e
000001a0: 2a4c c03d 234c 79bd 8ad9 da3d a2cc 913f
000001b0: 050c 8a3f 2b36 cbbf 7c89 eebd 0b96 cebe
000001c0: 4597 0cbf b670 6e3f 3125 05bf 428b 2f3f
000001d0: 94af 6e3f 232c 8fbf 69a6 e93e af9d 1e3e
000001e0: 7a64 f73e fd74 af3e 1717 d13e 4139 97be
000001f0: e705 97be 6689 d63e 7491 53be 9f17 da3e
00000200: ed21 9fbe 9c5f b6bd c7c5 fbbd c1a5 7e3e
00000210: 0c85 82be efde 243f 5687 b0be 0f03 f4be
00000220: 5d95 c0be d0c1 e5be 4a4c 4a3e a79e e0bd
00000230: d3f3 d4be 5820 ddbe f3f0 7dbe d96a a03b
00000240: b65f ecbd 5350 123e ee9b 13be 1726 91be
00000250: f44e 1f3d 51da 9d3e e264 b53e acdb f23c
00000260: f6a4 b03e 10af 01c0 abdd c3be a2d7 4cbf
00000270: a33d 173e 0f60 bcbe c3da 8c3f c3b6 33be
00000280: b343 b8bf 310a f03e bad2 acbe 92b4 93be
00000290: 891c b43e 3af6 50c1 f48c b33e 6952 e8be
000002a0: 1532 2a3e 927d 2fbf 5ea3 e53d bf56 693e
000002b0: 78d4 c43e b3ae a7be a037 ac3e dc8f 69be
000002c0: e4a7 e03e 1058 a9be 8bf9 c93e 54cc 983e
000002d0: f916 33bf 3565 073d 6b82 7e3e 6233 94be
000002e0: 5ada f13e ce9b 01bf 1fbd e33e c6d3 8cbe
000002f0: 9aaf c53e e65c e6be 5820 933e ba59 0bbe
00000300: c9ba 813f b795 003e c69b fb3e d8da a33e
00000310: 3c5a fa3e a56f f63e 7df8 ec3e 83ba 36bb
00000320: ed7e a0be f887 193f b6ba aebe 98b9 6e3e
00000330: 5d45 9c3e b108 5d3f 0cf8 133e 655f 5ebc
00000340: 25dc 20c1 8926 b53c c237 9fbf 1513 f03e
00000350: ee05 843e 7c3c a63f 2727 013f 48fb b6bf
00000360: 3603 8ebf 9fe7 283f d719 e53e 3555 a63e
00000370: 287f 1f3f 15f6 b33e 265d 0d3f 11b7 dcbe
00000380: 6d37 843f 616c 883f 59d9 823f e0a6 923f
00000390: 0977 e3c0 ad97 ec3f 8b89 9b3e 6f73 8a3f
000003a0: 93c3 7abe ab5c ad3e 5928 0940 7d68 913f
000003b0: 0a63 b93f db6a 4cbf 5bfc ea3e 3ac3 ccbe
000003c0: 4855 b63e 9b11 d73f 2106 b93e 187d 7f3e
000003d0: a6ef 303f 7826 f23e 6c45 0d3f 7133 923e
000003e0: 40b7 0d3f f350 6f40 d19b 0c3f 7a40 133e
000003f0: 7225 2c3f a94f cc3f 8e05 83be 3f45 8640
0.49247265 0.09436395 0.71929973 0.22766034 -0.6416197 0.8980326 -0.18932147 1.0760409
-0.41385385 0.6132293 -0.34843266 -2.3447416 0.81316197 0.13673298 -0.0734927 -0.1542925
1.0167722 0.68425304 -0.84934884 -0.95709944 -0.11423256 0.4438579 0.5338324 -14.888446
0.7463823 0.4925307 0.25904202 1.5743678 0.4473736 0.71024394 0.83022875 -0.3183848
0.5880724 0.4635214 1.041705 0.24095897 1.824365 0.7487662 -0.24250096 0.7334539
0.16221279 0.8866666 0.61583143 1.992338 0.49914166 -0.12321244 -0.26782957 -0.19542663
0.49377638 0.63944536 0.45997894 0.74364346 0.31325692 -1.2691469 0.3348146 0.36030856
0.42403337 4.3487277 0.6873942 2.0072794 0.41918316 0.3982514 -0.22467119 0.7356186
0.1318811 -2.5980115 0.81739134 0.040319372 0.1176762 0.07476178 -0.21584557 0.37407798
-0.31536326 1.4235874 -0.28421155 -0.7516122 1.1446453 -0.7086653 0.19420263 0.028816342
-0.7131548 0.113148436 -1.0662279 -0.20204234 -0.2726947 1.5417103 5.2899566 -1.1133522
0.29598424 12.406616 0.10025815 0.44968924 0.52488625 -0.080360934 0.3461759 -0.28328893
0.5294785 0.6262661 0.5487377 -0.20617822 -0.21403664 -0.3626371 0.7703895 0.31073958
0.09389527 -0.060863625 0.106860235 1.1390574 1.0784918 -1.5875906 -0.11647317 -0.4034885
-0.5491832 0.93140733 -0.52009875 0.68571866 0.9323666 -1.1185344 0.45634773 0.15489839
0.48318845 0.34268942 0.4083793 -0.2953587 -0.2949669 0.41901702 -0.20660955 0.42596146
-0.3108057 -0.08904955 -0.122935824 0.24867918 -0.25492132 0.6440267 -0.34478253 -0.47658584
-0.37613955 -0.4487443 0.19755664 -0.109677605 -0.41592273 -0.4318874 -0.24798946 0.0048955497
-0.11541693 0.14288454 -0.14414951 -0.28349373 0.038893655 0.30830625 0.3542853 0.029645763
0.34500855 -2.02631 -0.38255057 -0.8001653 0.14769606 -0.36792037 1.1004261 -0.17550187
-1.439566 0.46882775 -0.33754522 -0.28848702 0.3517802 -13.060114 0.35068476 -0.45375374
0.16620667 -0.6855098 0.112128004 0.22786997 0.3844335 -0.32750472 0.33636189 -0.22808784
0.4387809 -0.33075 0.394482 0.2984339 -0.6995693 0.033055503 0.24854438 -0.28945452
0.47236902 -0.50628364 0.44480225 -0.2750532 0.38610536 -0.4499275 0.28735614 -0.13608447
1.0135127 0.12557112 0.49142283 0.32002902 0.48896968 0.48132053 0.46283332 -0.0027882166
-0.31346837 0.59973097 -0.34126824 0.23312986 0.3052167 0.8634139 0.14450091 -0.0135725485
-10.053746 0.022113102 -1.2438891 0.46889558 0.25785774 1.2987208 0.50450367 -1.4295435
-1.109473 0.65978426 0.44746277 0.32486883 0.623034 0.35148683 0.5522026 -0.4310842
1.0329415 1.0658075 1.0222579 1.1457176 -7.1082807 1.8483788 0.30378374 1.0816478
-0.24488668 0.33859763 2.1430876 1.1360012 1.4483349 -0.7985055 0.45895657 -0.39992696
0.3561194 1.6802248 0.36137488 0.24950063 0.69115674 0.47294974 0.55184054 0.28554872
0.5535774 3.7393157 0.54925257 0.14380065 0.67244637 1.596181 -0.25590175 4.195953

actor_mean.weight f4 [1, 64]
00000000: 27e8 e2bc 85f4 a83f 6468 16bd 5279 2ebe
00000010: d6ca 0b3d 1b30 c7bd 2cc8 43bf 1fce 8fbd
00000020: 8f52 c0bd bd7d 44be 6398 303e a1d6 8cbe
00000030: 26c7 5dbd c385 a43e 15b7 fdbd 5c6c 6bbf
00000040: 89ac cd40 dc81 013f 8866 b83f 826c 083e
00000050: a9c3 d03d 01ef 663e 3adf 7dbe d784 a93e
00000060: 6bed d2bd 6d52 d23f e018 123d ab22 c43e
00000070: 892f 04be 7c4e c83b ff1f 5d3e 5a00 8cbd
00000080: 765e 3a3c 7876 fabe 25bc 453f 49dd 36bf
00000090: 4733 473d 840a b3bf 1633 86bd 7494 e73e
000000a0: b816 86be e774 0f3f ab84 b8bf 78f0 853f
000000b0: 5084 f4bd efb1 a1be 8475 e1bd fe4c a2c0
000000c0: 4004 91be 94c9 95bc 317b e23f e961 8dbe
000000d0: 1276 ab3d 7750 4a3f f4b5 febe 3954 02bf
000000e0: b3a4 a7bd b51d cf3e 864c 633d 9dd0 7840
000000f0: db26 c93d 1369 bdbd 3ad5 8f3d 5a45 13bf
-0.02769859 1.3199621 -0.03672065 -0.17038468 0.034128986 -0.09725972 -0.76477313 -0.07021736
-0.09390747 -0.1918859 0.17245631 -0.275075 -0.054145 0.32133302 -0.12388436 -0.9196222
6.4273114 0.50588775 1.440629 0.13322642 0.10193569 0.2255211 -0.24792185 0.3310916
-0.1029919 1.6431404 0.035668254 0.383077 -0.12908758 0.0061128717 0.21594237 -0.068360046
0.01137506 -0.4891851 0.7724021 -0.71431404 0.048632886 -1.3987584 -0.065527126 0.45230448
-0.26189208 0.56037754 -1.4415487 1.046401 -0.11939299 -0.31581065 -0.110087425 -5.0718985
-0.28323555 -0.018284597 1.7693845 -0.27613762 0.083721295 0.7902903 -0.49748194 -0.50909764
-0.08185711 0.40452352 0.0554929 3.8877327 0.09821864 -0.09248557 0.070230916 -0.575277

critic.weight f4 [1, 64]
00000000: 5b83 59c1 bf7e 84c0 1c7e abc1 e5c5 d840
00000010: 8ddf e2c0 104e cc40 8f22 f4c1 5f53 15c2
00000020: 5be1 aa40 78da 5dc1 4896 c43d 1bf1 3141
00000030: 5440 6dc1 e9bc 0c42 0293 d7c0 3b8f 0b41
00000040: f0a1 b141 6ba6 2e41 811f 3041 ee67 dec0
00000050: 1a6d 4e41 d64c 7041 371a c641 3128 cc41
00000060: 071c d540 3401 a5c2 2a8a 93c1 14d8 05c1
00000070: cb3c e040 aaa4 96c1 2626 5d41 0aae 3a3e
00000080: ffe3 bfc0 6923 f240 c88b 0ac1 b7e2 5ac1
00000090: e622 9341 4011 94c1 6db6 ca40 5dc4 e6c0
000000a0: 66b9 c940 c290 e8c0 ff33 b4c1 58a9 8241
000000b0: 7ac6 6641 0719 81c1 8e15 6041 34bf 8bc0
000000c0: 21ac d440 e9d1 7fc1 574f 8440 bcb5 be40
000000d0: c733 b8c0 08c1 3841 0956 a041 c4e0 29c1
000000e0: 5688 d140 8d7f 28c1 22de e240 b6ad 9cc1
000000f0: 8f8c d940 7368 63c1 7604 45bf 04f8 2b42
-13.594569 -4.140472 -21.436577 6.774157 -7.089789 6.384529 -30.516874 -37.331417
5.340009 -13.865837 0.095989764 11.121364 -14.828205 35.184483 -6.7366953 8.722468
22.204071 10.915629 11.007691 -6.9501867 12.901636 15.018759 24.7628 25.519625
6.6596713 -82.50235 -18.442463 -8.365253 7.007421 -18.830402 13.821814 0.18230453
-5.9965816 7.5668225 -8.659126 -13.68035 18.39204 -18.508423 6.334769 -7.21147
6.3038816 -7.2676706 -22.525389 16.332687 14.423456 -16.13722 14.005262 -4.36709
6.646012 -15.988748 4.134685 5.9596844 -5.7563205 11.547127 20.04201 -10.617374
6.5478926 -10.53114 7.089616 -19.58482 6.798408 -14.213 -0.7695993 42.992203

exp_avg f4 [128, 5]
00000000: 92c2 d2b8 10ca 57bb 7ba9 82b8 a341 b736
00000010: 20c0 af39 3ed6 a5ba 55e1 bc39 06b2 653b
00000020: 4126 323b eb88 68ba fc39 71b8 1cf7 01bb
00000030: f727 1939 c60f a93a 1e7f b739 eacd cab9
00000040: ed31 05bc 217f 21ba bc45 a539 67c7 ad39
00000050: 7516 e838 06e3 e53a a205 82b9 c726 84ba
00000060: 76a0 5139 ecc2 b6b9 ef4b d6bb 68ba adb9
00000070: 5ae3 ac3a 5e24 8c39 4f0a 02ba eaf8 10bc
00000080: bec1 13b9 e4f4 5d3b 8cb3 5d39 5a16 8b34
00000090: 9570 ab37 0a63 9936 9bce a4b7 d817 b9b5
000000a0: 283e edb9 5cb8 a6bb 8380 ea39 3c94 c63a
000000b0: 63ce ee38 0841 8730 40d8 c2b6 3af3 f536
000000c0: 2746 7d37 3839 2536 094b e439 ccd2 b93a
000000d0: 61e2 69ba 8641 2dba 30fe 8b39 b731 dcba
000000e0: b2dc d2bb a62e 753b 31db cf3b 4029 f8b9
000000f0: 3280 0d39 ba79 9f3b 777d 363a f4c1 65ba
00000100: 0af7 9ab8 5f1c 65b9 ea33 29bb f921 153a
00000110: 17e8 3739 001e fab8 5279 4031 be4f ca38
00000120: ef88 fe36 504d 4f38 e84a 1bb9 48cc ad38
00000130: 8f7b 923b 21b7 523a 967d abb9 0232 c3b8
00000140: b7e0 0cba e051 0cbb a358 b63a 6182 113a
00000150: 9a3c c9b8 aef2 2aa8 3d27 acad 46a0 9e2e
00000160: 9ae5 be2e f534 b12d 0d7c dcb9 e4bc 02bc
00000170: a021 2039 df04 dc3a ab78 4039 821b 0135
00000180: 7707 6039 6873 1e39 6f9e 86b8 23ee bbb9
00000190: dca3 423b e082 a03c 1e51 aebb 4887 55bc
000001a0: 83cd 8c3a 9efb 6c3a cf8c 973c 67b0 623a
000001b0: d372 b2bb 413f 82ba 564a 6bb9 795f 44ba
000001c0: 6d7a 223a af8e 45b8 aa9c bdb8 95e7 3fb8
000001d0: 8c26 603a d1f7 3bb9 c87a ab3a 8091 7b38
000001e0: d673 8bba 15d0 2fbc 2263 a23a e4d4 c63b
000001f0: e969 bdb9 3ef5 b1b5 a043 4eb7 0a1e 7636
00000200: b90a 7537 f033 69b6 9900 3933 b229 4938
00000210: 9e36 2937 6eb0 1cb8 3774 7db8 0fca 09b4
00000220: 8e0d 81b9 5ba5 81b9 c604 3239 40fc 3a39
00000230: 6fa8 afb5 3397 f6b5 ec91 c936 4a65 64b8
00000240: e612 56b8 da5e d2a7 2065 7138 8e6b c638
00000250: 56be 12b9 44cd 9d38 02fd e0a8 aa79 5838
00000260: fc13 af38 7f99 feb8 341b 8838 17e7 f0b7
00000270: 94d9 963a 5624 bab8 6e07 ec3a 184a 80b8
00000280: 9aeb 9cb9 b324 2a3c 7f83 fb3a 9f42 0eba
00000290: ac95 83ba ebbf dcb9 d78d ffbb e516 dd38
000002a0: 49eb df3a c94f 4539 6f6d 3db2 6b18 3d35
000002b0: b8c8 ea35 cd0d 48b6 7be4 bb35 a0ba 5e28
000002c0: cc5a 5335 de14 d735 b467 18b6 cee6 9435
000002d0: 6d65 f33a 08f2 463c 1e12 5cbb 974f 06bc
000002e0: 0c79 393a 6fc0 c1b6 ca1b bdb9 974e 6a37
000002f0: 5865 d939 956c 0bb9 f3a1 a1a2 cb09 5138
00000300: ef7b 8639 baac b8b9 d3b5 7539 6a6f abb9
00000310: d236 edbb e9fe 88b9 b834 153b c185 8339
00000320: 5412 43ad 757d 8eb0 8f85 1a31 857a 2b31
00000330: 1e18 3230 12ce a8b9 57b4 c1bb bedb afb9
00000340: e7e3 b639 8102 a139 894d 35aa 30ac 8db0
00000350: fadc 2931 1703 5f31 c730 6b30 29bc e03a
00000360: 1059 6e3c 3408 deba c18f ddbb 34a0 c039
00000370: e0e4 91b7 681a 35bb f2a4 9eb9 fe32 68b9
00000380: d5ef 6b39 4b11 80b9 2e42 a4bb 9a45 f938
00000390: 776c 4b3a 889d 5739 3e83 d5b8 092d f1ba
000003a0: 351f 3638 abb3 1d38 34d3 3f38 be51 27b8
000003b0: 4130 43bb e243 a7b9 2b51 9cba ce40 b438
000003c0: 8052 73b4 b1b8 a7b9 8d13 99b9 470d 2639
000003d0: 872d 9039 b238 e5b8 0d30 1fbb 4373 1239
000003e0: 7d9e 4e39 673d 2339 663e 02a3 03e5 9636
000003f0: a244 0637 2451 47b7 a44c c036 fb79 c1b6
-0.00010049822 -0.0032926835 -6.230451e-05 5.461466e-06 0.00033521745 -0.001265235 0.0003602604 0.0035048737
0.0027183446 -0.00088705 -5.751288e-05 -0.0019831127 0.00014606105 0.0012898378 0.0003499919 -0.0003868186
-0.008129579 -0.0006160606 0.0003152321 0.00033145698 0.00011066805 0.0017538972 -0.0002479973 -0.0010082357
0.0001999157 -0.00034858973 -0.0065398137 -0.00033136015 0.0013190315 0.00026729977 -0.00049606425 -0.008848408
-0.00014091187 0.003386789 0.00021143089 2.590703e-07 2.0437214e-05 4.571285e-06 -1.9646532e-05 -1.3790514e-06
-0.00045250473 -0.0050878953 0.00044727707 0.0015150378 0.00011387167 9.841026e-10 -5.8068254e-06 7.3298843e-06
1.5096309e-05 2.4620222e-06 0.00043543454 0.0014177202 -0.0008921978 -0.000660919 0.0002670153 -0.0016799484
-0.0064350003 0.0037411838 0.0063432683 -0.0004733298 0.00013494564 0.004866806 0.0006961445 -0.0008764558
-7.389307e-05 -0.00021849711 -0.0025818297 0.0005688961 0.000175387 -0.00011926517 2.800864e-09 9.646964e-05
7.585731e-06 4.942465e-05 -0.00014809857 8.287333e-05 0.0044702957 0.00080381526 -0.0003270923 -9.307639e-05
-0.00053740613 -0.0021411106 0.0013911914 0.0005550739 -9.595715e-05 -9.4895185e-15 -1.9571561e-11 7.2134784e-11
8.680985e-11 2.0146088e-11 -0.00042054095 -0.007979605 0.00015271315 0.001678612 0.00018355499 4.8096274e-07
0.00021365086 0.00015111046 -6.4191285e-05 -0.00035844845 0.0029699719 0.019593656 -0.0053197285 -0.013032742
0.00107424 0.00090401794 0.01849976 0.0008647502 -0.005445817 -0.0009937064 -0.00022439039 -0.0007491033
0.00061980524 -4.7101345e-05 -9.041403e-05 -4.5753626e-05 0.0008550666 -0.00017926029 0.0013082856 5.997857e-05
-0.001063938 -0.010730763 0.0012389163 0.006067859 -0.00036127798 -1.3258903e-06 -1.2294302e-05 3.6674342e-06
1.46056345e-05 -3.4749937e-06 4.3074213e-08 4.7960966e-05 1.00859015e-05 -3.735761e-05 -6.0428134e-05 -1.2832628e-07
-0.00024614896 -0.00024727997 0.00016977181 0.00017832313 -1.3087537e-06 -1.8372433e-06 6.0072543e-06 -5.445377e-05
-5.1039176e-05 -5.8389547e-15 5.7553058e-05 9.461409e-05 -0.0001399455 7.524577e-05 -2.497872e-14 5.161172e-05
8.348373e-05 -0.00012140255 6.490052e-05 -2.8717839e-05 0.0011508935 -8.875939e-05 0.0018007585 -6.117317e-05
-0.00029930176 0.010384726 0.0019188969 -0.00054267974 -0.0010039113 -0.0004210466 -0.007798891 0.000105423656
0.001708367 0.00018817106 -1.102613e-08 7.044352e-07 1.7492775e-06 -2.9810355e-06 1.3999082e-06 1.2363943e-14
7.873575e-07 1.6024821e-06 -2.2710128e-06 1.1094032e-06 0.0018569656 0.012142666 -0.0033580135 -0.008197687
0.00070752273 -5.7742504e-06 -0.00036069594 1.3965785e-05 0.00041464972 -0.00013296523 -4.3810608e-18 4.9838603e-05
0.0002565081 -0.00035223906 0.00023432756 -0.00032698672 -0.007239201 -0.00026129864 0.0022767019 0.00025085922
-1.1088536e-11 -1.0367517e-09 2.2485869e-09 2.495342e-09 6.4790295e-10 -0.0003219699 -0.0059113908 -0.00033542322
0.00034883546 0.00030710179 -1.610293e-13 -1.0308039e-09 2.4718347e-09 3.2452527e-09 8.556182e-10 0.001714592
0.014547601 -0.00169397 -0.0067615216 0.00036740454 -1.7391925e-05 -0.0027634148 -0.00030259002 -0.0002214424
0.00022500691 -0.00024426947 -0.005012772 0.000118862095 0.0007759998 0.00020562683 -0.00010181077 -0.0018400262
4.3421245e-05 3.7599046e-05 4.5734647e-05 -3.989203e-05 -0.00297834 -0.000319033 -0.0011926045 8.59514e-05
-2.2661152e-07 -0.00031990328 -0.00029197 0.0001583594 0.0002749974 -0.00010930131 -0.0024290115 0.00013966583
0.00019704732 0.00015567766 -7.0605275e-18 4.497009e-06 8.003002e-06 -1.1880216e-05 5.730968e-06 -5.7660486e-06
