second_stage/final_model.pth (torch, 524375 bytes, 30 tensors)

feature_extractor.0.weight f4 [128, 5]
00000000: e414 423e fc0e bfbe df4c 2e40 04db 463f
00000010: 1bc4 ca3e 034b a63d ba86 853e 7962 0340
00000020: bdcd 2e3e d186 d9be 9519 5abd b724 a33e
00000030: 3753 a53f f2a2 e03d 9830 593e 5ebe a03e
00000040: 92af d63e 9289 89bf 0dd6 363e 76c9 3fbd
00000050: eb54 a33e 0a4f 873e 4cee b63f 3619 f43c
00000060: 2f9f 42be 1c97 9fbe f657 52bd 9611 04c0
00000070: c3e1 8b3e 34f8 88bd 099c 213e 73b9 b63e
00000080: 8540 05c0 defc acbe a089 6e3d d17e 3fbe
00000090: 099b 8bbe 954f e93f a380 e33d 9239 873e
000000a0: 424b 1a3b 9a0d 14bf af14 c03f de54 783f
000000b0: 19fb ab3d 0638 1cbe 1ceb de3d 133e 1440
000000c0: 5f4b 0c3e f21e e13e ac1a 013d 5d84 89be
000000d0: 3fa0 1340 f282 803f 94e8 4c3d af61 dc3e
000000e0: c8af ad3e 2eaf 0840 2626 183f 7e69 cf3e
000000f0: 6307 b93e 97a4 3dbe 593d 473f 2833 143e
00000100: 91f7 203f 61e7 cb3d 2bfa 29bd 175d 14bf
00000110: 8843 3ebe b49e 94be 54ca ccbc 3075 bebe
00000120: 8ed4 d2bf b867 2abe 4bc9 96be 5d7b 183e
00000130: 7089 9dbe 8052 e33f 507e a63b 557f f83d
00000140: 9b0d a3ba f0dc 023f c4e1 edbf 1b97 23bf
00000150: 9d18 f3bd d8ed 35bc 69bf 6fbf 083c 75bf
00000160: 9d7e a63d 1d2b 523e 396a 063e 5de8 cc3e
00000170: bd69 03c0 5423 3bbf bed6 a7be a8f8 7bbc
00000180: 466a 1d3f ebc6 dfbf 1030 a8be 1abb acbd
00000190: 264e a9bc 46d1 cd3e 30fb d1bf 00a2 2ebe
000001a0: 4523 f13d 5221 6a3d 82ee e23e c252 11c0
000001b0: 111a b1bc 928b 55bd 931b 09be 35e9 e3bb
000001c0: 684e 0c40 e8e4 153f ab24 0a3e 8eab 69bd
000001d0: f17f 2e3f 9635 5b3f 9696 a1be 1993 21be
000001e0: 7dfe 9abd 0ecd c63e 3646 f1bf 7f95 78be
000001f0: ca1f dcbc da16 84bd 410b ca3d 075a f2bf
00000200: 7c06 7dbf 8ffd 433d 5ee4 1cba a183 a43e
00000210: e5b3 013f c3b0 7e3f 2a27 e93e b03e 9a3d
00000220: 64f9 8abe b9ef 6abf f34f 0abf 5867 903d
00000230: c97f 6e3c 7257 083f 4f54 b7bf df7e f6be
00000240: 917b 9cbe 2364 113d 6337 bf3d c256 10c0
00000250: 8089 113f af74 ecbd c1e9 203c 5ffe 7a3e
00000260: eff4 b83f dd9e 4abf dbaf bdbe 7da3 16be
00000270: 584c babe 8c2b a43f 6421 fb3e 1f74 b3be
00000280: 3d59 e0bd 0dcf cf3d 0186 263f 00b3 5dbd
00000290: 9a85 3cbf e6db 48bd 49a1 573d 7dd4 dfbf
000002a0: 097e a13e 58c5 febc 9a9c 553e 1817 37bf
000002b0: 1f0e fdbe a12f e53e 2f9e 21bc 237a 8f3d
000002c0: a219 f23e 5e00 d23f 145b 403e 89a3 533e
000002d0: 2391 fd3e 8601 063e c7a3 b1bf 9a6a 28bd
000002e0: dcbe febd b51e c9bd 292a ac3d e45d 2a40
000002f0: 62a7 3d3f 32a2 1c3e cd36 8b3d 8a96 15bd
00000300: f031 2ec0 c6b7 303b 536a ecbc c54b 0a3e
00000310: 052b 663e cc96 dd3e 739a fcbe 2516 34be
00000320: 77fe 97bc 6e6a a83d 3438 cebf 5c35 bcbe
00000330: f5cd 93be 72f7 b3bd 7faf 8b3c 8ad0 69bf
00000340: 7c88 cc3d abe9 35bf 03ac 75be ea73 aabe
00000350: 5ee2 bfbf 4c78 fa3d a091 bbbd cd3d 54be
00000360: 6892 7cbe b988 a73f c28e 46be f2c2 5fbf
00000370: f408 323e b613 693e e86d 0d40 ff7b 723e
00000380: c7b8 d2bd ae41 8e3e 6e1b 86be c643 753f
00000390: 7da8 6f3d 762a 073f 53fd 9b3d 0c2f efbd
000003a0: 6d39 493f 4db2 053e 5150 aabe 7ae7 b1be
000003b0: 659c 78bf 920c 0240 acf7 643f 2c98 e83e
000003c0: 7b86 49bd d1df 0ebe 49c0 0640 6fcd 413f
000003d0: 9ac8 97be 7d22 11be 86a3 6c3e 428e bfbf
000003e0: ef93 08bf bdde e1bb c8e7 813d 2d5f b63e
000003f0: d1ce 833f bcbf b23e c443 33bf 3a6d 253e
0.18953282 -0.3731612 2.7234418 0.7767794 0.39602742 0.08119776 0.2607935 2.0528853
0.1707067 -0.4248567 -0.053247053 0.3186395 1.291602 0.10968579 0.21209943 0.3139524
0.41930825 -1.0745108 0.17855091 -0.046822987 0.31900725 0.2642749 1.4291472 0.029797178
-0.19006036 -0.31169975 -0.051353417 -2.0635734 0.2732068 -0.06687966 0.15782179 0.35688362
-2.082063 -0.33786672 0.05823672 -0.1870072 -0.2726672 1.8227412 0.1110852 0.2641111
0.0023543392 -0.57833254 1.5006312 0.970045 0.083975025 -0.15255746 0.10884687 2.3162887
0.13700627 0.43968922 0.031519577 -0.26858798 2.3066556 1.0039961 0.05002649 0.43043277
0.33923173 2.1356921 0.5943321 0.40510172 0.36138448 -0.18519817 0.77827984 0.1447264
0.62877756 0.099562414 -0.041498344 -0.57954544 -0.18580449 -0.2902733 -0.024998821 -0.37198782
-1.6471117 -0.16641128 -0.2945045 0.1489081 -0.3076892 1.7759552 0.0050809756 0.12133662
-0.0012439968 0.51118374 -1.8584523 -0.63902444 -0.11869929 -0.01110407 -0.93651444 -0.95794725
0.08129618 0.20524259 0.13126458 0.4002103 -2.0533288 -0.7310078 -0.32781023 -0.0153791085
0.61490285 -1.748258 -0.3284917 -0.08434124 -0.020667147 0.40198725 -1.6404781 -0.17053986
0.11774305 0.057160683 0.44322592 -2.2706761 -0.021618875 -0.052135058 -0.13389425 -0.0069552907
2.1922855 0.5855241 0.1349055 -0.057048373 0.68163973 0.8562864 -0.315602 -0.1577877
-0.07568071 0.3882832 -1.8849552 -0.24275778 -0.026870627 -0.06449671 0.09865428 -1.8933724
-0.9883802 0.047849234 -0.0005984957 0.32131675 0.5066512 0.99488467 0.45537692 0.07531488
-0.27143395 -0.9177204 -0.5402824 0.07050961 0.014556834 0.5325843 -1.4322604 -0.4814367
-0.30563024 0.03549589 0.09336736 -2.2552953 0.56850433 -0.11545693 0.009821356 0.24511097
1.4449748 -0.79148656 -0.3704823 -0.14710803 -0.3638637 1.282579 0.49048913 -0.3504953
-0.10954521 0.10146914 0.65048224 -0.054125786 -0.7364136 -0.049037836 0.052644048 -1.7486721
0.3154147 -0.03109996 0.2086052 -0.71519613 -0.49424836 0.447629 -0.009864374 0.070057176
0.4728518 1.6406362 0.18784744 0.20667852 0.49524793 0.13086519 -1.3878106 -0.04111729
-0.12438747 -0.0982031 0.08406479 2.6619806 0.7408353 0.15296248 0.06797562 -0.03652052
-2.721798 0.0026965006 -0.028859293 0.13505466 0.22477348 0.4327911 -0.49336585 -0.17586572
-0.018553955 0.08223425 -1.6110902 -0.3675946 -0.2886807 -0.08787431 0.017051456 -0.9133383
0.0998697 -0.71059674 -0.23991399 -0.3329156 -1.4990957 0.12229976 -0.09158635 -0.207267
-0.24665225 1.30886 -0.19390395 -0.8740684 0.17386228 0.22761425 2.2098331 0.23680113
-0.1028915 0.27784485 -0.26192802 0.9580654 0.058510292 0.52799165 0.07616677 -0.11678895
0.7860325 0.13056298 -0.33264402 -0.34746915 -0.9711364 2.0320172 0.8944042 0.45428598
-0.049200516 -0.13952567 2.1054862 0.7570409 -0.29645234 -0.14173312 0.23109254 -1.4965289
-0.5335073 -0.0068930076 0.06343037 0.35619488 1.029749 0.34911907 -0.7002528 0.16154948

feature_extractor.0.bias f4 [128]
00000000: 192b 103f 18fa 1f3f 7ba4 6abe 287d 563f
00000010: 22c9 6d3f 80bf c53f 9f79 213f 49d1 cdbe
00000020: 7a11 0ebf ebe2 313f 21b3 9f3e 5b92 0cbf
00000030: a83c 77bf 18af b83f 5c9f 7f3f 226a 673f
00000040: 592e ef3c 3094 d1be ea8c 82be 6f9a 19bf
00000050: a814 c43b a215 a83f 8c12 41bf 8f69 523f
00000060: ad33 9fbe 352c 333e e7f6 2c3f 0b42 b83f
00000070: 4cf4 1bbf a13d b13f e720 a7bd 039b 09bf
00000080: a32f 283e 5581 863f fef9 803f 55ce a33f
00000090: a862 86bf 95a2 65be fe68 a3bf 14ad 3ebe
000000a0: d11a 923e eb16 4ebf ca05 64bf 570c a93f
000000b0: 2115 69bf b45c 05bf 54f5 8dbf 3e4c 1abf
000000c0: 623c 3fbe 792a 96be 8f99 57bf a8fa 703e
000000d0: 9cbb 653f 446e fd3e 26b9 583f 15bd 32bf
000000e0: ebe2 5cbf 3c55 733f 6f81 103f 0bcf 9bbf
000000f0: e4be a53e 2eee d5be c98d 74bf 9ccc c2bd
00000100: 4d32 c1bc 1e17 19bf 446b 51bf 2552 813f
00000110: 8d3e e4be 590e b93f 7c04 51bf 41c1 b83f
00000120: b25b 85bf cd52 08bf 09d7 11bf 1e82 f63e
00000130: 2680 17be c3ab 783f 4908 5ebe 5582 833e
00000140: 7330 b23f 6aa4 b73e fc88 b33d 1d6b 65bf
00000150: 5999 87bf 594c 74bf 73aa 563f 4b2a 3dbf
00000160: da05 dcbe 3035 57bf e566 4a3f af03 8cbd
00000170: 9be2 85be 34fb 213f b9c2 a13f 8725 933f
00000180: 8ed7 9abf bfea 7b3f 3934 b0bf eaf8 5dbf
00000190: abf2 93bf a9e4 0e3f 2550 26be e037 4fbf
000001a0: 3764 44be 1fdb ba3e 6a20 14bf eb95 46bf
000001b0: d5f5 d1be 712a 363e f1f0 803f 9b73 cf3e
000001c0: 3cab cabe bda4 4e3f f9f1 3bbf f7db 40bf
000001d0: 0e75 2e3f 9103 80be b72c b2be 211f e7be
000001e0: 7b01 8b3f 6562 9c3c 66c8 5fbf 0ced 6bbf
000001f0: 5e0f 833f 2f99 e63e 2822 3cbe 695a d5be
0.5631576 0.6249099 -0.22914307 0.83784723 0.9288503 1.5449066 0.63076204 -0.40198734
-0.5549542 0.69486874 0.31191352 -0.5491082 -0.9657693 1.4428434 0.9985254 0.9039632
0.029196905 -0.4093337 -0.25498134 -0.6000127 0.0059839077 1.3131602 -0.75418925 0.8219232
-0.31094113 0.17497332 0.67564243 1.4395155 -0.6091964 1.3846933 -0.081605725 -0.53752154
0.16424422 1.0508219 1.0076292 1.2797343 -1.0498857 -0.22425301 -1.2766416 -0.18620712
0.28536084 -0.8050372 -0.89071333 1.3206891 -0.91047865 -0.5209458 -1.1090493 -0.60272586
-0.18675378 -0.2932928 -0.84218687 0.23533118 0.89739394 0.49498188 0.84657514 -0.69819766
-0.8628375 0.9505193 0.564475 -1.217256 0.323722 -0.4178328 -0.95528847 -0.095116824
-0.023583556 -0.598009 -0.818043 1.0103194 -0.44578972 1.4457504 -0.8164747 1.4433976
-1.0418608 -0.53251344 -0.5696874 0.48146147 -0.14794978 0.9713709 -0.21682848 0.25685373
1.3921036 0.35867625 0.08766362 -0.89616567 -1.0593673 -0.95429 0.83853835 -0.7389266
-0.42973214 -0.8406553 0.79063255 -0.0683664 -0.2614945 0.6327393 1.263755 1.1495827
-1.2097032 0.9840507 -1.3765937 -0.8670794 -1.1558431 0.5581766 -0.1624151 -0.80944633
-0.19178854 0.364953 -0.5786196 -0.77572507 -0.41007867 0.17789628 1.007353 0.40517887
-0.39583766 0.8072012 -0.73416096 -0.7533564 0.6814736 -0.2500272 -0.3479974 -0.45140937
1.0859827 0.019089887 -0.8741516 -0.9215858 1.0239065 0.45038745 -0.18372405 -0.4167054

feature_extractor.2.weight f4 [64, 128]
00000000: 6706 9a3e 858d 72be 989f 57be 8238 bcbc
00000010: 067f e8be 61d2 853e 8578 62bd 3ab5 313d
00000020: 78aa 2ebc 2c32 57bd 73f2 f9bd 2d3c a5bd
00000030: 278f 03bf 3988 273e e4bc 0c3e cedf 4ebe
00000040: 6dd0 c43d c703 d7be 0b49 ddbe 4c9d 333c
00000050: 8321 f5bd 4a4d 823e 9311 61bf 0df0 ac3e
00000060: 1850 a73e e7de 24be 66c6 74bd 82a4 693e
00000070: 7040 e0bd 7b03 3a3e 64a7 d03e 4e99 2e3b
00000080: 5483 f5be 1e57 efbd c6ca 1fbe d660 17be
00000090: 006c 0ebf e1d6 423e 4a26 8bbe 2fed 383e
000000a0: 71a2 9bbc 10ea 96be 4d85 81be 13a2 e2be
000000b0: c0bf ffbe 8acb 18be d5bd 0dbf a13f 98be
000000c0: 8781 07be bf1b 173e d50e 9abe 4291 95bd
000000d0: b4c6 543d c060 eb3d 4abe 09be 5b9d 28be
000000e0: 4d78 d6be 52f2 09be 350c 213e a4f1 71bf
000000f0: fcb6 acbc 6ab4 ffbe 2c1a bbbe cfbe 4abe
00000100: c747 c33c 815f 30bd 21b9 8abf 3c12 b8bc
00000110: 252b c7be 8114 b1bd 5dff 34be 85c5 2fbd
00000120: 0e68 9dbe fc29 86bd ae95 8abe 3c69 50be
00000130: eb42 79be a7e1 a6bb 2c2b acbc 835f 7abe
00000140: cfbe fa3d e035 503c 2350 46be c774 2f3e
00000150: 0ce0 01bf 4dee f8be bc5e 0cbf 7cd2 c6be
00000160: 28d4 a7be 58cc 35bf 9c4a be3d 08c2 98bc
00000170: 5d45 25be 0f45 fa3d 276f ccbd 5a75 d4bd
00000180: 1e11 f8be 8f4d 7fbe 87f5 82bc c0b1 32bf
00000190: b4a4 2ebf bdbb 593e f56c 43be 66cd 19bf
000001a0: f580 853e 8fcb 96bd 97e5 8ebd 9db3 95bc
000001b0: 7ea5 e8bb ffaa a1be cbfc 5a3c d34a 96be
000001c0: ed5a c3be 8ba7 343e 50a4 1bbe aca4 a3be
000001d0: 451b 79be aa3a 8d3d 7d4f 19be 1ce3 54be
000001e0: cb39 a0be dbe6 efbe 358c a63e 85cd b8be
000001f0: 95f1 f63e fa9f d3bd 9996 b5be 9717 3dbe
00000200: b0d4 153e 61a6 abbd 177d 9a3e 8b51 99be
00000210: 7253 3fbe 9d09 9a3d 5a48 e9bd 723a 833c
00000220: e8cb ae3e 280c d8bc 3d16 873d b0b2 68be
00000230: 2431 e83c 5e7d 8f3e a824 cfbd 6c1e 73bb
00000240: 4eb0 14bd 06be 313d c1ff f93d a7b2 49be
00000250: 7a8f f7bc 2a4d 2f3e 5af2 81be 72c3 f73e
00000260: aa11 15be 24f8 90bd bbd9 853d 2637 233e
00000270: 39d7 51be accf 5f3e 099a 653e d626 94be
00000280: b31c 20bd c938 483e fde9 dabd 70df b73d
00000290: 5f4b f8be fe99 983d 0513 b1bd 3d16 fe3b
000002a0: e46d 093e 8cf9 b8bc 2d06 8cbe 791e 923e
000002b0: 14cd 7fbe 737e 723e 77b9 ffbe 6634 debe
000002c0: 4bbb c23d 2c4a e8bd 7130 2bbe 197b a43e
000002d0: f8ae 9abc d98d 2d3d 9960 f33d f546 fabd
000002e0: ab15 70bd 7c26 793e 625d 303e c9a7 90be
000002f0: 2659 cebd 0ed7 9abd a9be b23d fb9f 16be
00000300: 0e96 023f ac15 91be deea d33d 659b e5bc
00000310: c9bb e2be 1e5b 263e 226d 90be 6b6c f23d
00000320: da88 2d3a abdb 41be 17df 36be fc32 843e
00000330: 7af5 ad3d 89d9 8a3e d880 8a3d 2b6f fa3d
00000340: 2888 293d 9df2 0c3c f387 3ebc a1c6 6abd
00000350: a776 0cbf dde9 e73d b4d5 823e 14e3 8cbe
00000360: 3e56 91be e727 cbbe 81e2 f8ba 3813 233d
00000370: 1a44 f8be ce5c 533e 53d2 bc3e ddb9 8f3d
00000380: 28ef fdbe 5114 8d3e 3a2a a3be 54b0 4dbe
00000390: 9954 b1be ccae e7bb 1ba9 463e 5cfd ad3e
000003a0: d74a 33be 8ba4 fd3d 54c6 733d d879 ebbd
000003b0: 5819 8ebd f710 85bd 2dcd b4bd e72a 113e
000003c0: 3f10 483e 37f1 cd3c 0233 dfbd 2111 44be
000003d0: 0af6 953d 1b3a 3bbe 23ba a9bc e601 ca3e
000003e0: 0dc4 193e 2745 5e3c d6b3 ee3d 4d94 38be
000003f0: dc4e 753e 981e 8dbe 9b63 b7bc ea43 223d
0.3008301 -0.23686798 -0.21056974 -0.022976164 -0.4540941 0.2613707 -0.055290718 0.04338572
-0.01066076 -0.052538082 -0.12204447 -0.08068118 -0.5139031 0.16360559 0.13743931 -0.20202562
0.096100666 -0.4199507 -0.4321979 0.0109627955 -0.119692825 0.25449592 -0.8791744 0.33776894
0.32678294 -0.16100655 -0.05975952 0.22816661 -0.109497905 0.1816539 0.4075271 0.002664167
-0.47951758 -0.11686538 -0.15604696 -0.14783034 -0.55633545 0.19027282 -0.2717765 0.18059228
-0.018998357 -0.2947545 -0.25297013 -0.44264278 -0.4995098 -0.14921394 -0.55367786 -0.29736045
-0.13233005 0.14756678 -0.3008944 -0.07303096 0.05194731 0.11493063 -0.13451496 -0.16466276
-0.41888657 -0.13471344 0.15727313 -0.9450934 -0.021083347 -0.49942333 -0.36543405 -0.1979935
0.023837937 -0.04305983 -1.0837747 -0.022469632 -0.38900104 -0.08646489 -0.17675538 -0.04291298
-0.3074345 -0.06550977 -0.27067322 -0.20352644 -0.24341933 -0.005092818 -0.02101668 -0.24450497
0.12243425 0.012708157 -0.19366507 0.17134391 -0.50732493 -0.4861931 -0.54832053 -0.38832462
-0.3277905 -0.7101493 0.09291574 -0.018647209 -0.16139741 0.12220203 -0.09982138 -0.103739455
-0.4845056 -0.2493193 -0.015986217 -0.69802475 -0.6822007 0.21263023 -0.19084533 -0.6007904
0.2607495 -0.073630445 -0.069773845 -0.018274123 -0.0070998063 -0.31575772 0.013365935 -0.2935396
-0.38155308 0.17642038 -0.15199399 -0.31961572 -0.24326809 0.06895955 -0.14971729 -0.2078976
-0.31294093 -0.46855816 0.32528844 -0.360943 0.48231187 -0.103332475 -0.3546646 -0.1846603
0.14631915 -0.08381344 0.3017356 -0.29945025 -0.18684176 0.07521365 -0.11390753 0.01601908
0.34139943 -0.026372984 0.065960385 -0.22724414 0.028343745 0.28025335 -0.101144135 -0.003709699
-0.03630095 0.04339411 0.12206984 -0.19697057 -0.030219782 0.1711928 -0.25380212 0.483913
-0.1455752 -0.07078579 0.065356694 0.15939006 -0.20492257 0.21856564 0.22422041 -0.2893588
-0.03908987 0.19552912 -0.10689161 0.08978164 -0.48495004 0.07451247 -0.08646206 0.007754116
0.13420826 -0.02257993 -0.27348462 0.28538874 -0.24980575 0.23681049 -0.49946186 -0.43399352
0.095083795 -0.11342272 -0.16717698 0.32125166 -0.01888226 0.042371605 0.11883659 -0.12220565
-0.058614414 0.24331087 0.17223123 -0.2825301 -0.100755975 -0.0756055 0.08727772 -0.14709465
0.51010215 -0.28336847 0.10347532 -0.0280282 -0.44283894 0.16245696 -0.28208262 0.11837085
0.0006619819 -0.18931453 -0.1785854 0.25820148 0.084940866 0.2711909 0.06762856 0.12228235
0.041389614 0.008602765 -0.0116290925 -0.057318334 -0.5486855 0.11323903 0.25553668 -0.27516997
-0.2838611 -0.3967888 -0.0018988402 0.03981325 -0.48489457 0.20640871 0.36879215 0.070178725
-0.49596524 0.27554563 -0.31868154 -0.20086795 -0.34634855 -0.007070398 0.19400446 0.3398236
-0.17509018 0.123849 0.059515312 -0.11497849 -0.06938428 -0.064973764 -0.08828197 0.14176522
0.19537447 0.025139434 -0.10898401 -0.19147159 0.07322319 -0.18283884 -0.02071864 0.39454573
0.15016194 0.013566292 0.11655395 -0.18025322 0.23955864 -0.27562404 -0.022386363 0.03961555

feature_extractor.2.bias f4 [64]
00000000: cf7a 283e 5c4c d73e 2b52 3abe fee7 e9bb
00000010: 7410 853e 7138 343e 509f 053f 3c4c d73b
00000020: 1c6c 52bf 007b 213d 2bc0 c9be cb5b cfbe
00000030: 0633 833d 5b19 e23e 29ee ebbe d89e 383e
00000040: 3663 bc3e 29cd 82bd 7416 223f d836 f2be
00000050: 2200 5dbe e52f 3e3d 80f7 0d3e e8ca bcbc
00000060: bee3 04bf b218 a7bd ccaa 95be 0a13 80be
00000070: d14b 433f becd 9bbd ec4b 1b3f d848 903e
00000080: 7c86 9f3e 0db6 843d 5b7a 76be e970 c2be
00000090: e494 0fbe 21b9 263e d91f da3e 94bf e5be
000000a0: 3183 d6be cff7 343c 5fbd 8b3e e931 a1be
000000b0: e2d1 363e 50f1 493e 9c64 893e d80c 013f
000000c0: b4d9 473e 1951 ab3d 1060 ed3e a40b 1d3e
000000d0: f271 833e edfa 183c 52db 103e 59d7 5cbe
000000e0: 8447 bd3d 7ffb 40bf 8b5e 33bf 5c49 893e
000000f0: fa98 acbd 8a86 c63e e21f 2dbe ac93 343f
0.16453098 0.42050445 -0.18195407 -0.0071382513 0.25989115 0.17599656 0.52196217 0.006570367
-0.8219621 0.039423943 -0.39404425 -0.4049972 0.06406216 0.4415997 -0.4608014 0.18029344
0.36794442 -0.063867874 0.6331551 -0.47307467 -0.21582082 0.046432395 0.13863945 -0.023045972
-0.51910007 -0.08159007 -0.2923187 -0.25014526 0.7628756 -0.076076016 0.6066272 0.28180575
0.3115729 0.06480036 -0.24070112 -0.3797677 -0.14021641 0.16281559 0.42602423 -0.44872725
-0.41896966 0.01104541 0.27292916 -0.3148339 0.17853501 0.1972096 0.2683457 0.50410223
0.19516641 0.083650775 0.46362352 0.15336472 0.2567287 0.009337169 0.14146164 -0.21566524
0.09242156 -0.7538375 -0.70066136 0.2681378 -0.084276155 0.3877452 -0.16906694 0.7053783

lstm.weight_ih_l0 f4 [256, 64]
00000000: 1a78 0f3f 6e4c 1cbf e2f8 1440 c921 f43e
00000010: ed4b c83e 9b43 06be c4d0 01bf d962 953f
00000020: 74af 0fbf 9b89 953f 3903 8abe 7bae 903e
00000030: 1fbe bfbe 72a6 9bbe 4bef b9bd cd94 743e
00000040: e718 ffbd a9ae 083e 4e38 8a3e 2335 573f
00000050: 820e 2cbe fc0a 8bbe 73cf ebbd 2a4c 0d3f
00000060: 3116 ddbe cf38 d0be 9f87 d03e 165e 1cbe
00000070: 340e 423e 13c6 2d3f 5fa6 e83e 6e0c fe3e
00000080: 18f1 8c3e effb fb3d dbd1 40bf 82aa 2cbf
00000090: b793 c63e c4ff 2bbd 04a2 323f e116 9a3d
000000a0: f384 c33d 7c28 bd3e 6137 f7bd b012 cd3f
000000b0: 3765 7abe 4730 be3f 49a1 00bf 19de a2bd
000000c0: b656 18be e645 0c3c 7ffa 2d3e f586 963e
000000d0: 8709 64bd 87a1 023f 20d3 4b3d 74ed 903e
000000e0: 2964 803f 5752 f63e 880b 18bf 5b3d b43e
000000f0: 6ddc 253f 2640 db3e c9c4 403e e384 833f
00000100: 2bbc c5bd 1b23 21bd cb3f 173f d05c b3be
00000110: 5865 b63e f267 b4be f8d2 47bd 8d47 803f
00000120: b8bc 46bf 9533 33be 36ce be3f 040a dc3e
00000130: c183 ec3e 1b82 03be 2f01 823f 8fdd c23d
00000140: 5c24 06be 258f 5e3d ed53 c83e 5874 523e
00000150: 859c da3d 935f 34be a659 a83d 2933 2d3f
00000160: 8e4b 423e 8161 5b3f 763d c03d ef7e 65bf
00000170: 3805 c0bd cc96 d8bb e7f9 353e dab0 8dbe
00000180: 7eb8 9c3d be33 96be 0e5d 5abd 0744 7b3e
00000190: b835 583c 4a6f 4e3e fef3 91bd beee 1ec0
000001a0: 4929 cb3f b616 f8be e926 7a3e 2468 583e
000001b0: 41f7 783e c40b f6bd 2b82 45bf ddcf 273d
000001c0: ba12 77be 58da 8fbe babb efbe e393 933d
000001d0: f257 dc3d 7cf8 94bd 0655 01bf 3db4 b13e
000001e0: 97f9 c7be ec9f d7be 1685 073f 9855 a7be
000001f0: f260 cc3c 64cb e93e 0700 973b e182 bcbe
00000200: 1431 8dbd d270 303f 7347 8abf db41 ac3f
00000210: be90 da3f a05c 6a3f 6d26 a63f 48c7 a0be
00000220: d022 893e e382 41be 6a97 b93f d457 813b
00000230: 3c2d 00bd 9a4a 2ebe 0d37 f83f be37 5f3f
00000240: 8a1c ddbe 8672 8dbf 175a 4abf 3278 d8be
00000250: 356c b4be 3886 ca3f ea2d 5d3f 0c93 303f
00000260: f36e 7fbf 3ed1 00be 3f2a 663f be80 433f
00000270: 8ce6 a1bd 1ecf b6bf 51a7 353f ff56 f9be
00000280: d09b 883f 6506 f53d 8a9d 193e 8937 5f3f
00000290: 6d2e 973e 085d ab3c 46ef a7be 5969 543f
000002a0: a033 f83e 7343 1cbf 2b3a 353f 1ba1 45bf
000002b0: 25df e03e 6244 b1be ba43 d43c d07f 4cbf
000002c0: 913b 873e bf60 b33e 6437 55bf 4a05 4dbe
000002d0: 1b9e 193e 78b6 0e3d 83ce 053e 81b6 b53f
000002e0: 81f7 763f 27b7 74bf 2d61 e4bd ce2f 0f3f
000002f0: 1901 d43d b3f9 523d 8520 3e3f 5ef6 5a3f
00000300: 79fd 423f 0c05 91be 5f62 e23e 3eec 49be
00000310: 103d ab3d f4c0 9a3e 57c0 9a3e 854d f83e
00000320: bf87 33be 2eb3 123f b4b2 163f e9b2 9fbd
00000330: a825 7cba 299f 01be d709 e03e ab39 01bf
00000340: 0eda 673e 7c5a b3be 8755 8e3e c4ad a13f
00000350: 8ba5 ab3e 6e55 5dbc 3b03 b5be de67 9f3e
00000360: c08a 923e 7f6b 923f 19df d33e 866a 5c3f
00000370: 2b16 b13e 9b6d 85bc 5b22 95bd b0e5 00bf
00000380: c8d4 6e3d 8290 493f 7b11 1c3f b592 ac3d
00000390: adb1 763f 0edf 8f3e 4a3b 73be 7b24 333d
000003a0: 1be0 983d 087e 01bf 428a e93e 083c d8bf
000003b0: 58fe 953e 5908 74be 5733 29be e06f 83be
000003c0: a079 d23e d677 533e 84fe b3be 8077 663e
000003d0: dbc9 e53f cb0a a13e ff36 a53e 10ba 04be
000003e0: 368c 933c 39c3 863d 1fbe f23d 99dc 11bf
000003f0: ae03 a93d 9c60 793e 5f9c acbe 31bf d7be
0.56042635 -0.6105412 2.3276906 0.47682026 0.39120427 -0.13111727 -0.50709176 1.1670791
-0.56127095 1.1682619 -0.26955584 0.28258118 -0.37449738 -0.30400425 -0.09078845 0.23884888
-0.124559216 0.13347878 0.26996082 0.84065455 -0.1680241 -0.27156818 -0.11514177 0.5519434
-0.43180993 -0.40668342 0.4072847 -0.15270266 0.1895073 0.6788036 0.4543943 0.49618858
0.2752769 0.12303912 -0.75320214 -0.67447674 0.38784572 -0.041991964 0.69778466 0.07523895
0.095468424 0.3694495 -0.120711096 1.6021328 -0.24452673 1.4858483 -0.502461 -0.07952518
-0.14876828 0.008561587 0.16990088 0.2939984 -0.05567315 0.5102772 0.04976189 0.28306162
1.0030566 0.48109695 -0.59392595 0.3520306 0.6478947 0.4282238 0.18825068 1.0274929
-0.09655031 -0.03934012 0.59081715 -0.35031748 0.35624194 -0.35235554 -0.04878518 1.0021836
-0.7763171 -0.17500146 1.490668 0.4297639 0.4619427 -0.128426 1.0156611 0.09514915
-0.13099808 0.054335732 0.3912653 0.20552194 0.10674385 -0.17614584 0.08220224 0.6765619
0.18974134 0.85695654 0.09386723 -0.8964681 -0.093759954 -0.0066097733 0.17771111 -0.2767399
0.076523766 -0.2933635 -0.0533114 0.24537669 0.013196401 0.20159641 -0.07126616 -2.4833217
1.5871974 -0.48454827 0.24428906 0.21133476 0.2431307 -0.12013963 -0.77151746 0.04096972
-0.24128237 -0.2809627 -0.46822912 0.072059415 0.10758962 -0.07273957 -0.5052036 0.34707823
-0.3905761 -0.42114198 0.5293745 -0.3268249 0.02494857 0.45662987 0.0046081576 -0.36818603
-0.068941265 0.6892215 -1.0803055 1.3457597 1.7075422 0.91547585 1.2980477 -0.3140204
0.26784372 -0.18897586 1.4499333 0.0039472375 -0.03129314 -0.17020646 1.93918 0.8719443
-0.43185836 -1.1050575 -0.79043716 -0.42279202 -0.35238805 1.582221 0.86398184 0.68974376
-0.9977867 -0.1257982 0.8990821 0.7636832 -0.079053015 -1.4281957 0.7095843 -0.48699185
1.067255 0.1196411 0.15001503 0.87194115 0.29527608 0.020918384 -0.3279974 0.8297325
0.48476887 -0.6104042 0.7079188 -0.7719895 0.43920246 -0.34622484 0.0259112 -0.79882526
0.26412633 0.3503475 -0.83287644 -0.20021549 0.15001719 0.034841985 0.13067059 1.4196321
0.9647141 -0.9559197 -0.11151347 0.5593232 0.10351772 0.051507663 0.7426837 0.85532176
0.7616802 -0.28324163 0.44215676 -0.19719025 0.08361256 0.30225337 0.3022487 0.48496643
-0.17532252 0.57304657 0.5886643 -0.07797796 -0.00096186483 -0.12658371 0.43757507 -0.5047862
0.22641775 -0.35029972 0.27799627 1.2631154 0.33524737 -0.013509138 -0.35354027 0.31133932
0.28621483 1.1439055 0.41381148 0.8610004 0.34587225 -0.016287616 -0.072819434 -0.50350475
0.058308393 0.78736126 0.60964173 0.0842642 0.9636486 0.28099865 -0.23753086 0.043735962
0.0746462 -0.50582933 0.45613295 -1.689332 0.2929561 -0.2383131 -0.16523491 -0.2567129
0.41108418 0.20651183 -0.35155118 0.22506523 1.7952226 0.31453547 0.3226852 -0.12961602
0.018011194 0.065802045 0.11852669 -0.5697723 0.08252655 0.2435326 -0.33713052 -0.42138055

lstm.weight_hh_l0 f4 [256, 64]
00000000: bf1c 033f 3b43 77bf 428c 87bf a587 113e
00000010: ba24 3abe fa9a a4bf 8ffe 76bd 4538 9d3f
00000020: 6e24 233f 4205 e9bd 6816 2fbf 9b87 ea3e
00000030: cdcf 883e 800f 7cbd 9da8 bd3e f3d8 27bd
00000040: ddd1 83bf d3ce 1fc0 a50d 933f b56e d23f
00000050: 8620 fabf fc75 38be 89d3 223f da75 7a3f
00000060: 3146 0cbf 60f9 cdbe d543 0cc0 9203 ee3e
00000070: 5c28 723f d491 483e 7c64 6c3f 1e8e a4bf
00000080: b678 f4bd 545a 30bf 7a14 b6bf 415c 503f
00000090: cb84 d6be f620 22c0 a399 30bc 9989 303f
000000a0: 5bf3 a13e b330 2e3f d45b e4be c83b 7abe
000000b0: c7c9 833e e1a8 f63e 184e 08bf 798e 32bd
000000c0: e99d 313f 96b4 95be b940 483c 0857 f7bf
000000d0: c4e0 dc3e 3030 90bf 2b7e 95bf 33d6 343e
000000e0: 2991 29be 3ce4 b5be 8a77 353f 4405 0b3f
000000f0: cac7 7ebf e05f 0b3e d42e 37be b3d8 bb3e
00000100: 71be f4bc cb56 133e 98a9 49be f65f 80bd
00000110: 7d10 ed3e f608 e5be 90e4 d73d a710 d93d
00000120: 4278 bdbe dbbe da3e dc54 993e c581 a3be
00000130: fa28 813e 8847 cb3e fdd2 c6bd 6ede 533e
00000140: 6a47 ebbe 7863 9cbe b319 3dbe fbf5 493e
00000150: b70c 41bd 7f19 603d 2259 7b3e c95b a63f
00000160: 79d1 2ebe dd9e 8f3e 0983 0dbf 4ade 733e
00000170: 1282 fbbe a129 483e ec12 2ebd 6db8 c8bf
00000180: bc51 fa3c a857 cf3e 1e26 96bd 542f f53b
00000190: aa03 0a3c dd75 0ebf dc46 223e 1c59 543e
000001a0: e379 793e a160 f5be 9c38 4abe 9daf 78bd
000001b0: 836f 483e 9c82 983c 4614 873c 4074 c33e
000001c0: b934 193f 134d 00bf ca82 b3be 0646 0c3f
000001d0: 79ba 083e 4937 6bbe 5c11 f2be a88e 1bbf
000001e0: c7c9 b8bc e911 1bbe 81e3 7f3e aaef e3bd
000001f0: f9c6 233e 4a47 073f 11f3 a2be 44ee 81be
00000200: 10cb 83bd a742 bd3e 1769 ac3f 6b2a a23f
00000210: 11ac b13f a1c9 873e 32dc 043f f4bd 90be
00000220: 1937 f8bf d65d 19be 1dc1 92bf 1cfd a23f
00000230: 6f46 4e3f 0c30 03c0 76d3 72bf 2508 e43e
00000240: 7da8 6cbf 36de 763e e54b 2240 ce69 283f
00000250: c975 a23e d354 07c0 40be db3f 7dbb 4d40
00000260: 453d ecbe 2771 0740 88ef c73e 0cbe dd3e
00000270: d26a 133f 5ac5 dbbe 99bf c33f 9bb2 d8bd
00000280: 179b 62be 39b2 803d 89c9 1f3d 6046 473e
00000290: 0b29 30bf 96d5 33c0 d2c2 dfbf 4b52 843f
000002a0: 73a2 e03e f033 a53e 504d 19be c1d2 0b40
000002b0: 8d98 053f 340d 393f d073 2cbf 1f43 84c0
000002c0: 03a8 cabf 603c 283d 25e2 dc3f 13d0 75bf
000002d0: bf07 a43f 7fc3 1d3f de19 373e 431c 82be
000002e0: 1cba 203f 08f7 12c0 27bb 8bbf 7b91 cfbf
000002f0: 929b 17c0 834d 76be 4b8d fe3e 580a ec3e
00000300: 199e c7be 278f 193f 61b0 ebbe e2ec 8e3f
00000310: 65cd c73e 5ebb 0abf a14d b43d 675e 7abf
00000320: e1f3 303e 1c33 aebe 40da 5a3d 2beb fbbe
00000330: bf4d 773d b06e 6abf bb2c d8bf 53ab 963e
00000340: 6065 4f3e 23f6 6ebe 7cfa a2bf 09fe 1e3f
00000350: 70ba be3e 3709 30bf dec1 003f 975a 563d
00000360: ff32 92bd a0ae 33bf b92a 9fbf 12cc 2d3e
00000370: 5909 4a3e 839d 04bf 1369 e53e d2ff 37bf
00000380: b55a 75be f2af dbbf 2fbf 483f a226 553d
00000390: f16d 51bf 340c ed3e 630d c1bd cf41 b73d
000003a0: 2558 7f3e de00 1dbf bb29 36be cd55 d2bd
000003b0: f66e 723f fd15 58be 5656 673e 8f77 a1be
000003c0: 60cc 53bf 4c64 fe3e 2db1 043f a17d 0c40
000003d0: 18b0 923e f9e1 8bbd b688 83be fb6e 1ebd
000003e0: 6a1d 85be a542 7f3e bce2 eabe b098 673d
000003f0: 9def 763d 905e 213f 5004 e7bd f079 963e
0.5121574 -0.9658696 -1.0589678 0.142119 -0.18178073 -1.2859795 -0.06030136 1.2282797
0.6372746 -0.11377956 -0.68393564 0.45806584 0.2672104 -0.06153822 0.37042704 -0.040978383
-1.029842 -2.4969985 1.1488539 1.6440035 -1.9541175 -0.18013757 0.6360403 0.9783608
-0.54794604 -0.4022932 -2.1916401 0.464871 0.94592834 0.19586879 0.92340827 -1.2855871
-0.11937086 -0.6888783 -1.4224999 0.8139077 -0.41898188 -2.5332618 -0.010778817 0.6895996
0.31630978 0.6804306 -0.4460131 -0.24436867 0.2573988 0.4817572 -0.5324416 -0.043592904
0.69381577 -0.2923934 0.012222462 -1.9323435 0.43140233 -1.1264706 -1.1679128 0.17659836
-0.1655928 -0.35525692 0.7088553 0.5430491 -0.99523604 0.13610792 -0.17888957 0.36688766
-0.029875966 0.14388578 -0.19693601 -0.06268303 0.46301642 -0.447334 0.10541642 0.10598879
-0.37005812 0.42723736 0.29947555 -0.31934944 0.25226575 0.39703012 -0.097082116 0.20690319
-0.45952922 -0.3054464 -0.18466835 0.1972274 -0.047131266 0.054711815 0.2454572 1.2996761
-0.17072095 0.2805089 -0.5527807 0.23815265 -0.49122673 0.1954713 -0.042498514 -1.5681282
0.030556552 0.40496564 -0.07331489 0.0074824486 0.008423725 -0.55648595 0.15847343 0.20737118
0.24362902 -0.47925285 -0.19748157 -0.060714353 0.19573788 0.018616967 0.01648916 0.3817463
0.59846073 -0.50117606 -0.35060722 0.5479435 0.13352384 -0.22970308 -0.4727887 -0.6076455
-0.022557152 -0.15143551 0.2498913 -0.11129697 0.15993871 0.52843153 -0.3182607 -0.25377095
-0.064352155 0.36964914 1.3469571 1.2669195 1.3880635 0.26521018 0.5189849 -0.28269923
-1.9391814 -0.14977202 -1.1465183 1.2733493 0.80576223 -2.0498075 -0.94853914 0.44537464
-0.9244459 0.24108204 2.5358822 0.65786445 0.31730488 -2.1145523 1.7167435 3.2145684
-0.46140495 2.1162813 0.39049935 0.43309057 0.5758487 -0.42924005 1.5292846 -0.10580941
-0.22129475 0.06283993 0.03901056 0.1946044 -0.68812627 -2.8099113 -1.748133 1.0337614
0.4387394 0.32266188 -0.14970899 2.1847384 0.521859 0.7228577 -0.67364216 -4.1331935
-1.5832523 0.041073203 1.7256514 -0.9602062 1.2814864 0.6162643 0.17880961 -0.25412187
0.6278398 -2.2963276 -1.0916489 -1.6216272 -2.3688703 -0.24053006 0.49717173 0.46101642
-0.38987806 0.5998406 -0.46033004 1.1166041 0.3902389 -0.5419215 0.08803869 -0.97800297
0.17280532 -0.34023368 0.053430796 -0.49202856 0.06037688 -0.91575146 -1.6888651 0.29427585
0.20253515 -0.23336081 -1.2732692 0.62106377 0.37251616 -0.6876406 0.5029582 0.052332487
-0.07138633 -0.7018833 -1.2434913 0.16972378 0.19730128 -0.51802844 0.44806728 -0.71874726
-0.23960383 -1.7163069 0.78416723 0.052038796 -0.8180838 0.46298373 -0.094263814 0.08948099
0.24935968 -0.6132945 -0.17789356 -0.102702715 0.9470056 -0.21102138 0.22591528 -0.31536528
-0.82733727 0.49685895 0.5183285 2.1951678 0.28649974 -0.0683021 -0.2569024 -0.038680058
-0.25999004 0.24927767 -0.4587611 0.0565421 0.060287107 0.63034916 -0.112801194 0.29389906

lstm.bias_ih_l0 f4 [256]
00000000: 4b1a f53d b7b5 663c ffdd 9f3e 1e08 c33d
00000010: 5331 b03e 0768 9b3e 2146 d5bc d0e6 043e
00000020: 8114 ee3c b7b9 933e 5e0e 833d 894e 963d
00000030: d601 9b3e 5362 a0bd c086 3fbd e22c 3d3e
00000040: 998f 973e e6a0 ca3d d0be af3e a915 863f
00000050: c043 293e 2b91 a93e d336 333e d018 2c3e
00000060: 5b94 5d3e 7ba9 5f3d 089e b6be ec0c 1fbe
00000070: d243 d93d 2518 193e 6704 083d 2125 8b3e
00000080: 31ec 933e ec7f 87bd 6408 02be 5b72 46be
00000090: da9f 78bd ec97 c83d d9ae b93e 58e6 9dbe
000000a0: 14ac 18be 3be1 523e 9761 713e caaf bebd
000000b0: 93ca b83d beb8 91bd e64c 603e d797 b13e
000000c0: 24ed aabd e19f 09be f5f2 4b3e 4034 c2be
000000d0: eff5 f1bd 9ab2 debd 713a d03e f923 fa3c
000000e0: cdc7 903e 216a bf3e 3289 813e a9d7 dc3d
000000f0: 8792 8a3e 7860 b8bd ed13 223e 07bd 1f3e
00000100: 3c28 2ebe 43e7 82be 92de b1bd e3e0 5bbe
00000110: 1207 87be b54b cabd 58c3 49be 1b18 89be
00000120: df14 edbe a736 843e 4a73 55be e3f4 aebe
00000130: 4230 60be 21f6 92bd 2937 ddbe 3fbb be3e
00000140: 01aa c1be f663 753d 64a5 b3be cc57 1fbe
00000150: a417 6e3e 9cc4 37bf c773 3ebd 5cf0 71be
00000160: 6e44 24be d3ad f83d 4b57 ddbe f188 08be
00000170: 2805 6fbe fe7f 73be 953d d4be b853 a43d
00000180: d62b 8e3e 60b2 17bf 2b91 1ebf d413 f7be
00000190: 8839 80bd 4678 61be 6cf7 91be 656b 353e
000001a0: 2389 993e c499 313e 5ecd 7bbe c1b4 a4be
000001b0: 62a8 a5bd 0c42 eb3d 6e88 dd3d 78c0 b8bd
000001c0: a896 973e d44c 9f3d 4ac7 03bf ca48 c7be
000001d0: c289 26bd 2e2c 83be d219 c43d 5d63 323e
000001e0: eb9a 4abc c082 77be 56d4 813b 34a5 86bc
000001f0: 7d89 093e 5904 73be 8d0b c03d cb83 17be
00000200: cae2 5f3e ab05 363e 4409 08be 6217 15bf
00000210: 6786 373d c9d5 debc 18b6 133e edc1 b63e
00000220: c1ab 44bd 434a fcbb a947 273e 2860 7abe
00000230: fced ab3a 334a 16bd 30a5 1bbd a410 7ebe
00000240: 5651 59be 8425 853e 4235 033e cc89 c6bd
00000250: 0ed1 473e 9f92 2a3e fa83 c33d e4fa ad3d
00000260: 98c2 973b 3d22 58be 4c70 883c 9576 943d
00000270: 85db 573d 2596 a13e 2ebf d8bc 1ee2 2ebe
00000280: 71f2 1cbe b9bc 013d 3f84 44be 24c2 14be
00000290: b87a 873b cebc 703e 6795 913e f2ee 243e
000002a0: fd02 1dbe 4e16 523e 3395 253e 45b7 e73c
000002b0: ff55 61be 6b04 873e d705 83bd 65a9 a1bc
000002c0: 5b71 50be dfcc 3b3d 2180 b43e 25ae f4bd
000002d0: 50c2 08be ed43 2abe e4de 553e d990 80be
000002e0: 9be3 f1bd f492 303e 6cf0 5cbd 7000 a93d
000002f0: 37ec 84bd 6d45 e03b bbec 4abe 9992 1a3d
00000300: 8cce b13e f454 c53e ddf4 413d 8934 ed3d
00000310: e5c7 c43e 0199 84bd 6d09 eb3d 7fdb adbb
00000320: 7c81 3c3e 5422 863e 8f27 163e 67e4 34be
00000330: 55e7 743d 5777 1b3c 0b67 363d c369 973e
00000340: 3dfe 943d cf6a d23d 0faa 2fbe e635 bd3e
00000350: 5bdb 13be bca3 843d 2279 643e d974 543e
00000360: 6be8 b63e aa38 893c f17c 423e f5f6 7b3e
00000370: 7afd acbe fd6b 81be 505f be3e 2b97 f83d
00000380: c33b 8bbd b833 d43d e629 093d 3c9c e13e
00000390: 94f5 bebd f1f7 cd3e 5692 39bf 800d a5bd
000003a0: 9261 2ebd 6bbd f93c ae83 dabd eeff 4e3e
000003b0: 15fc 933d ed84 0d3d b23a 7a3d 0d36 f93d
000003c0: 479a dd3d cb4b 6f3e 0bd5 7ebe 050e 6a3e
000003d0: 9753 3ebe 1c76 98be 44e5 ef3e 1671 c4bd
000003e0: 45b1 703d 9476 bc3e 6dd4 a6be 3685 443f
000003f0: c0ce d03e 6b75 d93d 82ad d23e 5359 b1be
0.119679056 0.01408141 0.31224057 0.095230326 0.3441263 0.30352804 -0.026034417 0.12978673
0.029062511 0.28852627 0.06399225 0.07339198 0.30274838 -0.07831254 -0.046759367 0.18474153
0.29601744 0.0989397 0.34325266 1.047536 0.16529751 0.33118567 0.17501383 0.1680634
0.21638624 0.05460499 -0.35667443 -0.15532273 0.10608639 0.14950617 0.033207323 0.27176765
0.28891137 -0.06616196 -0.12698513 -0.1937956 -0.06069932 0.09794602 0.3626621 -0.308398
-0.14909393 0.20593731 0.23572384 -0.09310873 0.09023013 -0.07115315 0.21904334 0.34686157
-0.08346012 -0.13439895 0.199169 -0.3793049 -0.11814486 -0.10873909 0.40669587 0.030534731
0.28277436 0.37385657 0.25299984 0.107833214 0.27064916 -0.09002775 0.15827914 0.15599452
-0.17007536 -0.25567064 -0.0868503 -0.21472506 -0.26372582 -0.09877721 -0.19703424 -0.26776204
-0.46304986 0.25822946 -0.2084476 -0.3417121 -0.21893409 -0.071758516 -0.43206146 0.37252232
-0.37825015 0.059909783 -0.3508712 -0.15560836 0.23251206 -0.7178438 -0.046497133 -0.23626846
-0.16041729 0.12142529 -0.43230662 -0.13333489 -0.2334181 -0.23779294 -0.41453233 0.080237806
0.2776782 -0.59256554 -0.6194026 -0.48257315 -0.06260973 -0.22018537 -0.2850908 0.17716749
0.2998744 0.17343813 -0.2459006 -0.32169154 -0.08088757 0.11487207 0.108170375 -0.090210855
0.2960713 0.07778326 -0.51475966 -0.3892272 -0.04065872 -0.25619644 0.09575237 0.17420717
-0.012366037 -0.24170971 0.00396208 -0.016436197 0.13431354 -0.23732127 0.09377203 -0.14796369
0.21863857 0.177756 -0.13284785 -0.58238804 0.04480591 -0.02720155 0.14424932 0.3569483
-0.04801536 -0.0076992824 0.1633593 -0.24450743 0.001311719 -0.036691856 -0.037999332 -0.24811035
-0.21222433 0.26005185 0.12813285 -0.096942514 0.19513342 0.16657494 0.09546657 0.08495119
0.0046313517 -0.21106811 0.01665511 0.0724918 0.052699585 0.31559864 -0.02645835 -0.17078444
-0.15326859 0.03167412 -0.19191073 -0.14527184 0.0041345023 0.23509523 0.28434297 0.16106775
-0.15333171 0.20516321 0.16170196 0.028285632 -0.22005461 0.26370558 -0.06397598 -0.019734094
-0.20355742 0.045849677 0.35254005 -0.11947278 -0.13355374 -0.16627474 0.20885807 -0.2511051
-0.118109904 0.17243558 -0.05394022 0.082520366 -0.06490367 0.0068442137 -0.19816868 0.037737463
0.34727895 0.38541377 0.04735266 0.11582286 0.38433757 -0.06474496 0.11476407 -0.005305707
0.1840877 0.26198065 0.14663528 -0.17665254 0.059790928 0.009488902 0.044531863 0.29572877
0.072750546 0.10274278 -0.17154716 0.36955184 -0.14439146 0.06476542 0.22311834 0.20747699
0.35724196 0.016750652 0.18992974 0.24605925 -0.33787137 -0.252777 0.37182093 0.12138208
-0.06798508 0.10361427 0.033487223 0.4406451 -0.09324184 0.40228227 -0.72488916 -0.080592155
-0.04257352 0.03048583 -0.10669647 0.20214817 0.07225815 0.034550596 0.061091132 0.121685125
0.10820442 0.23368756 -0.24885957 0.2285691 -0.18586574 -0.2977761 0.46854603 -0.09591882
0.058762807 0.36809218 -0.32583943 0.76765764 0.40782738 0.10618099 0.41148 -0.3463846

lstm.bias_hh_l0 f4 [256]
00000000: 24da 96bc 6fb4 c1bd afb6 b73e 13a1 af3d
00000010: 0467 ae3e dfab d93e c50b 3f3d 3c5b 8d3d
00000020: 6b2f 153c d762 c83e 0a66 c73c be41 313d
00000030: bf84 3b3e 851b 34be 6ce9 a2bb 7d67 563e
00000040: 2116 363e f91c 163e e065 8b3e 3a7f 893f
00000050: 86e5 bd3c b83a df3e 55ce 0f3e 9017 933e
00000060: 8274 313e 9466 6b3e 46fa 8abe 4b03 45be
00000070: ac6f 88bd 46b2 c93d 62d1 fa3d 733d 373e
00000080: dc48 db3e 453d 11bd b21a 64be fd17 15bd
00000090: e415 04be 22f7 583e 4cae fb3e 8648 cbbe
000000a0: b1e2 3bbe 2f40 133e 9ead 8b3e 0cd7 50bd
000000b0: 6dc9 e03b c65c 88bd abdb 4c3e 9da9 a13e
000000c0: e10d 713d 755a d5bd febf b43e d418 8fbe
000000d0: bae6 793d c816 1bbe d1ba bb3e a77b a9bc
000000e0: 551f 503e f870 963e fefa b93e 9e11 803c
000000f0: 4e28 9b3e 9860 23bd 15a7 163e 94e1 833e
00000100: 0f9b 263d 7800 71be 34b3 e9bd abe4 b7be
00000110: f95a 7abe 4600 83be 11e6 6cbe 0e7f 67be
00000120: eaaf babe 0214 8b3e 8080 03be c4ba c3be
00000130: 5c64 27bc c873 1fbe e8d7 c8be 43ad b43e
00000140: ffe2 62be 72a5 6f3d d28c c3be b43a 51be
00000150: 69d4 0f3e 4959 50bf 3a32 043e 604c c1be
00000160: a018 a1bd d44b c53d 8e3a 17bf 9217 a2bd
00000170: d2ab 66be 71b3 29be 3339 a3be 6af9 a63d
00000180: ef44 fd3d 2f35 f4be 9e1c 26bf 1d2e 81be
00000190: af9f b33d 7477 09be 670c 9ebe 2188 043e
000001a0: 4027 943e a5ce 4c3e d559 92be ff23 7cbe
000001b0: e647 2ebe 93a7 303e cc94 cb3d 4293 d3bd
000001c0: c2a9 b03e b20e b83d f5fb b6be 041c 0bbf
000001d0: 7f3c b83d 9d40 2bbe 22cd 423e 9aa6 a33d
000001e0: 89b3 f73c 0a55 7cbe a48f 97bc eba9 0dbe
000001f0: 5a2a 923c 6115 0dbe aeac 3eba 4f71 94be
00000200: 3a0a 3a3e 540d 1b3e fb7f d1bd 80e8 d2be
00000210: 8116 d73d 7a38 cebd 789a f03d 0d77 763e
00000220: e1b4 7dbd 2928 20be 10b7 693e 2be2 06be
00000230: 0702 62be 7847 1bbd 07d3 c7bd 90cd fdbd
00000240: af3c 7bbe 62c1 5c3e 532f 973c e7ba 31bd
00000250: bcc4 043e 8fb5 ce3d 25ce a73d dc01 863e
00000260: a255 40bc bcd5 4dbe a49f 563d 5b4f 523e
00000270: 5e94 7abd 1aae 723e 610f 12be 5a05 35be
00000280: 11d9 00be 4d89 273d 37a1 25bc 6e84 2cbe
00000290: 82a7 93bd 0cc6 343e 24f7 ae3e 48f4 b83d
000002a0: e249 2dbe 06e9 b13e 76a9 893e 30de 2d3e
000002b0: fcb7 6cbc 244e b63e 434d 503d 04d2 bd3d
000002c0: 46bb 34be b26a 9cbd 9c1e 0c3e ec68 efbc
000002d0: 3a0d 4cbe 80a2 8bbc 3fde 673e 24b7 97be
000002e0: f955 94bb ca7d 7c3e c9f0 f8bd 2fb0 c83b
000002f0: 329c dabd bb47 593e d8b1 19bd b5f3 54bc
00000300: dbbe ca3e c5eb e13e 7c71 29be ef62 883e
00000310: 0f09 ce3e e991 223d 6656 c33d 64f6 a23d
00000320: 8d15 9a3e cf18 053e e262 403e 62f8 91be
00000330: 7bd8 67bd be69 21be 7f2c 883d 1224 c13e
00000340: ed94 923e 03ab 843d 2306 93be 115d d63e
00000350: 69b5 a5be 523f 86bd cf1d 733e db8f 2abc
00000360: f2ca af3e 69b6 8d3b 7710 003d 9aa6 1f3e
00000370: 4f02 79be 56cb 32be 728d 233e 6ce0 f53d
00000380: 20b1 0fbd 9666 803e 2c52 1f3d 1103 df3e
00000390: 8c8d 3dbe 2798 9b3e 7aaf 3dbf 03e1 9cbd
000003a0: b617 c4bd db78 853e e031 68be 58c8 aa3e
000003b0: 9a63 5a3e 62d4 f63d 9b3e 31be 9ebe a63e
000003c0: d011 273e 78f9 383e 6006 75be dc48 143e
000003d0: 687f 20be 21bc 4bbe 8e35 053f 6e09 61bd
000003e0: 04b0 353d 5518 823e b0a4 95be 2fb1 3a3f
000003f0: 69a5 de3e 8fd2 e2bc 04a2 123f 0a34 d1be
-0.018414564 -0.09458243 0.35881564 0.08575644 0.3406297 0.4251394 0.046642084 0.06902167
0.009105544 0.3913791 0.024340648 0.043275587 0.18312357 -0.17588623 -0.0049716737 0.20937915
0.17781879 0.1465949 0.27226162 1.0741951 0.023180734 0.43599486 0.14043553 0.28728914
0.173296 0.22988349 -0.27144068 -0.19239537 -0.06661925 0.09848456 0.12246968 0.17894535
0.42829025 -0.03545882 -0.22275808 -0.03639983 -0.12898976 0.21188024 0.49156415 -0.39703768
-0.18348195 0.14379953 0.27280897 -0.050986335 0.0068599493 -0.0665832 0.20005672 0.31574717
0.058851127 -0.10417644 0.35302728 -0.2794863 0.061011054 -0.15145409 0.36665967 -0.020688845
0.20324452 0.29383063 0.36324304 0.0156334 0.30304188 -0.03988704 0.14712174 0.2575804
0.04067522 -0.23535335 -0.114111334 -0.35916647 -0.24448766 -0.25586146 -0.23134638 -0.22607061
-0.36462337 0.27163702 -0.12841988 -0.38228428 -0.010216799 -0.15571511 -0.39227223 0.35288438
-0.22156905 0.05850739 -0.38193375 -0.2043255 0.14045872 -0.8138624 0.12909785 -0.37753582
-0.07866025 0.09633604 -0.5907372 -0.07914652 -0.22526482 -0.16572358 -0.31879577 0.08153041
0.12366664 -0.47696826 -0.64887416 -0.25230494 0.087706916 -0.13424474 -0.30868837 0.12942554
0.28936195 0.20000704 -0.2858416 -0.24623106 -0.17019615 0.17251424 0.0994049 -0.103308216
0.34504515 0.08987178 -0.35739103 -0.54339623 0.08995914 -0.16723867 0.19023564 0.07990761
0.030236976 -0.24641815 -0.01850111 -0.1383435 0.01784246 -0.13777687 -0.0007273656 -0.28992698
0.18167964 0.15141803 -0.102294885 -0.41193008 0.10502339 -0.10069366 0.117482126 0.24068852
-0.061940078 -0.1564032 0.22823739 -0.13172214 -0.22071086 -0.037909955 -0.09757047 -0.123927236
-0.24534868 0.21558145 0.018455183 -0.043391135 0.12965673 0.10093223 0.08193616 0.26173294
-0.011739166 -0.20101064 0.05239834 0.20538084 -0.06117665 0.23699227 -0.14263679 -0.17677823
-0.12582804 0.040902425 -0.010109237 -0.16847393 -0.07209684 0.17653674 0.34172928 0.09030968
-0.16922715 0.34748095 0.268871 0.16979289 -0.014448162 0.35606492 0.050854933 0.09268573
-0.17649564 -0.07637538 0.13683552 -0.029224835 -0.1992692 -0.01704526 0.22643374 -0.29631913
-0.0045268503 0.2465736 -0.12155301 0.0061245183 -0.10674323 0.21218769 -0.03752312 -0.012997557
0.39598736 0.4412519 -0.16547197 0.2663798 0.40241286 0.039689932 0.095379636 0.079571515
0.30094567 0.12997745 0.18787721 -0.28509814 -0.056602936 -0.15762994 0.06649112 0.37722832
0.28629246 0.064779304 -0.2871562 0.4186788 -0.32364967 -0.06555046 0.2374184 -0.010410274
0.34334522 0.0043247235 0.031265702 0.15590897 -0.24317287 -0.17460379 0.15971926 0.12005696
-0.03508103 0.25078267 0.038896725 0.43557027 -0.18511027 0.3038952 -0.7409588 -0.07660105
-0.09574835 0.26068768 -0.22675276 0.33355975 0.21327057 0.120522276 -0.17309038 0.32567304
0.16315389 0.18063915 -0.23928213 0.14480919 -0.15673602 -0.19895984 0.5203484 -0.054940633
0.044357315 0.2540919 -0.2922721 0.7292661 0.43485573 -0.027688293 0.57278466 -0.40860015

actor_mean.weight f4 [1, 64]
00000000: cc95 d0be e954 79be 2f08 bfbc 4425 613d
00000010: 6eec b9be 3617 543d b97b 913e 35aa ad3e
00000020: 666c 98be f0de a53f cd98 c6bf e76b ac3d
00000030: de36 fc3c a6ad a83d c86f 933e 9a6a dc3e
00000040: 6a23 21be 6dcf 39be d229 64be b9ec 6ebd
00000050: 11d4 2ebc 63b4 7f3d 78c5 923f c873 833f
00000060: 60a8 663e 7dc5 af3e 0d3b 20bb 3c0f d4bd
00000070: 0142 003f b65f c63d 6e6f c7be 0ee2 c03e
00000080: e177 a53f 45a1 f2be 19f3 b4bf 7067 1240
00000090: 0d27 743f 6951 a63f 8f39 953c 97ce fe3c
000000a0: d40b b53f c2f5 873d ad50 a8be 4aeb 90be
000000b0: 4aaf b03f 6d05 313e 2cf3 ebbe 2df9 68bd
000000c0: 60f2 8ab9 cb9e 5f3d 1ba7 97bc e55e e9be
000000d0: 61e9 23bf 66b2 9e3e 0756 7e3d 0d57 95be
000000e0: 96c2 2640 ee9e ecbe 5884 44be 9d72 5240
000000f0: a65e 563f 45f1 25be 266f 86bf 3dfe 66bd
-0.40739286 -0.24348797 -0.023319332 0.05496718 -0.36313194 0.05177995 0.28414705 0.3391892
-0.297702 1.295866 -1.5515381 0.08419018 0.030787881 0.08236246 0.2879622 0.4305008
-0.15736166 -0.18145533 -0.22281578 -0.058331225 -0.010670678 0.06242789 1.1466513 1.0269709
0.22525167 0.3433036 -0.002444926 -0.10354468 0.50100714 0.09686224 -0.38952202 0.37672466
1.2927209 -0.47388664 -1.4136688 2.2875633 0.95372087 1.2993594 0.018215923 0.03110437
1.4144235 0.066386715 -0.3287405 -0.2830451 1.3803494 0.17287226 -0.46083963 -0.056878258
-0.00026501995 0.054594796 -0.0185123 -0.4558021 -0.6402798 0.30995482 0.06209376 -0.29167977
2.6056266 -0.46215004 -0.1919111 3.2882454 0.8373817 -0.16205318 -1.050267 -0.056394804

critic.weight f4 [1, 64]
00000000: 5def 7bc1 b40b c941 e62a 5741 7d65 2c41
00000010: c603 90c1 5997 3e41 79ed 65c1 0e13 a5c1
00000020: 61ec acc1 febe 4141 12b1 d441 90f1 0042
00000030: 1eb2 b7c1 f3c7 bfc1 3038 af41 1c80 af40
00000040: d219 01c2 5cca 9c41 94cd 5641 913a b4c1
00000050: 2cb1 5b41 cf97 2dc1 65d3 3041 2345 d3c0
00000060: 1eab 9341 0206 7740 a885 7441 648b cac0
00000070: 8a5c e841 2b6e 26c1 cea4 9c41 54af b2c1
00000080: f3c8 8640 1757 3041 f4d1 9841 b9e9 9940
00000090: f740 acc1 a025 b641 62f7 d941 5bce 88c1
000000a0: 9b09 a040 30a1 a1c1 52c1 87c1 1420 51c0
000000b0: 9659 f740 8e1e ce41 152e 9a41 55ac f541
000000c0: 94ee aa41 0922 8a41 47f0 b541 2dfe ae41
000000d0: 497c 9f41 daa2 19c1 28c0 15c1 d3a4 4541
000000e0: 5140 d941 3b46 75c1 5888 8ec1 b6a5 1440
000000f0: 6b43 8640 4506 19c1 aa7d f840 226f c841
-15.745938 25.130714 13.447973 10.774777 -18.001842 11.91195 -14.370477 -20.634304
-21.61542 12.109129 26.58646 32.2359 -22.961971 -23.972631 21.902435 5.4843884
-32.275215 19.598808 13.42519 -22.528597 13.730755 -10.849563 11.05161 -6.6021895
18.458553 3.8597417 15.282631 -6.3295155 29.045185 -10.401896 19.580471 -22.33561
4.21203 11.021262 19.102516 4.8097806 -21.531721 22.768372 27.245792 -17.10076
5.0011725 -20.203705 -16.969395 -3.267583 7.729686 25.76492 19.272501 30.709146
21.366493 17.266619 22.742323 21.87411 19.935686 -9.602259 -9.359413 12.35274
27.156404 -15.329646 -17.816574 2.3226142 4.1957297 -9.564031 7.76534 25.054264
