second_stage/latest_model.pth (torch, 524620 bytes, 30 tensors)

feature_extractor.0.weight f4 [128, 5]
00000000: d4a2 e23e 2254 8d3e 8fd8 bdbe 96e4 85be
00000010: 0779 31bd 9063 123f 2778 d93e 2488 873e
00000020: 721c 0cbe 690f b83d f8c1 d63e 2094 3e3d
00000030: 5c5b 253f 1981 8a3d 0e3f 3bbf b14f b23f
00000040: 1cea bf3c 633f 3bbe 9cea 2cbe e3d6 ae3d
00000050: 1458 07bf e80f 883e 37b0 043e 3a7f eabd
00000060: fb97 a8be 440e 803f 21f8 17be bf2c 0bbe
00000070: dbf7 d93e e334 84be d9be 43bf 3990 10be
00000080: e80c 0f3f f3c5 b43d a942 8b3d 7e93 0bbf
00000090: cad3 783e f770 b43f 2e36 dcbe e011 d53d
000000a0: 53b4 c0bf 1878 0ebd 283f c63d 2063 963c
000000b0: 85da e8bd 65a6 36bf cce1 c6bd 6839 0ac0
000000c0: d488 95bc 56c2 d5bd a812 6e3e 2eb6 a6bd
000000d0: 2f0b a1bf 2a3a f73d a342 c93d bc4a 7a3f
000000e0: 058c 193e 7bb7 703f 1c01 da3b b84b 4d3c
000000f0: 00b2 08bf 32e0 b4bc 4608 cd3f bc7d 573e
00000100: 596b 2abd cebb 54be 945e 95bd 4604 0d40
00000110: 7981 eebc defe eebd 1bd0 553f 7a2d 32be
00000120: ef0c 183e 64e4 12be bfce ce3d 7174 c63f
00000130: 107c a93d 14a7 5d3e 2621 e53d 2c41 8a3f
00000140: 0d0e a1be de2f bcbe f000 623f 3e71 b03e
00000150: 6c4f 0a3d 5fa4 413f 699d 9e3d 7b9c bf3f
00000160: 50e9 8a3c 58ed 513e 45a1 723f bc6e 563e
00000170: a9b0 043e fafd 2a3d 2919 753e 7411 b6bf
00000180: 1cc6 6bbe 573d e2be e9d8 043e ca42 a2be
00000190: e63b c13f f3a2 89be 181c 7a3c c468 6cbc
000001a0: 8e3d 8b3c eacf fd3e 72bf e2be eaff 1d3f
000001b0: e7ca 2c3f c58d 063d d7cf b13f cc59 28bd
000001c0: 1167 6b3e 9ce9 0cbd 682f 88be fe17 1dbf
000001d0: 5289 2f3e e0b9 843f 61df 35bf 31ed 1fbe
000001e0: d9da 7fbf 8cb8 86bc 6633 7fbf e608 e2bd
000001f0: daa5 5dbe f4a0 2e3f b707 c23d c9af a5bf
00000200: 33db 84be 4c41 ffbc cadd c73d bcf5 813d
00000210: 76f1 90bf 61e1 82be bb58 c23d 52ac f33e
00000220: ff8c 083e ec39 a23e 8432 8e3e dce2 953e
00000230: 4706 253f dc71 353c adfa ef3e 781c 1abe
00000240: cf09 0bbf 7159 61bf d7be cc3d 4766 a33c
00000250: 1527 fd3d 1d38 973d 7e22 753d 8639 60bc
00000260: f97d 6cbf 7925 c1be ebec 7fbd 88f7 bc3f
00000270: 8ce2 0abe 5b02 0fc0 6e42 ba3d 742e 31be
00000280: 5db8 d23d d474 eebc f892 e13f 6c88 173e
00000290: 6715 94bb 56e1 27be 11d8 ea3d 1e11 8e3f
000002a0: 7ecf 5e3e 00d1 e8bd 4e5c dcbe c93d 433e
000002b0: 32a3 c83e e1d2 363e 3d59 f2be a532 9abe
000002c0: 96be 033f e1f0 c0be ea5e edbe ccc8 8fbd
000002d0: c535 af3f bef5 3c3e d357 2e3e e356 253e
000002e0: 872b bf3c 58f1 883f 49c6 973e a6ed 9a3e
000002f0: 72d8 e43c 7671 c6bd 92c9 bfbd 1b27 53bd
00000300: 0fee a5bf a576 efbe 1127 25be 5c1b 17be
00000310: 27f1 15bc a3d3 a53f 9091 8e3d 791b 8f3e
00000320: 39d5 cf3f 0ac8 d6bd 100c 98bf c501 67bd
00000330: 175c a83e 469f 65bd 22d5 383c 6726 223f
00000340: 9d04 763d ebba b33c 713a 0ebe 9d2c d8be
00000350: e041 41bf 0004 f2bd 4629 2b3d c80f 063f
00000360: a7a6 873b 28fd ffbf 7081 093e ef00 173e
00000370: e8a1 87be c0ea 0ebf e6ba 1c3d 7d51 b03e
00000380: ec0d a63d 009f 54bf eff2 0f3d 1b74 833f
00000390: ac84 aabe 58b4 e13e c22c e2bd 8158 4dbb
000003a0: 2ab3 2c3f c597 2c3e b128 1ebe 6821 9dbf
000003b0: 9f75 aabd 8fbb 443f 01af 5a3e 2bb8 0ebe
000003c0: 1c02 8c3e c7fa c43e 8886 55bf 0828 babe
000003d0: 24df 433d 7707 93be a320 b6be 13a8 d43e
000003e0: d558 0b3e c0e3 743d 9bfa dbbe 937b 99be
000003f0: a90b b33e b969 903e f019 f0bd df85 d73e
0.44264853 0.2760325 -0.37079284 -0.2615096 -0.04332831 0.5718317 0.4247448 0.26471055
-0.13682726 0.08987314 0.4194486 0.04652798 0.6459253 0.06762905 -0.7314309 1.393057
0.023427062 -0.18285899 -0.16886371 0.0853708 -0.5286877 0.26574636 0.12957846 -0.11450048
-0.32928452 1.0004354 -0.14840747 -0.13591288 0.4257191 -0.258216 -0.76463085 -0.14117517
0.5587907 0.08826818 0.06799824 -0.5452193 0.24299541 1.4096974 -0.43010086 0.104038
-1.505503 -0.0347825 0.09680015 0.018357813 -0.11369804 -0.7134765 -0.09711036 -2.1597538
-0.018253721 -0.10437457 0.23249304 -0.08140217 -1.2581538 0.12071641 0.09827163 0.97770286
0.1499482 0.9402997 0.0066529643 0.01253026 -0.53396606 -0.02207956 1.601815 0.21044058
-0.04160628 -0.20774767 -0.0729343 2.2033858 -0.029114472 -0.11669706 0.8352067 -0.1740016
0.14848684 -0.14344937 0.100980274 1.5504285 0.08275616 0.21645766 0.11187963 1.0801139
-0.31456032 -0.3675527 0.8828268 0.34461397 0.03376715 0.75641435 0.07744867 1.4969629
0.016956955 0.20500696 0.9477733 0.2094068 0.12958016 0.041746117 0.23935379 -1.4224076
-0.23024791 -0.44187424 0.1297337 -0.3169158 1.5096405 -0.26882133 0.015265487 -0.014429275
0.016997125 0.49572688 -0.44286686 0.6171862 0.67497104 0.032850046 1.3891553 -0.041101262
0.22988535 -0.034402475 -0.26598668 -0.61364734 0.17142227 1.0369225 -0.71043974 -0.15617825
-0.9994331 -0.01644542 -0.996878 -0.110368535 -0.21645299 0.68214345 0.09474128 -1.294427
-0.25948486 -0.031159066 0.097591 0.06345698 -1.1323688 -0.25562575 0.0948958 0.47592407
0.13335036 0.31684816 0.27772915 0.29274642 0.64462703 0.0110745095 0.46870938 -0.15049922
-0.5431184 -0.880271 0.09997337 0.01994623 0.1236097 0.0738375 0.059847347 -0.01368559
-0.9237972 -0.37723902 -0.062481802 1.476304 -0.13562983 -2.2345188 0.09094702 -0.17302877
0.10289071 -0.029108442 1.7622976 0.14798135 -0.004519153 -0.16394553 0.11466993 1.1098974
0.2175884 -0.113679886 -0.43039173 0.19066538 0.39187008 0.17853881 -0.47333708 -0.30116764
0.51462686 -0.37683776 -0.46361476 -0.07020721 1.3688284 0.18453118 0.1702569 0.16146426
0.023336185 1.0698652 0.29643467 0.30259436 0.02793524 -0.0968961 -0.09364618 -0.051550966
-1.2963275 -0.46770206 -0.16128184 -0.1475653 -0.0091517335 1.2955211 0.069613576 0.27950647
1.6236945 -0.10487373 -1.1878681 -0.056398172 0.3288276 -0.056060098 0.011281284 0.6333985
0.060062993 0.021939715 -0.13889481 -0.42221537 -0.7549114 -0.11817169 0.04178741 0.5236783
0.0041397396 -1.9999132 0.13428283 0.1474645 -0.26490712 -0.5582695 0.038264178 0.3443717
0.08108124 -0.83055115 0.03514379 1.0269808 -0.33304346 0.44082904 -0.11043693 -0.003133327
0.6746088 0.1685477 -0.1544521 -1.227582 -0.08323216 0.7684869 0.21355821 -0.13937442
0.2734536 0.38472578 -0.83408403 -0.36358666 0.047820225 -0.28716633 -0.35571775 0.4153448
0.13608105 0.05978751 -0.42964634 -0.29977092 0.34969833 0.2820566 -0.11723697 0.42094323

feature_extractor.0.bias f4 [128]
00000000: 515f 673f 6e7c 893f 241d 5dbf d19f 94bf
00000010: 7261 5c3f 9563 21bf a5a8 f6be ea7d 1abf
00000020: 925e a5bf 2241 283f ceac 74bf 5a63 56bf
00000030: 95df 36bf 5e30 75be c284 ae3f a0f0 1fbf
00000040: 2696 10bf 2061 7fbf aeb0 673f fd3e f7be
00000050: 4a93 783f 4c67 22be ee96 b5bf bda8 f53e
00000060: a920 2e3f 2786 ad3e d0be 33bf d5a4 8abf
00000070: 6344 3bbf e7bd ae3f 01de 9cbf fc56 623e
00000080: 4aca d1be 5500 08bf 1759 c2bf 3e06 0b3e
00000090: 0475 d4be f92d 62bf 8432 793f ce3d 38bf
000000a0: bddd bbbe f16f 6a3f 364c 333f 2fe2 613e
000000b0: b5d3 203f fd34 24bf 09c9 b53f daa6 30bf
000000c0: 5bff 063f c9e0 10bf 1979 61bf e68d 373e
000000d0: 4d61 3dbe 7e48 f03b 7654 81bf e479 3e3f
000000e0: 9623 553f 2ebe c43c cf86 043f 5d9a 6ebd
000000f0: c6b4 debe 02c9 9cbe 9456 50bf 1623 213c
00000100: c244 8abf 458e 37bf 0b5d 2ebf b1f0 28bf
00000110: f0fe ddbe 845c 79bf e455 a43f 529a 9c3f
00000120: 9f30 713f ce90 973f 58e5 e6be 2b9b 663f
00000130: 4ae8 21bf f00c 973f 25ec 13bf ec7c 87bd
00000140: 925f a9be 0ed4 4c3f a2ea a8be b136 94bf
00000150: 7370 a13f 9156 29bf c588 a5bf 75a0 473f
00000160: daf5 12bf 8f1e 75bf a16a 70bf 71e5 9b3f
00000170: 727b 47bf 8381 a23f b4ca c53e 6265 ac3f
00000180: 75ab 813c 3ed5 48bf f2f4 e83e 9c12 b23f
00000190: 6b0c 943f 06a6 3e3f e56e 2a3f 15a1 7fbf
000001a0: e392 973e ce17 28bf f6da 323e bd14 93bf
000001b0: c8f6 083f 7098 ef3e 1940 e83e fc20 9abe
000001c0: 3398 d93f c766 afbf 30e7 53bf 6706 11bf
000001d0: 2e64 9f3d 3684 04bf 454e 733f 0ff9 c4bf
000001e0: 60d4 9dbe 73d0 6a3f 9cf4 1a3f 9b55 4cbf
000001f0: 76f0 16bf 8513 98bf fad0 373f 5e8f 7ebf
0.90379816 1.0741098 -0.8637259 -1.1611272 0.8608619 -0.63042575 -0.4817554 -0.6034838
-1.2919486 0.65724385 -0.9557618 -0.8374535 -0.7143491 -0.23944232 1.3634264 -0.6247654
-0.5647911 -0.99757576 0.90503967 -0.48290244 0.97099745 -0.15859717 -1.4186685 0.479803
0.68018585 0.33891413 -0.7021303 -1.0831553 -0.73151225 1.3651704 -1.225525 0.22103494
-0.40974647 -0.53125507 -1.5183438 0.135766 -0.41495526 -0.883514 0.97342706 -0.71969306
-0.3669261 0.9157706 0.70038164 0.22058938 0.6282304 -0.64143354 1.4201976 -0.69004595
0.5273339 -0.56592995 -0.88075405 0.17925224 -0.18494149 0.0073328605 -1.01039 0.7440474
0.83257425 0.024016466 0.517682 -0.05825268 -0.43497294 -0.30622107 -0.8138211 0.009835025
-1.0802233 -0.7170146 -0.6811072 -0.65992266 -0.43358564 -0.9740679 1.2838712 1.2234595
0.94214815 1.1841066 -0.4509685 0.9008052 -0.6324507 1.1800823 -0.577822 -0.06615624
-0.33080727 0.8001107 -0.3299151 -1.157919 1.2612442 -0.66147715 -1.2932364 0.77979213
-0.5740639 -0.95749754 -0.939127 1.2179395 -0.7792274 1.2695774 0.38631213 1.346844
0.015828827 -0.7845038 0.45499378 1.3911929 1.156629 0.7447208 0.6657546 -0.99855167
0.29604253 -0.65661323 0.1746634 -1.1490704 0.5350156 0.46795988 0.45361403 -0.3010329
1.6999573 -1.370324 -0.8277464 -0.56650394 0.0778278 -0.5176424 0.95041305 -1.5388507
-0.30826092 0.9172432 0.60529494 -0.79818124 -0.58960664 -1.1880957 0.7180325 -0.9943751

feature_extractor.2.weight f4 [64, 128]
00000000: f8a4 d93c 9601 3cbe e62d 3bbe b444 6abe
00000010: e309 9dbd 6f1d 2e3f d4e9 43be 7a3e 803e
00000020: b403 bbbe 3a62 d9be ee19 c4bd edc5 c6be
00000030: 851b 07bf 2b00 aebe 98e0 e3bd 70d8 57bd
00000040: 6b7f e6be 37e4 dbbd aa6d 17be 8666 39bd
00000050: d440 9a3e 7858 483e fda9 b73c 6c05 193e
00000060: fc9c aebe a164 0abe f7af fdbe 727a 62be
00000070: c0ea 023f d902 993d febd 14bd 2008 0abf
00000080: f4d2 7ebe e9cc e63d 034b 973e 55e9 6b3e
00000090: e45d 983d b14c 33bd 428e 25bf 6265 e7be
000000a0: 5a27 d23b 0d6e 30bf a4cf a0be 5651 47be
000000b0: c15e 52bd 3e4f 033e df62 03be 7368 83bd
000000c0: 19be b9bd 1e1d 16be 017a 1b3d 74dd d03d
000000d0: d72c 76be f64d 13bf 1697 f6be d5ab 7dbe
000000e0: d5d6 22be e1b1 14be 3136 9cbe d005 f63c
000000f0: f2dd 88be 1e18 d7be 8425 22bd df8e b2be
00000100: 389c 91be e943 c03d 26b6 5bbe e484 0cbe
00000110: 56fd 833e 8172 97bd a437 9abe f0ef 00be
00000120: 17e5 3b3e 707e 59be b6bc 97bd 9a7c 0f3e
00000130: 02aa 23be 12de 31bd 911b 983d ee0e 8b3d
00000140: 0e7a af3e 1b46 663e f7e1 3cbe 4e6a fbbc
00000150: 2629 a6be 6c93 69be d16d 083f 2bb3 c1bd
00000160: b48d a7be bd4e 9dbd abeb f7be c2b3 653d
00000170: 61a9 0abe ecf5 c6bd f2ad e7be 4b87 90be
00000180: f551 d1bd 7625 a0be 1ce4 f4be f661 a93d
00000190: 7015 b7be e462 92bd a67b 823e cd3c 8bbe
000001a0: d8dc af3c 3019 0ebe 456b a8be 3517 31bf
000001b0: 0bad 27be 6c4e 6b3e 07f3 bebd 9911 6f3e
000001c0: dbda 59be 84ff 80bd 6458 9ebe 8fb8 d3be
000001d0: 6d4b abbd 9477 d53d d8b7 3e3b ed72 c83e
000001e0: 076d 1fbe 99f4 67be 5aeb c5bc 94df afbc
000001f0: d509 eabe 3314 4b3e 6299 96be 3404 b7be
00000200: 123b 073f 6b29 0a3d c0d5 60be c96b 53be
00000210: b5d5 ca3e 5c9b de3d 4b63 4ebe 9e87 0abf
00000220: b204 81be 6030 36bf 4886 a8be bb4f 38bf
00000230: b279 50bf b155 1bbf 0690 cf3d 3db3 1dbe
00000240: b3c2 12bf 3ae6 61bf e372 db3d 7f2b 233e
00000250: 9848 883e 9263 44be 8e50 d0bc 1192 8ebe
00000260: 0df0 d53e 131d 013e 514d 0bbe bc76 dbbe
00000270: b561 6bbe eb12 793e 23ae 22be 3d2c 18bf
00000280: 4f1f 22bf c359 e6be e58a ecbe 28b8 f2be
00000290: 47c3 89be 1ee7 55bd 769e c5bc a69e 88bf
000002a0: 27d4 08bf 6205 8ebe 75b8 fd3e 47a4 84bf
000002b0: 640d 8a3e 862f 9e3d 4ccc 96be 5398 c0be
000002c0: 2da9 d6be ff07 a9be bf15 64bd 6ee5 0d3e
000002d0: 72df 91be a558 40bd 0aad 64bf be45 493b
000002e0: 3458 823e f024 fcbe 0fae 21bf 8380 4fbf
000002f0: f502 0fbd a60a 90be 9977 11be 20b0 71be
00000300: d074 d3be 1b88 65bd d5bf 393c 0785 2dbf
00000310: a676 e3bd f94a d3be e965 c8be 9f05 d53d
00000320: 0d57 62bb 1097 58bd 3449 383e 9e89 cb3e
00000330: c871 82bd 38ad 66be d678 cebe d178 a63c
00000340: 2fa3 073f 180a 6b3e 0bd3 d33c 511e 71be
00000350: 99e4 0c3e 12c1 f0bd cd11 8fbd e6d6 68be
00000360: a7fe 27be 3df3 03bf 3869 2fbf 44e5 b83e
00000370: 83ac 95bb a9a4 233e ef14 6cbf 52db e8ba
00000380: 460f c2be 7796 3ebf c5eb a73d 38aa bc3e
00000390: 9bc7 87be 673c 603d 0a98 473e 22a6 b0bd
000003a0: e09d aa3e 7f67 9fbd d729 04bd 587b 79be
000003b0: 197a f1be 8b23 fabc 8da2 1c3e ea83 9d3e
000003c0: 520b cb3e 9dac dbbe 3ca5 dfbe 5154 7abd
000003d0: 9bcb e13e 0bc6 11bf 5587 143f 2f9b 08bf
000003e0: 58d7 2bbf 5851 a6be 5231 663d 123b 003e
000003f0: 1eab ecbe 0884 33be 994b 6ebf 376b f9be
0.026567921 -0.1835998 -0.18279228 -0.2287777 -0.07667901 0.6801366 -0.19132167 0.25047666
-0.36526263 -0.42457753 -0.09575258 -0.3882288 -0.52776366 -0.33984503 -0.11126822 -0.052696645
-0.45019087 -0.10736888 -0.14787927 -0.04526379 0.30127585 0.19564998 0.022419924 0.14943475
-0.34104145 -0.1351495 -0.49548313 -0.22117022 0.5113945 0.07471246 -0.036314003 -0.5391865
-0.2488516 0.11269552 0.29549417 0.23038228 0.07439783 -0.04377431 -0.64670193 -0.45194536
0.0064133825 -0.68917924 -0.31408417 -0.19464621 -0.051359896 0.12823197 -0.12830685 -0.064164065
-0.090694614 -0.14659545 0.03795815 0.10198489 -0.24040543 -0.57540834 -0.48162144 -0.2477258
-0.15902264 -0.1452098 -0.30510095 0.030032068 -0.2673183 -0.42010587 -0.03958656 -0.34874627
-0.28439498 0.09387953 -0.21456203 -0.13722569 0.25779217 -0.07394887 -0.30120575 -0.12591529
0.1834911 -0.21239638 -0.07409041 0.14012375 -0.15982822 -0.043424673 0.07427133 0.06789957
0.34272808 0.2248768 -0.18445574 -0.030690338 -0.3245327 -0.22810143 0.53292567 -0.09458002
-0.32725298 -0.07681034 -0.48421988 0.056079634 -0.13541175 -0.097148746 -0.45249897 -0.2822822
-0.1022071 -0.3127858 -0.47830284 0.08270638 -0.35758543 -0.07147768 0.2548496 -0.27194825
0.021467611 -0.13876796 -0.3289434 -0.69176036 -0.16374604 0.22979134 -0.093236975 0.23346557
-0.21274893 -0.06298736 -0.30926812 -0.41351745 -0.08363996 0.10423198 0.0029101279 0.3915018
-0.15568934 -0.226519 -0.024160076 -0.021468915 -0.45710626 0.19831924 -0.29413897 -0.35745394
0.5282451 0.033730906 -0.21956539 -0.20646586 0.3961617 0.10869476 -0.20155065 -0.54113185
-0.25198895 -0.71167564 -0.32914948 -0.7199666 -0.8143569 -0.6067763 0.10134892 -0.15400405
-0.5732834 -0.8824192 0.10715272 0.15934561 0.26617885 -0.19178608 -0.025429036 -0.27845815
0.41784707 0.12608747 -0.13603713 -0.42864025 -0.22986491 0.24323623 -0.1588674 -0.594425
-0.63329023 -0.44990358 -0.46199718 -0.47406125 -0.26906797 -0.052222364 -0.024123412 -1.0673416
-0.5344872 -0.27738482 0.49554792 -1.0362633 0.2696334 0.07723908 -0.2945274 -0.37616214
-0.41925946 -0.33013913 -0.0556848 0.13857052 -0.28490788 -0.046959538 -0.89326537 0.0030711736
0.2545792 -0.4924693 -0.6315622 -0.8105547 -0.03491493 -0.28133124 -0.14205779 -0.23602343
-0.41300058 -0.056038003 0.01133724 -0.6778111 -0.11106615 -0.41268137 -0.3914025 0.10401463
-0.003453675 -0.05287844 0.17996675 0.3975343 -0.06369358 -0.22527015 -0.40326566 0.020321282
0.52983373 0.22953069 0.025857469 -0.23546721 0.13759078 -0.11755575 -0.06985817 -0.22738227
-0.16405736 -0.5154303 -0.68519926 0.36112416 -0.004567684 0.15980782 -0.9221944 -0.0017765558
-0.37902278 -0.7444834 0.08199266 0.36848617 -0.26519474 0.054745104 0.19491592 -0.08625437
0.33323574 -0.07783412 -0.032266464 -0.24363458 -0.47163466 -0.030534526 0.15296383 0.30764705
0.39657074 -0.4290513 -0.4368075 -0.061115567 0.4410065 -0.56942815 0.58019 -0.5336179
-0.67125463 -0.32483935 0.05619938 0.12522534 -0.46224302 -0.17530835 -0.930841 -0.4871461

feature_extractor.2.bias f4 [64]
00000000: 58cc 2a3e 89b8 823e f576 3fbc fe1c 1b3e
00000010: 688c fcbd 9dce 893e e391 df3e e481 f33d
00000020: 901a fcbe ece8 013f edf7 e93e ad43 59be
00000030: fbcb 863e 32f7 bb3e 4033 a2be 5233 933c
00000040: f862 cdbe 29b0 2abc 63f9 0abf c210 9b3d
00000050: 8229 9ebe 07f2 ec3e 1ae1 babe 2d6d 163c
00000060: d039 f93e 485b 8d3e 7bac 27be 5b03 0ebf
00000070: 212c 60be bdc1 453e 7e57 c13e 1523 293f
00000080: 37d9 593e 3edc a8be 92d7 6ebf bba7 0cbe
00000090: d2d5 233d 3585 8cbe bfa8 9ebf b156 663d
000000a0: 8ea1 93bf 2a00 2abe 4fb3 b8be bccd 32be
000000b0: cf25 ec3e 7d94 aabd 5f52 7fbe 950c 0cbd
000000c0: 6f8c f43e d5c1 a43d 1b1f fdbd b508 e5be
000000d0: 7e57 38bd 9f8d 4abe 0792 f63d 9545 45be
000000e0: 37dc 143c 8c1a 86bf 3306 303e d1d8 fd3c
000000f0: f15d 573e 04b0 f6be 88d3 d23d f160 a23d
0.16679513 0.25531414 -0.011686076 0.15147778 -0.12331468 0.26915446 0.4366599 0.11890009
-0.49239016 0.50746036 0.45696965 -0.21217223 0.263275 0.36712033 -0.31679726 0.017968807
-0.4011457 -0.010417976 -0.54286784 0.07571556 -0.30891043 0.46278402 -0.36499864 0.009181303
0.4867692 0.27608705 -0.1637439 -0.5547387 -0.21891834 0.19312187 0.37762064 0.66069156
0.21274267 -0.3298053 -0.93297684 -0.13735859 0.039998837 -0.2744538 -1.2395247 0.05623502
-1.1533678 -0.16601625 -0.36074302 -0.17461294 0.46122596 -0.08329103 -0.24933766 -0.034191687
0.47763392 0.08044783 -0.123594485 -0.44733205 -0.045005314 -0.19780587 0.12039571 -0.19264825
0.009085706 -1.0476851 0.17189865 0.030987175 0.2103193 -0.48181164 0.10294253 0.07928646

lstm.weight_ih_l0 f4 [256, 64]
00000000: 2bf9 8b3e 1480 0d3f 4747 d1be a599 43be
00000010: 8940 0dbf 9370 083e fb0e 66be 6059 133c
00000020: f716 a9bd 0cf5 003f f6ae 7e3e fae1 ca3e
00000030: af93 303f a20e 223e b9b2 fabe 516c 81be
00000040: 7023 923e a8ca 543e 2dc8 c93e 43c3 c43e
00000050: cf04 ebbe aa72 893e 16a9 e7be 125b 123f
00000060: 6ede a33d 360a ac3d e5d8 b43d 0bbb d4be
00000070: 0b33 0f3e 151a 61be 8aac 003f 6010 6c3e
00000080: 3cda bb3e a997 2abe 6bb0 d03e 8400 d43d
00000090: 7c0b c3be f96d 273f 549d 52be bae5 abbe
000000a0: afe9 fcbe 1402 2dbf e960 57be 102c 893f
000000b0: 6eba 723e d4fe 73bc b75c 4f3e 4091 bbbe
000000c0: d492 8d3e f566 323f 47b9 883d 0b63 f5be
000000d0: 0b2e 433e 9708 893e a9de 72be 57cb 0d3f
000000e0: 33c2 263e e9d9 403e 7064 c43e 8712 2fbe
000000f0: a823 7cbe df0d 18bd 544c 863e 2090 903e
00000100: e7ed e03e 7a25 033f 7923 d43e 946f 5cbd
00000110: e5b8 a13e 47a8 ed3e 2ac6 643e 6681 20bd
00000120: fecd 8e3e 61e0 913e 1d22 243b 0603 ae3d
00000130: dd82 e03e 5866 fe3e 3049 b93e 3129 10be
00000140: 8286 af3d 548d 8f3b 637e 293e 7205 053f
00000150: 39a7 ed3d 772e b4bd 78de 533e 9826 02be
00000160: c528 b53e 2cef 04be 2c36 703e 006a 373e
00000170: f6a0 133f f951 6d3e a4ac e33e 86f8 c83e
00000180: 996f 0f3e 31eb 3b3f e402 94bd 8173 2f3e
00000190: 2440 6d3e 96d3 09be 5f72 f23d e262 54bd
000001a0: f1c1 d53b e1a8 2c3e 0d5b f8bd 942e e0bd
000001b0: 6b2f c1be 9bbd 9b3e 2ab3 0dbd 8d38 433d
000001c0: d8c8 99bd bff8 763c 7208 0abe 603d 623e
000001d0: a84b 123e cb4f 99bd aaf1 233f cfdc 85be
000001e0: bc5a e33e bcef 9d3f 14cb e7be f0c9 ca3d
000001f0: 2576 32bd 1a51 06be d2ad 2cbc 50d5 4abd
00000200: 5211 26be 90aa 803f c023 853e 7f94 b4bd
00000210: 622b 243f c920 573e e2b7 553e 953c a93b
00000220: 65fd 8fbe 1787 163e d243 a93f 9390 a2be
00000230: 0478 243e 7d73 423e db3a 9a3e 1250 c1bd
00000240: 5ca8 34bf 7d2f 47be d64e b03e 472c a23f
00000250: 227c 9abe bf29 83be fbdd 6e3e a4ea ee3d
00000260: 701d f1be c6ef 493e 6478 99be 301b dfbd
00000270: 3e06 e83e 14e3 fcbe 0f3e ea3e f6e5 61be
00000280: d4a2 04bf e0eb b93d eb94 1dbe 5ff3 c73d
00000290: 160d 6fbd bf96 b33c ffba 07ba 0355 113c
000002a0: de0d 75be 7694 f13d 95a2 f0be 5d1c 0d3f
000002b0: a935 a73e 508a 20bd c290 a7be b8f7 7cbf
000002c0: 31c9 20be 97bd 4c3f 9406 0abd 6d76 623f
000002d0: df78 d9bd 2941 2b3e 0c5d 3abf 1fab bcbe
000002e0: a8e9 233f 562e 113e b2a6 023f 54f0 a3be
000002f0: 5254 003f a7b6 183e 64e0 ccbe 836e f6bd
00000300: 0656 fabe 41ff 3bbe b8c0 b43e 5579 50be
00000310: 9c6b 023e c7ce 293e 9356 bfbe 0abe fe3d
00000320: cebf 5d3f c2b2 9e3e 96d5 193e 3a7c 193f
00000330: 3700 36bf e283 bcbe deeb df3b 3f3e 7abc
00000340: 6f6b ed3d 99eb b8be 9e74 f33d f81d a43e
00000350: 9e75 383e ca53 5abe 83ed a93e 42fd e13e
00000360: b851 ff3e 145c 893e 8a3b f9bd 71e2 d2be
00000370: ef4e 743e 6621 4e3e d16e 4fbe 5ecd 353e
00000380: 0a41 05bf 128c 2c3e d58d 243f eae3 f83e
00000390: 0fc0 5e3e 666a d63d e55c 053d fa11 02be
000003a0: 538c 51be 849a 61bd f930 143e 0ee2 743e
000003b0: ccd8 123f f400 0b3e 58b7 eabd ae84 9abe
000003c0: 2719 5c3e ca49 0f3f 9a29 143f 9dbb 0cbe
000003d0: d0ed 30be b7fb 403f a271 5fbe 4903 68bf
000003e0: cd84 07be 0c2b 6e3e 23bb 363e 2a16 2abf
000003f0: b8ed d3bd 1a1c 22bf ae06 9cbe 020f 103d
0.27338538 0.55273557 -0.40874693 -0.1910158 -0.551766 0.13324194 -0.22466652 0.008993477
-0.08256333 0.5037391 0.2487143 0.3962553 0.6897535 0.15825894 -0.4896448 -0.2527795
0.28542662 0.20780432 0.39410535 0.38430223 -0.45902106 0.26845294 -0.4524619 0.5717021
0.080014095 0.08400385 0.08830432 -0.41548952 0.13984315 -0.21982606 0.50263274 0.23053122
0.36689937 -0.16659416 0.40759596 0.10351661 -0.380947 0.6540218 -0.20567828 -0.33573705
-0.49397036 -0.67581296 -0.21033062 1.0716572 0.2370393 -0.014892299 0.20250212 -0.36634254
0.27651083 0.6968835 0.06675964 -0.47927126 0.19060533 0.26764366 -0.2371775 0.55388397
0.16285019 0.18833126 0.38357878 -0.17096911 -0.24622977 -0.037122604 0.2623011 0.2823496
0.43931505 0.5122906 0.41433313 -0.053817347 0.31586376 0.46417448 0.22341219 -0.039185904
0.27891535 0.284915 0.0025044747 0.084966704 0.4384984 0.49687457 0.3618865 -0.14078213
0.08570577 0.0043808613 0.16552119 0.51961434 0.11604161 -0.08797925 0.20690334 -0.12710035
0.35382667 -0.12981862 0.23458165 0.1791153 0.5766748 0.23175801 0.44467652 0.39252108
0.14007415 0.7340575 -0.07227114 0.17133905 0.23168999 -0.1345962 0.11838221 -0.051852114
0.0065233638 0.16861297 -0.121267416 -0.10946384 -0.3773149 0.30418095 -0.034594692 0.047661353
-0.07509011 0.015073954 -0.13479784 0.22093725 0.14286673 -0.074859224 0.64040625 -0.26145026
0.44405162 1.2338786 -0.45272124 0.09901798 -0.043569703 -0.13116875 -0.010539489 -0.049519837
-0.16217545 1.0052052 0.26003838 -0.08817386 0.64128697 0.210086 0.20870927 0.0051646926
-0.28123012 0.1469997 1.3223822 -0.31750926 0.16061407 0.18989368 0.30123028 -0.094391
-0.70569396 -0.19451709 0.34435147 1.2669762 -0.3017283 -0.25617787 0.23326866 0.11665848
-0.47092772 0.19720373 -0.29974663 -0.108938575 0.45317262 -0.49391997 0.45750472 -0.2206038
-0.51810956 0.09078193 -0.15388839 0.09763216 -0.05836209 0.021922467 -0.0005177706 0.008870366
-0.23931071 0.11795895 -0.4699904 0.55121404 0.32658127 -0.039194405 -0.3272763 -0.9881549
-0.15701748 0.7997679 -0.03369768 0.88461953 -0.106187575 0.16724075 -0.7279823 -0.36849305
0.64028406 0.14177832 0.51035607 -0.32019293 0.5012866 0.14913426 -0.40014946 -0.12032797
-0.48893756 -0.1835909 0.35303283 -0.20358784 0.12736362 0.16582786 -0.37370738 0.12438591
0.86620796 0.30995756 0.15022883 0.5995518 -0.7109408 -0.3681937 0.0068335375 -0.01527363
0.11592757 -0.36117247 0.11887477 0.32054114 0.18013617 -0.21321025 0.3318902 0.44138533
0.49867034 0.26828063 -0.12169559 -0.41188386 0.23858236 0.20129928 -0.20257117 0.17754123
-0.52052367 0.16850308 0.6427892 0.48611385 0.21752952 0.10469513 0.032559294 -0.1270217
-0.20463686 -0.055079 0.14471807 0.23914358 0.57362056 0.13574582 -0.11460751 -0.30179352
0.2149397 0.5597197 0.5787598 -0.13743444 -0.17278218 0.75384086 -0.21820691 -0.9063001
-0.13234253 0.23258609 0.17844824 -0.6644007 -0.10348076 -0.6332413 -0.30473846 0.035170563

lstm.weight_hh_l0 f4 [256, 64]
00000000: ba4e 91bf 00e6 f43c 3534 443d 6cb6 b0be
00000010: ce21 2a3f 414f 8abe 0ef6 103f 457b afbf
00000020: 9fbd b8be 804c 353e 47cc d8be d544 6abe
00000030: 3c67 233f 142d 293d 7449 1e3f 328f 1bbc
00000040: 3238 dc3e f260 4dbd 76c0 6cbe baed 723f
00000050: 14f0 69bf 9614 7fbf 7b17 4fbe 675b eb3d
00000060: ea92 45bd 7a1d 533f e5c3 d03d 1dcf eb3d
00000070: 878d 193e aa25 acbe fa13 d73d 0992 51bd
00000080: 77c8 5bbf 07bd 1dbf 3414 80be 38df 08be
00000090: c467 e83c b25a dc3e d407 6e3f 00b3 473d
000000a0: f21c abbe 5dc7 3ebe c27e 803f 4cf6 cabe
000000b0: 52cd bc3d 49d0 4e3e 1645 88be 099b d63d
000000c0: d882 25bd 8354 4f3c c3f4 c0bc e1f0 36bf
000000d0: bf0c 02bf 7efe f43d e22a 88ba 93f0 4d3e
000000e0: 1269 e0bd 0bbc 29be 06f5 a63b b024 053f
000000f0: 1583 043f a382 66be 1e0b af3e 2546 5bbe
00000100: c703 2bbe 2dc2 33be 5644 023e 4c4e 22be
00000110: 653f 1fbf b688 a73e 0560 bf3e fd37 f53d
00000120: a4c7 61be 0403 d3bd 3901 d53e d7c7 33bd
00000130: 29de d3bc e6cb 523e 5655 49bf 8867 6abe
00000140: b1d8 4c3f 0920 123e 89c5 28bf 8fae 3d3e
00000150: 78ed 963f 1339 a03e 0bb6 523f 1003 9bbe
00000160: d79d b33e c48e 3f3f cc70 abbf e9bb 7abd
00000170: c4d7 bf3e 047b 853e 5997 e1be c5b4 43be
00000180: ca13 94be 995e 843c a3c4 2e3e 695a cdbe
00000190: 6abe e8be 7153 823d 9a16 873e 9b23 ed3e
000001a0: 6b46 ed3e b83f abbe 4c06 98be 27e9 99be
000001b0: 3fe3 03bf 8229 ac3d 1aa0 683e 0742 e73e
000001c0: 30be debd 0a3c 24be d82f 913e eeb5 8c3f
000001d0: bbaf 1ebf 24d0 50bd 7cc5 bbbe 352f 283f
000001e0: 39c4 d63e 2729 473e ddd2 d8bd 56c8 04bf
000001f0: 777f 45bb c0d7 1f3f 7d3e 70be 6987 793f
00000200: b065 7bbf 94a4 0cbe 7df7 26be b0dc 37bc
00000210: 24b0 0d3c a9a4 063d 468c 023f 386a 8dbf
00000220: 94d6 003f 097f 46be 0f68 68bf 2649 e7be
00000230: 4830 b4bc b034 18bf e578 d23d 65ed 09bf
00000240: d586 e83e 735b 61bd 3425 9abd 82f7 6ebe
00000250: 09d4 693e 0bae 1e3f c9a6 183f fbbf 393f
00000260: 4fdb 353e 8445 8a3e ad05 cfbe 5ad9 f3be
00000270: 03ac 81be 66c5 7abe a35e 373f d354 983d
00000280: 8096 11bf 4280 3bbd d5ae f0bd fb3f 113f
00000290: 3027 e03e 2960 b63d 27e6 51bf 4895 b0be
000002a0: ce87 c03d 49b5 1b3f 95ac 86be f3fa 393e
000002b0: 1a0f 823d 6fea 94be 514d 4b3f d2d4 013d
000002c0: 4305 acbe cace 14be d757 993e d204 b0bc
000002d0: 56d3 11be 8ad3 21bd 2e01 0b3f 59d4 0c3e
000002e0: 6bd5 d73e 7d54 b9be e841 2e3e da2f 7b3d
000002f0: c080 ca3d 7a71 6a3e 1a44 f73e c62e a4be
00000300: a252 183e 9488 8cbe 24e3 c9be 3d72 4d3e
00000310: ed3e aabe d53e 62bd 87dc bcbe bc8a b03e
00000320: 3128 a13e 3f51 053f 012f 2cbe dc48 12bc
00000330: 1a37 a9be 6572 4dbe 8f25 c8be 1bba 3bbd
00000340: 772d 893e 45e0 e2be 249d c1bd 004b 6c3f
00000350: e431 1b3e afcb efbb a871 95be 22b0 b6be
00000360: 3eb9 233c 6ae1 c83e c4c0 063f f380 dbbd
00000370: 5f66 773e 7742 73bf 7f09 2e3e 4153 03be
00000380: 9518 6cbe b5dc 28bf facd 423e a287 163e
00000390: 597e 213e 9f2e 9bbf 7a09 893e 5422 89bd
000003a0: 4850 4d3e 6c82 2cbf 5ea0 863e 719d 003f
000003b0: 01cf 1cbf 9ff2 f03e 9d81 cebe 039e 37bd
000003c0: ea07 1cbe f539 453f 8830 243f 8c1b 7a3f
000003d0: b5df 1e3f 0361 f6bd f173 33be a313 c7be
000003e0: 112e b63e a258 e1bc 8148 65be 71fc 943e
000003f0: 205f bbbe bfb5 6e3e 8935 ed3e 7559 1f3e
-1.135215 0.029894829 0.04790135 -0.34514177 0.6645783 -0.2701359 0.5662545 -1.3709494
-0.3608217 0.17704964 -0.4234335 -0.2287782 0.638294 0.041302755 0.6183083 -0.00949459
0.43011624 -0.050141282 -0.23120293 0.9489399 -0.91381955 -0.99640787 -0.20223801 0.11492043
-0.04823581 0.8246685 0.10193614 0.11514113 0.14995395 -0.33622485 0.10501857 -0.05116466
-0.8585276 -0.6161656 -0.25015414 -0.13366401 0.028369792 0.43037945 0.92980695 0.048754692
-0.3342052 -0.18630739 1.0038683 -0.39641035 0.09218849 0.20196642 -0.26615208 0.10478789
-0.040407985 0.0126544265 -0.023554211 -0.714613 -0.508007 0.11962603 -0.0010388757 0.20111303
-0.109575406 -0.16575639 0.005095127 0.52009106 0.51762515 -0.22510771 0.3418817 -0.21413477
-0.1670066 -0.17554541 0.1272138 -0.1585018 -0.6220611 0.3272149 0.37377945 0.119735695
-0.22048813 -0.103033096 0.41602495 -0.043891754 -0.02586277 0.20585594 -0.7864584 -0.22891057
0.80018145 0.14270033 -0.65926415 0.1852362 1.179122 0.31293544 0.82309026 -0.30275774
0.3508136 0.7482722 -1.3393798 -0.06121436 0.37469304 0.26070416 -0.44060782 -0.19111927
-0.28921348 0.016158389 0.17067198 -0.4010804 -0.45457774 0.063635714 0.2638443 0.46316227
0.46342787 -0.3344705 -0.29692304 -0.30060694 -0.51518625 0.084063545 0.22717324 0.45167562
-0.10876119 -0.16038528 0.28356814 1.099302 -0.61986893 -0.05097975 -0.36674106 0.6569703
0.4194658 0.19449292 -0.10587094 -0.5186819 -0.003013579 0.62438583 -0.23461337 0.97472245
-0.9820204 -0.13734657 -0.16305347 -0.01122205 0.008647952 0.032871876 0.5099529 -1.104804
0.5032742 -0.19384398 -0.9078378 -0.45172995 -0.021995679 -0.59455395 0.10276965 -0.5387786
0.4541537 -0.055018853 -0.07526627 -0.23336604 0.22834791 0.6198432 0.59629494 0.72558564
0.17759441 0.2700616 -0.40434018 -0.47626764 -0.25326547 -0.24489364 0.7162878 0.07438054
-0.5687027 -0.045776613 -0.117520966 0.5673825 0.43779898 0.0890506 -0.8199181 -0.34488893
0.09400903 0.60823494 -0.26303545 0.18162136 0.06350537 -0.2908511 0.7941485 0.031697102
-0.33597764 -0.14532009 0.2994983 -0.021486674 -0.14240775 -0.03950838 0.54298675 0.13752879
0.42155012 -0.36197272 0.17017329 0.06132493 0.09887838 0.2289485 0.48294145 -0.32066935
0.14875272 -0.2744795 -0.39431107 0.2006311 -0.33251134 -0.055235703 -0.36887 0.34480846
0.31475976 0.52077097 -0.16814806 -0.008928504 -0.33049852 -0.2006317 -0.39091155 -0.04583178
0.267925 -0.4431173 -0.094538 0.9230194 0.1515575 -0.007317982 -0.29188275 -0.35681254
0.009992896 0.39234477 0.52637887 -0.107179545 0.24160145 -0.9502329 0.1699581 -0.12824728
-0.23056252 -0.6596177 0.19023886 0.14700177 0.15770854 -1.2123603 0.26765043 -0.06696001
0.20050156 -0.6738651 0.26294225 0.50240237 -0.6125336 0.47060105 -0.40333262 -0.044828426
-0.15237394 0.7704156 0.6413655 0.97698283 0.620601 -0.12030222 -0.17524697 -0.3888217
0.3558202 -0.027508084 -0.2239094 0.29098848 -0.36596012 0.23311518 0.46329907 0.15561469

lstm.bias_ih_l0 f4 [256]
00000000: 684a e33e 389c 423e a470 023e ff3a 603e
00000010: 24cd 043e bc4d 81bc 1899 b0bc f396 853e
00000020: d21f b63d 9232 a23c 2ee3 5b3e 7048 90be
00000030: 2779 9d3e 717f 1f3e fcad c03d 89da 503d
00000040: 229c 663e 6bea 81be 69ce fb3d e6bd d43d
00000050: 3caa ea3e 27f0 77bd 1bd8 b3be b390 4f3f
00000060: d2b4 18bd c819 5bbd 367d 653e 2cff 8ebe
00000070: 3217 df3c a18c 843e bf84 f03c a294 cb3d
00000080: c599 073e 2bee 1fbe 142e 703e 9cd6 893e
00000090: 23a0 df3d 7b1c 453e 3dd8 13bd 4b53 dfbd
000000a0: ab2a 3d3e 8e19 133f a6a7 343d a372 053e
000000b0: 44e9 d33d a9ac e33d 3633 3c3d 4a75 a03e
000000c0: 3413 143d dcb6 de3d 0b8c 10bc 6858 e8bd
000000d0: d43a 663e 163e 6bbe 5a71 fcbb d954 1f3d
000000e0: e6fa 813e 3f8a ee3e 5e2a d73d 2aca a7bc
000000f0: b79c 623e 71bb 81be b2fb c93e 73d3 9fbe
00000100: 4588 9abe 415f b0be 5d26 b0be 4e3f acbe
00000110: 1f85 28be 7643 3bbb c664 0ebe e84f a2be
00000120: 8b86 f7be 73f4 89be 9005 31bc 96bb 58be
00000130: 7ba6 5f3b 5ba2 0dbd f891 d6bc 0418 89be
00000140: c28b 7ebe 5aa8 a53d 643b ffbd 8bda 00bd
00000150: 5acc e83d c1f0 b2be 736f 27bf e46d aabe
00000160: 4361 353e cf1a abbd f131 03be 7940 fdbe
00000170: 4451 93be 0492 94bc 37dc 13bf 51e9 ecbe
00000180: 6452 5bbb 34eb 143d 422c 5abe 9d65 843e
00000190: 0e8f 47be 5977 46be 11f5 03be efbb 0b3e
000001a0: ba28 393e 58fa 0e3d 3e7d 7fbd 01d0 b5be
000001b0: 5306 dcbd 746d 2abe 4165 19bd 9163 2abe
000001c0: 1705 a93d ec2b f3bd 676a fdbe 202f b6be
000001d0: 89db 49bd ffe2 99be d535 7cbf 9d5c 20be
000001e0: ab1c d4be dc00 833d ef7c 7ebe 4f20 83be
000001f0: 023a 6a3d 11bd c9bd 5689 933d 082d a9bc
00000200: c1f7 85be d7d8 713d 6714 3cbc 2e53 6abe
00000210: 0f69 5c3d 9ec8 47be e166 863e 3d29 dabd
00000220: bcb9 8abe 4c6d 9c3e 2fed 9fbd 7edc 6abd
00000230: 7119 a43e 1561 a6be af4d b0bd 03bf 973d
00000240: 3326 de3e 330b ef3d e047 a5be 27cd 85bd
00000250: 60db 6cbd ea5c 76bd 7bc6 493e c636 f33e
00000260: 6b17 97bd 7cf1 78bd ad07 323e 47a4 6abe
00000270: 051f 8f3e aa5a 08be 2ebe 463e 2f13 42be
00000280: b656 52be 6adc 4cbd 157b 1e3e 290a 913d
00000290: 5fd7 33be c8a2 7abd fc27 00bd 7eb2 28be
000002a0: beef 253d e910 42bd 802d 0fbe a1b5 27be
000002b0: 4fc8 7e3e aa8c aebe 79c8 a83e cd5c 253e
000002c0: 6988 463e cef3 f43d 757d e33d 7ec2 d5bd
000002d0: afb1 a33c 802f 8b3d 7abf 89be f84d 6abe
000002e0: 4938 afbd f517 44bd 2c86 a5be df47 af3d
000002f0: 4755 c13c bd19 0c3f c684 603e 77d2 1e3d
00000300: 99c9 e43d 8f03 1e3f 2060 f63e 40d1 4d3e
00000310: 0f7b 0ebd f81e 85bd d73f c93e fc1b 853f
00000320: 27b1 d1be 702a 80bd c56a 003f a0ee b13e
00000330: 3da9 7abe ebbb 173f a2ca d23e 3f72 443e
00000340: a2cd 7ebd 85e7 013f a09e c73d 7fc3 503e
00000350: e0f4 5bbe 0bdd e9be 09dd 233e e366 89bd
00000360: 4057 1abe 914f 863e 9f31 be3d 82b2 9abd
00000370: f074 f9bd 3bab 353f 7083 0d3f 2b86 9b3e
00000380: 47ef f8be 6c34 ffbd 7420 51be ca6c b7bd
00000390: aa9f 12be bf98 4c3e 24a5 503d 01b5 0dbe
000003a0: f5d2 96be 28a8 1a3f cbd4 4fbe 265c 9f3e
000003b0: 7f2d fb3e 20d2 0f3f 5956 6b3e 0ae1 1f3e
000003c0: e11b f33b 1657 473e 226e 963e 37fd f03d
000003d0: 8b13 323e fe04 c1bd df7d 853c ee8f 4a3c
000003e0: 1fc3 bfbd 78cd 123d 247f 1dbf 770c 3f3c
000003f0: b590 1f3e b0fa 613e a3c2 d2be d412 76be
0.44392705 0.19004905 0.12738281 0.21897505 0.1296888 -0.015784137 -0.021557376 0.26091728
0.08892788 0.019799504 0.21473381 -0.28180265 0.30756494 0.15575959 0.09408185 0.05098966
0.22520497 -0.2537416 0.12295229 0.10387783 0.45833004 -0.06053176 -0.35125813 0.8108017
-0.03728182 -0.053491384 0.22411045 -0.27929056 0.02723274 0.2588854 0.029360173 0.09940459
0.13242252 -0.15618198 0.23455077 0.26921546 0.109192155 0.19249146 -0.036094893 -0.10904559
0.18473308 0.5746087 0.044105195 0.13032012 0.10347226 0.11116917 0.045947276 0.31339484
0.036151126 0.108747214 -0.008822451 -0.11344987 0.22483379 -0.22972903 -0.0077039422 0.038899276
0.25386733 0.46589848 0.10506128 -0.020482142 0.22130094 -0.2533832 0.3944984 -0.3121601
-0.3018209 -0.34447673 -0.3440427 -0.33642048 -0.16457032 -0.0028574145 -0.1390563 -0.3170159
-0.48344836 -0.26944312 -0.010804549 -0.21165308 0.003412633 -0.034578662 -0.02619265 -0.26776135
-0.24858001 0.08088751 -0.124625 -0.03145842 0.11367102 -0.34949306 -0.65404433 -0.33286965
0.17712884 -0.08354723 -0.1281202 -0.4946325 -0.28772938 -0.018136032 -0.57757896 -0.46271756
-0.0033465857 0.03635712 -0.21305946 0.25858775 -0.19488165 -0.19381465 -0.12886454 0.1364591
0.18081942 0.034906715 -0.0623753 -0.35510257 -0.10743394 -0.16643316 -0.03745008 -0.16639544
0.08252924 -0.11873612 -0.4949524 -0.3558283 -0.04928163 -0.30055997 -0.9851964 -0.15660329
-0.41428122 0.06396648 -0.24852346 -0.25610587 0.057184227 -0.09850515 0.07203929 -0.020651355
-0.26165584 0.059044685 -0.011479474 -0.22883293 0.05381113 -0.19510123 0.26250365 -0.10652397
-0.2709483 0.30552137 -0.07808911 -0.057339184 0.3205066 -0.32495943 -0.08608567 0.074094795
0.4338852 0.11672058 -0.322814 -0.0653327 -0.0578264 -0.060147204 0.1970462 0.47502726
-0.073775135 -0.060777172 0.1738574 -0.2291423 0.27953354 -0.13315836 0.19408485 -0.1895263
-0.2054089 -0.05001489 0.1547664 0.07082016 -0.17562626 -0.061190397 -0.031288132 -0.1647434
0.04051184 -0.047379408 -0.139822 -0.1637788 0.24881099 -0.34091693 0.32965448 0.16148682
0.19387974 0.119605646 0.111079134 -0.10437487 0.019982187 0.06796169 -0.26903898 -0.22881305
-0.085556574 -0.04787441 -0.32328928 0.0855863 0.023600234 0.54726774 0.21925649 0.038774934
0.11171264 0.6172418 0.48120213 0.20099354 -0.034785327 -0.065000474 0.39306518 1.0399165
-0.4095547 -0.06258094 0.5016292 0.3475237 -0.24478622 0.59271115 0.41170222 0.19184206
-0.062207825 0.50743896 0.09747052 0.20387076 -0.21480131 -0.45676455 0.16002287 -0.06709077
-0.15072346 0.2623258 0.09286808 -0.07553579 -0.12180507 0.709644 0.5527868 0.303758
-0.48620054 -0.124611706 -0.20422536 -0.08956297 -0.1431872 0.19980143 0.05093874 -0.13838579
-0.29457822 0.60412836 -0.20296018 0.3112499 0.49058148 0.5618 0.22982158 0.1561319
0.007419095 0.19466814 0.293809 0.11767047 0.17390268 -0.0942478 0.016295372 0.012363417
-0.09363388 0.03584048 -0.61522126 0.011660687 0.15582545 0.22068286 -0.4116412 -0.2403062

lstm.bias_hh_l0 f4 [256]
00000000: 0691 ee3e d1b1 7d3e 601d 073e bf5d d33e
00000010: f006 f63d f6ad 81be 68d3 cebd 4989 8c3e
00000020: ff7d 093e bc08 673d e5c8 0b3e 18e2 05be
00000030: 9cca af3e e3a2 9d3e d298 4a3d 7f1e 05be
00000040: 307d 843e 4afa 80be 7ede a03e 04f0 493e
00000050: a449 fd3e 47aa 8fbe 4311 a5be 3964 3e3f
00000060: 50a6 353d 106e c5bc 496b 853e 0ea0 5dbe
00000070: b8a6 2c3e 65b0 423e 8847 6abc ef1d 99bc
00000080: 2131 163d 6599 83be d6d2 8b3e 5d63 893e
00000090: 7175 d2bc 84fb a73e b7dd 39be 7864 42be
000000a0: 502d 60bd 6707 073f 1b8c 2ebd 0b0f 263e
000000b0: baa8 753c aa9c a03c 356f 363e 6e03 a13e
000000c0: c3e6 5d3d 2fb4 4c3c ede6 793d 7ea7 e9bd
000000d0: 80e6 6c3e 85f4 a1bd b789 113e 9ca4 ed3c
000000e0: 02b5 f43c 15b1 fe3e a667 1f3e cc78 c83c
000000f0: a870 c63d 2e4c 56be 2466 963e 1855 74be
00000100: a610 9cbe f8e4 97be b4dd 69be 2ef8 b4be
00000110: c4c3 a0bd f4cc 48be fa56 6c3d dc9d a5be
00000120: 706b bbbe a512 55be e69f 82bd 3745 8dbe
00000130: 2840 6cbd fe8f d3bd 3bcf 083d 15f7 8fbe
00000140: 6abd e1be 0d87 d53d ed6d aebd aae3 c5bd
00000150: 3035 5a3d 0400 8bbe e2a9 40bf 7783 86be
00000160: a80b 793e 8c1c 5fbe d545 35be 02d7 1dbf
00000170: e194 b1be 6df2 8a3c 4dc0 ebbe 4763 08bf
00000180: fa05 dabd 9e79 40bc 612b 9abd b4dd 5e3e
00000190: b3a6 9cbe 00c3 9abe fb8c 24bc b6ec 903e
000001a0: 7693 2f3e 400c 7bbd 027c 72be 00de 94be
000001b0: 085a 9cbd 0e66 5dbe f90b ffbd 3ba0 2bbe
000001c0: bc96 c13d 577e 7dbd c1fe bdbe a7a5 05bf
000001d0: 0378 debd e74b acbe 96db 53bf 54b2 6bbe
000001e0: 84ff d8be 1cc6 733d 51c7 a2be 6e55 b7be
000001f0: 65bd 1e3b f837 09be 7d16 a5bd c274 853d
00000200: cfa4 67be 3e43 523e 823f 60bd 048d e7bd
00000210: 5116 a8bb a4ac b9bc c635 a13e 9a29 07bd
00000220: 7f87 b3be 77ec f03d 2e4d bcbd 0b61 a8bd
00000230: e9dd 983e 1f54 4ebe 7ee2 fbbd bb7c 7c3d
00000240: a9ec dc3e e0f0 c83c 52e8 64be 1dc5 06bd
00000250: ca07 2b3d 5153 5fbd a03c 0a3d 9c4c fa3e
00000260: 36c0 24bd 72bb cfbd 4b48 2b3e 7c2b 8cbd
00000270: 1404 0a3e 1a1e 75be 5e1e 783e 5e0b 89be
00000280: b19d 2fbe b960 58bd 160f 7a3e 248c 903e
00000290: 3325 93bd 5b8f 86bd 8d28 00be b64e 9fbd
000002a0: ebb6 d03d 4f70 39bd 8254 b1bd a94d 89bd
000002b0: 46b6 a53e 1ae8 85be 8b8c 4a3e 6543 9d3e
000002c0: 8c40 153e 3d95 4e3d f49e 113e a112 f6bd
000002d0: f1e5 2fbe 3bcf 25be 92f8 31be 71a0 a9bd
000002e0: 2d1b 03be 0044 bbbd a57f 9dbe 439b 553d
000002f0: 3927 233e de2d 003f 8123 d43d 339d bc3d
00000300: ac5f 363d 22d6 413f 761f 213f 938f 963e
00000310: 2399 13bd 36ad e0bc e76d f53e b5c3 703f
00000320: 3752 aebe be2f df3d 55cf d33e d036 653e
00000330: 2e22 7bbe dd8a 063f 9104 0a3f 0039 4d3e
00000340: 0af7 f1bc 863c fb3e f264 c73c 02a3 2e3e
00000350: 6e62 3ebe 14c7 80be b190 283e 79dc 8dbe
00000360: 7444 4abd 88e2 d33e 6cbd 573d cb71 5cbe
00000370: 92ec eabd 78ff 263f 56a1 fa3e 65c8 933e
00000380: d649 0dbf 9eb2 803d a6ac 86bd ee3a c33c
00000390: 7e89 3ebe 803f b73d a28a 003d e395 00be
000003a0: 2b8c cabe f243 f83e 358a 04be 155f c73e
000003b0: f66d 343f afa6 be3e 856f 243e e1ce a93e
000003c0: ba4d debd 2829 613e 3e82 bc3e eedd 063e
000003d0: b6c4 443e bf0a efbd 29cf a5bc fbab 6d3d
000003e0: 6437 cd3d b4b1 0b3e 6ebd 04bf 1e35 6b3d
000003f0: 75fa ff3d 0f0a 913e 2e93 ccbe 6e59 79be
0.4659502 0.24774863 0.131948 0.4128246 0.12013042 -0.25328034 -0.10098916 0.2744849
0.1342697 0.056404814 0.13650854 -0.13074529 0.34334266 0.30788335 0.049462147 -0.12999915
0.2587676 -0.25190955 0.31419748 0.19720465 0.49470246 -0.280596 -0.32239732 0.7437168
0.04434806 -0.024100333 0.26058415 -0.21643087 0.16860473 0.19012602 -0.014299281 -0.018691031
0.036667947 -0.25702968 0.27309293 0.2683362 -0.025690766 0.3280908 -0.18150984 -0.18983638
-0.054730713 0.5274567 -0.042614084 0.16216676 0.014993841 0.019605953 0.1781586 0.3144793
0.05417515 0.012494131 0.061011244 -0.114089 0.23134804 -0.079079665 0.1421269 0.029009156
0.029871468 0.49744478 0.15566882 0.024471663 0.09689456 -0.20927498 0.29374802 -0.23860586
-0.30481452 -0.29666877 -0.2283848 -0.35345596 -0.07849839 -0.19609433 0.057700135 -0.32347
-0.36605406 -0.20807894 -0.063781545 -0.2759187 -0.05767837 -0.10330199 0.033400755 -0.28118196
-0.44089824 0.104261495 -0.085170604 -0.09662564 0.05327338 -0.2714845 -0.7525922 -0.26272175
0.24320853 -0.21788234 -0.1770242 -0.616562 -0.34683898 0.0169613 -0.4604515 -0.53276485
-0.10645671 -0.011747746 -0.07527805 0.2176426 -0.3059593 -0.30226898 -0.010043378 0.28305596
0.17146096 -0.06129098 -0.23680118 -0.29075623 -0.076343596 -0.21620962 -0.124534555 -0.16760342
0.094525784 -0.061888065 -0.37108424 -0.5220589 -0.10862734 -0.3365166 -0.82756937 -0.23017246
-0.42382443 0.059515104 -0.3179269 -0.35807365 0.0024221775 -0.13400257 -0.0806093 0.065164104
-0.22621463 0.20533463 -0.054748066 -0.113061935 -0.0051296134 -0.02266533 0.31486338 -0.03299866
-0.35064313 0.11763852 -0.09194408 -0.082216345 0.29856804 -0.20149277 -0.12299059 0.06164239
0.43149307 0.02452892 -0.22354248 -0.032902826 0.041755475 -0.054522816 0.033749223 0.48886573
-0.04022237 -0.10143174 0.16726796 -0.068442315 0.13478118 -0.23937264 0.24230334 -0.26766485
-0.17149998 -0.052826617 0.24419817 0.2823192 -0.071848296 -0.06570312 -0.12515469 -0.07778685
0.10191139 -0.04527312 -0.08658697 -0.067042656 0.32365626 -0.26153642 0.19780175 0.3071548
0.14575404 0.050435293 0.14220792 -0.12015272 -0.1717756 -0.16192333 -0.17379978 -0.08282555
-0.12803335 -0.09143829 -0.30761448 0.052150022 0.15932931 0.5006999 0.10358334 0.09209671
0.044524834 0.75717366 0.6293863 0.29406413 -0.036034714 -0.027426343 0.4793541 0.94048625
-0.340471 0.10897778 0.4136912 0.2238419 -0.24524757 0.5255564 0.5391322 0.20041275
-0.029536743 0.49069613 0.024340127 0.1705437 -0.18592235 -0.25151885 0.16461445 -0.2770727
-0.04938169 0.41383767 0.05267088 -0.21527784 -0.114709035 0.65233564 0.48951215 0.28863826
-0.5519079 0.062840685 -0.06575899 0.02383181 -0.18607137 0.089476585 0.03138221 -0.12557177
-0.39560065 0.48489338 -0.12943347 0.3893973 0.7048029 0.37236544 0.16058166 0.3316565
-0.10854669 0.21988356 0.36818117 0.13170597 0.19215664 -0.116719715 -0.020240383 0.05802534
0.100203305 0.13642007 -0.51851547 0.057423703 0.12498943 0.28327987 -0.3995604 -0.24350521

actor_mean.weight f4 [1, 64]
00000000: 60a9 e53d c557 bb3c 7831 d43c a624 6ebe
00000010: 38e2 d73e 6b09 04be e732 99bd 9f68 c2bd
00000020: 61b4 7ebd e1f4 aabd d157 29bd d0df f3bd
00000030: bdcd 61be c1e2 b33b 0c2d 893c 9397 1ebf
00000040: 9055 66bd 12c6 1bbe 2bdd 90bd b043 263d
00000050: 0349 56be 8af3 ca3d eb20 553e 6ec5 f4bc
00000060: aa16 023d ee8a 63bc bc7a f63c 974f 20bd
00000070: 938e 1dbe bb38 c43e 3806 fcbd 27a0 00be
00000080: 2a7c a2bd 236c 123d 6cd6 573e 54f0 0b3e
00000090: 5081 08be 6629 743c 6f5c 4abc afa0 88bd
000000a0: 61eb dfbe f362 dc3d 4aa6 683f 7255 67bd
000000b0: f914 abbe b064 3d3e 67e4 b3bd f714 9f3d
000000c0: 1d87 ad3e abc2 98bd bc48 0cbe 8d4b 493d
000000d0: 4526 b43e 2892 d83c 9f11 97bb 709a 9b3c
000000e0: 5ab7 ef3d 1518 b1be 0376 47ba fe10 58be
000000f0: 15fa 83bd 2edc 28bd 3e3b ab3c cc7f 173e
0.11213946 0.022869 0.025902495 -0.23256168 0.4216478 -0.12894218 -0.07480412 -0.09492611
-0.06218374 -0.08347488 -0.041343514 -0.11907923 -0.22051139 0.0054896777 0.016745113 -0.61950034
-0.056233943 -0.15212277 -0.070734344 0.040591896 -0.2092629 0.09909733 0.20813338 -0.029879298
0.031759895 -0.013888104 0.030087821 -0.039138403 -0.15386419 0.38324532 -0.12305874 -0.12561093
-0.07933839 0.03574766 0.21077889 0.13665897 -0.13330579 0.014902448 -0.012351139 -0.06671273
-0.43734267 0.107610606 0.90878737 -0.05647797 -0.33414438 0.1849544 -0.08783799 0.077676706
0.33892146 -0.07459005 -0.13699621 0.049144316 0.35185447 0.02643688 -0.004610255 0.01899454
0.117048934 -0.34588686 -0.00076088327 -0.21100232 -0.06444184 -0.041225605 0.020902272 0.14794844

critic.weight f4 [1, 64]
00000000: b05d 7bc1 7ac5 8a41 c9e3 8e41 d0ec 70c1
00000010: 151c d3c0 75a1 8641 315a 6341 072b 38c1
00000020: 8955 7041 b7a5 8841 7de8 5fc1 6456 69c1
00000030: ad6c 6f41 f8d0 71c1 c459 88c1 f378 0540
00000040: 4909 5b41 0861 8c41 a245 5441 0e11 8941
00000050: f5ec 04c1 eddb 6cc1 d8a5 8641 2847 32c1
00000060: 9758 8141 d4d2 7a41 8747 7841 3768 fc40
00000070: 9b0f 8341 b471 80c1 ba5d 78c1 dcc6 85c1
00000080: 74b2 0c41 1a7c 3a41 a454 55c1 b19c 8c41
00000090: 0720 78c1 1381 85c1 65bc 7f41 4d5a 8d41
000000a0: 1cbb 8dc1 5554 8c41 b9fd 5340 c87c 89c1
000000b0: 95ce 82c1 5c76 0a41 c3be 8141 121c 8341
000000c0: 0cdc c7c0 b8ab 8941 4676 55c1 b5ad 1e41
000000d0: 229a 69c1 6df9 83c1 dc67 3fc1 1dab 5dc1
000000e0: 567f 7641 de54 67c1 5c88 78c1 272f 8441
000000f0: 8bfe 6b41 e769 8c41 4a6e 8241 b7b3 73c1
-15.710373 17.346424 17.861223 -15.057816 -6.597178 16.828836 14.209519 -11.510505
15.020883 17.080915 -13.99426 -14.583591 14.964032 -15.113518 -17.04383 2.0855072
13.689767 17.547379 13.267 17.133327 -8.307851 -14.803693 16.830978 -11.142372
16.168257 15.676472 15.517463 7.8877215 16.38262 -16.05552 -15.522882 -16.7221
8.793568 11.655298 -13.333164 17.57651 -15.507819 -16.688025 15.983495 17.669092
-17.716362 17.541178 3.312361 -17.185928 -16.35087 8.653896 16.218145 16.388706
-6.245611 17.208847 -13.341375 9.917409 -14.60013 -16.49679 -11.962856 -13.854276
15.406088 -14.45822 -15.533291 16.523024 14.749644 17.55171 16.303852 -15.231376
