second_stage/latest_model.pth (torch, 524428 bytes, 30 tensors)

feature_extractor.0.weight f4 [128, 5]
000000 5e 74 50 bf ca d7 13 bf 11 73 32 40 e9 e1 43 3f
       -0.8142756 -0.5775114 2.788273 0.76516587
000010 39 70 d4 be d8 69 ea be a3 d1 e9 be 99 94 04 40
       -0.4149187 -0.45783877 -0.45667753 2.0715697
000020 8c 40 08 3f dc c7 a1 be 6a 52 19 bd d9 a7 61 3e
       0.5322349 -0.31597793 -0.03743211 0.22036685
000030 62 63 ec 3e 04 18 09 bd 6e 7f 8d be 5f a3 d9 3e
       0.46169573 -0.03347017 -0.27636284 0.42507455
000040 b6 c7 b3 3e cf 04 8b 3e 1f 8b 21 3e 5d ba 71 3d
       0.35113305 0.27152106 0.15775727 0.05901562
000050 14 a6 bf 3e 01 bf 81 3d df 49 af 3f e9 07 14 be
       0.37431395 0.06335259 1.3694419 -0.14456142
000060 9e b6 ff 3c ae b0 4d bf 2f 29 36 bd 58 79 2f bf
       0.031215008 -0.80347717 -0.04447287 -0.6854453
000070 2b ba 5f 3e 5f 0a af 3d ee 5c 5b be 17 aa da 3e
       0.21848361 0.085469 -0.21422169 0.42707893
000080 db 15 02 c0 71 59 f0 be 36 d3 c0 3d 1c f1 11 bf
       -2.032584 -0.46943238 0.09415285 -0.5700853
000090 86 5f 93 be 73 3a e5 3f 3e df ae 3e 5e 7b 90 3e
       -0.28783816 1.7908462 0.34154695 0.28219122
0000a0 30 46 1a 3f 66 12 7f be 23 dd fe 3f cd 38 fa 3e
       0.6026335 -0.24909362 1.9911236 0.4887146
0000b0 e0 62 90 bd fb 35 04 3f 08 b1 44 3d d1 d8 10 40
       -0.07050109 0.5164487 0.048020393 2.2632334
0000c0 f1 3e be 3e 14 5d bf 3b c9 3f df 3d ed ad a1 be
       0.37157395 0.005839953 0.10900838 -0.31578007
0000d0 d8 d0 f4 3f d8 77 f2 3e 15 bd c3 bd e8 69 ad be
       1.9126234 0.4735706 -0.09557549 -0.33869863
0000e0 9b 5d e9 bc 57 94 de 3f da 09 f0 bd 33 19 08 be
       -0.028487017 1.738902 -0.11720629 -0.13290863
0000f0 c9 35 e5 bf a4 2b a6 bd db 0a 2c bd a3 f2 1e 3c
       -1.7907039 -0.081137925 -0.04200254 0.009701404
000100 ca e7 6c 3d 4e ae 42 3e 97 e3 e2 bd 1a b9 33 bf
       0.05783824 0.19011804 -0.110785656 -0.7020432
000110 e9 7a 90 be e3 a9 76 be e9 4b dd be a1 f1 dd be
       -0.28218773 -0.24088244 -0.43221977 -0.4334841
000120 1f 60 86 3d 35 c6 2e 3e dc 10 5a bd c2 ea 1f be
       0.065613024 0.17067797 -0.053238735 -0.15616897
000130 42 89 c5 be 60 bc 91 3f 0c c4 6d 3e 35 8e 38 3d
       -0.38581282 1.1385612 0.23219317 0.045057494
000140 b2 78 68 bc d8 6a 48 3e 43 99 c8 be 7a a2 55 be
       -0.014188932 0.19572008 -0.3917943 -0.20862761
000150 56 ca 3d bd 96 3d 08 3f b4 d7 c7 3b 3e 4d 2a bf
       -0.04633554 0.5321897 0.006098712 -0.6652411
000160 af aa 2b 3e ae c0 64 3e 2f 38 cb 3e 15 e6 02 3f
       0.1676433 0.22339126 0.39691302 0.5113233
000170 dc 9b 02 c0 8b c9 02 bf e0 06 92 3e 49 3f 2d 3f
       -2.040763 -0.5108878 0.2852087 0.6767469
000180 2d 7c ab 3e 84 bc bb bf 59 b9 a2 be 9d 42 2c be
       0.33493176 -1.4666905 -0.31782034 -0.16822286
000190 da 65 5d bf 61 25 ed bd e9 fa 21 bf cd c6 f0 bc
       -0.8648354 -0.11579395 -0.63273484 -0.02939167
0001a0 bf 60 3e bf 66 3f 05 3e 22 5d aa 3e fa f1 c9 bf
       -0.7436637 0.13012466 0.3327418 -1.577697
0001b0 ff f1 e2 3a 0b a1 f0 bd 00 47 31 bf 0f 83 99 be
       0.0017314552 -0.117494665 -0.6924896 -0.29982802
0001c0 17 72 4e 3f 4b 69 85 3e 33 3a 91 3d 79 83 9b be
       0.8064284 0.26056895 0.07091179 -0.30373743
0001d0 e5 42 c4 3e c5 4c 2b 3e d3 5e 4b 3c 8b 96 7e bd
       0.38332286 0.16728504 0.012412745 -0.062155288
0001e0 c3 9f e3 3e c4 b5 19 3f 8c 55 09 c0 c6 28 0e bf
       0.44457826 0.6004298 -2.1458464 -0.55530965
0001f0 0c 02 a6 3e 4c 99 0f 3e ea b2 27 3f 18 0a 03 c0
       0.32423437 0.14023322 0.65507376 -2.047491
000200 b1 d1 23 bf dd bf 5b be 47 d6 ef be 5f 1b b3 3c
       -0.6399184 -0.21459909 -0.46843168 0.021863637
000210 ed 2b 21 3f 8e 54 78 3e 01 33 97 3d f0 66 7a 3c
       0.6295765 0.24251005 0.07382775 0.015283331
000220 4f 64 7d 3e 07 80 86 bf 12 05 aa be 47 6a f1 3d
       0.24745296 -1.0507821 -0.33206993 0.11787849
000230 7f 8a b8 3e 5f f3 a3 3e 4a c3 ec bf 10 ea f3 be
       0.36043164 0.32021615 -1.8497097 -0.47639513
000240 73 49 64 be 02 0b 81 3f 95 18 9d 3d a5 d4 c3 bf
       -0.22293644 1.0081484 0.07670704 -1.5299269
000250 e1 00 44 3e 8f 4b 2c 3d d2 61 7d 3f b0 b9 74 3d
       0.1914096 0.042064246 0.98977387 0.059747398
000260 33 dc 3d 3f 6e 63 5c 3d ed 69 99 3d d4 dc 66 be
       0.7416412 0.05380576 0.07490907 -0.22545177
000270 fe 36 cb be 4b c2 84 3f 35 87 92 3e c3 1e d2 3d
       -0.39690393 1.0371794 0.2861878 0.102597736
000280 a3 4b 5f bf 6f 8c f2 bd 80 cf a9 3e 88 eb 8e bd
       -0.8722479 -0.11843192 0.33166122 -0.06978518
000290 8d 28 8c ba 63 ee 56 bd f0 93 59 3e 87 27 a2 bf
       -0.0010693237 -0.052473437 0.2124784 -1.2668313
0002a0 c7 3f 6e 3e d6 02 ff 3d 5c 85 6c 3e 57 37 33 bf
       0.23266517 0.12451713 0.23097748 -0.70006317
0002b0 c4 6d 20 be 8f 2c b1 3e 72 ef ea bd 3d db 8c be
       -0.15666872 0.34604308 -0.11471452 -0.27511016
0002c0 77 5d 1c 3e 7a 03 96 3f 3a a9 f6 3d 80 22 1d be
       0.15270029 1.1719811 0.12043996 -0.15345192
0002d0 5f 86 04 bf 0d c2 c8 3c 5f 8a 8a bf 83 34 48 be
       -0.51767534 0.024506593 -1.0823478 -0.19551282
0002e0 30 77 ab bc 0e ec 41 bf a2 36 84 be 41 bb ed 3f
       -0.020930856 -0.75750816 -0.25822932 1.857277
0002f0 75 ac 87 3e d9 18 10 be 4a 25 43 bf 15 3c 0d be
       0.26498762 -0.14071979 -0.76228774 -0.1379245
000300 07 5f b7 bf d6 c4 02 bd 3e cb c1 bc 98 a0 70 3f
       -1.4325875 -0.031926 -0.023656484 0.93995047
000310 5d 27 f2 3d 1b 7a 66 bd d8 e4 67 3d 81 32 b0 3e
       0.11823914 -0.056268793 0.056614727 0.3441353
000320 64 52 10 bf 45 c9 2f bd 8d 44 97 bf 50 c2 26 be
       -0.5637572 -0.042916555 -1.1817795 -0.16285062
000330 26 6a d9 3b 15 88 44 bf 97 2f 31 be 7d 46 9d 3e
       0.0066349683 -0.76770145 -0.1730331 0.3071784
000340 38 6e 89 3d 90 8a 1e 3d f9 0b 77 be 85 43 e7 3c
       0.06710476 0.038706362 -0.24125661 0.028230438
000350 d1 35 bf bf 85 18 49 3e f0 d0 06 bc 5a 3d a0 be
       -1.4938298 0.1963826 -0.0082285255 -0.31296808
000360 57 df 9e bd a1 65 4c 3f e1 11 8f 3e 91 a0 06 be
       -0.077574424 0.79842573 0.27943328 -0.13147189
000370 24 a8 94 3f 61 87 09 3e 41 bf 67 3e 96 40 21 3d
       1.1613812 0.13430549 0.22631551 0.039368235
000380 d1 93 1a 3f 9f a3 8f 3f bd 47 0f bd f5 d0 00 3f
       0.603818 1.1221808 -0.034980524 0.50318843
000390 14 65 b8 3d 99 3b bf 3e 78 e1 54 3f 2b e4 10 3d
       0.09003654 0.37350157 0.8315654 0.035373848
0003a0 77 53 9d be 9e dc c1 3d 4c 23 e9 bd 29 06 53 bf
       -0.3072774 0.094659075 -0.113836855 -0.82431275
0003b0 e2 32 b8 be 91 c1 1d 40 06 30 22 3f b0 0c 21 be
       -0.3597632 2.4649394 0.6335453 -0.15727496
0003c0 d4 5a 74 be 76 2c 64 bd 84 e7 c9 3f cc d1 a4 3e
       -0.23862773 -0.055706464 1.5773778 0.32191312
0003d0 27 9d 36 bf bf 32 15 3f c6 29 e4 3e 80 bb f9 bf
       -0.71333545 0.5828056 0.4456312 -1.9510345
0003e0 10 87 cd be 0d 07 52 3e f4 18 e2 3e 9b d0 2a 3e
       -0.40142107 0.20510502 0.44159663 0.16681139
0003f0 b8 71 eb 3e 51 39 68 be c2 f2 00 3e 96 38 1f be
       0.45985198 -0.22678114 0.12592605 -0.1554893

feature_extractor.0.bias f4 [128]
000000 c4 dd 9b 3e f3 2f 91 3d bd a9 0b 3e d0 c8 2c 3f
       0.3044263 0.07089224 0.13638969 0.67493916
000010 59 7f ad 3f 86 ca 0c 40 1f 03 f4 3d 45 a8 1a bf
       1.3554488 2.199861 0.11914658 -0.6041301
000020 fd 45 8b be df 2f 34 3f 73 91 66 3e ec 5b 45 3f
       -0.27201834 0.70385545 0.22516422 0.77093387
000030 96 20 92 c0 58 70 dc 3f aa ed bf 3f 89 b7 3a 3f
       -4.566478 1.7221785 1.4994404 0.729363
000040 9d b7 3c 3e bb f7 df 3e fa 7b 13 bf f4 20 83 bd
       0.18429418 0.4374369 -0.5761105 -0.0640277
000050 76 0e b1 bd bc 45 6e 3f ca 1b 36 bf 2f f3 67 3f
       -0.08645336 0.93075156 -0.7113615 0.90605444
000060 b0 f0 c2 be b4 0d 0c 3e a6 dd d7 3e af 12 f7 3f
       -0.38074255 0.13677102 0.42161292 1.9302577
000070 bd 23 0d 3e 56 7b ec 3f 7c 46 e5 bf 04 71 13 be
       0.13783164 1.8475139 -1.7912135 -0.14398581
000080 62 fd bf 3f 8d f0 96 3f d9 02 83 3f c8 b1 f2 3f
       1.4999201 1.179216 1.0235244 1.8960505
000090 72 3c ca bf 0c 58 71 bd a7 9d 10 c0 9b 4e 9f be
       -1.5799696 -0.05892186 -2.2596223 -0.3111466
0000a0 8e 9f 68 3f 14 94 2c c0 99 33 9e bf d2 41 dd 3f
       0.9086846 -2.696538 -1.2359496 1.7285712
0000b0 29 8c 05 c0 e4 21 24 bf 7c db 1c c0 19 9b 67 3f
       -2.0866797 -0.64114213 -2.4508963 0.90471035
0000c0 bf c2 f3 be 71 b5 b6 be 5c 27 7b bf 29 43 4e 3f
       -0.47609517 -0.35685304 -0.9810693 0.8057123
0000d0 b1 91 35 3f 36 dc 28 3f b4 dd b5 3f ae ab 27 bf
       0.7092543 0.65961015 1.4208283 -0.6549634
0000e0 eb 89 28 bf cf 68 f7 3f 75 58 f4 3e 3b c8 2a bf
       -0.65835446 1.932886 0.47723737 -0.6671178
0000f0 72 69 4f 3f 0c 4f 40 3e 2c 5c 21 bf 61 a6 8b be
       0.8102027 0.18780154 -0.6303127 -0.27275375
000100 b6 54 98 3e fc df 73 bf 96 14 71 3e 05 b9 a9 3f
       0.2975213 -0.9526365 0.23543009 1.3259588
000110 2e d9 42 be 60 ae 19 40 54 06 ec be f8 8c de 3f
       -0.1902816 2.401268 -0.46098578 1.738677
000120 fa 5a aa bf 46 29 44 bf 30 41 12 bf f2 0a 13 3f
       -1.3309014 -0.7662548 -0.5713072 0.57438576
000130 c2 b7 6a bf 9f d1 d9 3f 33 71 f6 be 35 34 59 bd
       -0.9168664 1.7017096 -0.4813324 -0.053028304
000140 9e 08 bb 3f 4e a0 b0 3f d5 2d 4c bd cc 88 a5 be
       1.4612005 1.3798921 -0.049848396 -0.3233093
000150 1e 5a 53 c0 da 05 87 bf d7 3b b2 3f bf d8 59 be
       -3.3023753 -1.0548661 1.3924512 -0.21274088
000160 b6 1a 4e bf aa f3 d4 bf 99 b6 50 3f b2 e5 fd 3e
       -0.8050951 -1.663686 0.8152862 0.49589306
000170 ed ed a1 be 1e af b7 3d c7 94 e1 3f d4 40 dd 3f
       -0.31626835 0.08968948 1.7623528 1.7285409
000180 22 b9 4d bf 6e 83 18 3f f5 99 84 bf f1 ca cc bf
       -0.80360615 0.59575546 -1.0359484 -1.5999433
000190 7a 68 f1 bf 62 e4 22 3f 01 30 10 bf 98 97 56 bf
       -1.8860009 0.63629735 -0.5632325 -0.83825064
0001a0 38 9f 86 be 33 ef 9a 3f 7d 0c 98 bf d4 f4 13 bf
       -0.2629335 1.2104248 -1.1878811 -0.57795453
0001b0 36 47 86 be 7f 27 c8 3f 9b 4e da 3f ba ae 61 3f
       -0.26226205 1.5637053 1.7055238 0.88157237
0001c0 3c 98 7f bf 94 32 23 3f 81 e3 b4 bf 83 42 11 bf
       -0.99841666 0.6374905 -1.4131929 -0.56742114
0001d0 a4 a4 31 3f 56 02 37 3d 8d 50 ac bf 15 0b aa bf
       0.69391847 0.044679962 -1.3462082 -1.3284632
0001e0 a4 90 ed 3f 81 15 41 3c f7 e1 ba bf ae fc 31 bf
       1.8559766 0.011784912 -1.4600209 -0.69526184
0001f0 12 eb 88 3f 49 52 1f 3f 73 54 6b be ee 40 d9 bf
       1.0696738 0.6223493 -0.22981434 -1.697294

feature_extractor.2.weight f4 [64, 128]
000000 bf 45 e8 be 29 88 b9 3e 99 61 a2 bd 03 f9 6a 3e
       -0.45365712 0.36236694 -0.079287715 0.22946553
000010 48 84 3b bf 24 bf c1 be 7c 6e 7c 3e 06 9c 65 bf
       -0.7324872 -0.3784114 0.24651521 -0.896912
000020 c3 c6 8c bf a1 c7 00 3e 76 9a 10 bf 9f 91 67 bd
       -1.0998157 0.12576152 -0.5648569 -0.05653536
000030 e0 c8 dd be b6 b5 5e be c7 11 a5 3e d7 5a b4 3e
       -0.43317318 -0.21749005 0.32240126 0.35225555
000040 e4 27 00 bf ce 19 88 3d ee bb f4 bd 2d 97 c6 bd
       -0.5006087 0.06645547 -0.11949907 -0.09696803
000050 da 9e 8a bf 1e 93 cc 3e e2 84 a5 bf 06 e7 69 3e
       -1.0829728 0.39955992 -1.2931178 0.22842035
000060 85 13 51 be 1f 9e 84 bf 2c 4c da bc 05 c7 06 be
       -0.20417602 -1.0360755 -0.02664765 -0.13161857
000070 db 4a 29 3d 1d bc a3 bc 70 67 4d 3f e9 81 4a bf
       0.041331153 -0.01998716 0.8023596 -0.7910448
000080 d4 ee 15 bf 53 b1 cf 3e fa 39 87 3e 66 43 ce be
       -0.5856755 0.40564975 0.2641142 -0.40285796
000090 35 b2 ce be 26 00 c8 3d 4c f6 63 be 00 da 76 bb
       -0.40370336 0.09765653 -0.22261924 -0.003766656
0000a0 d6 a7 27 bf f5 8b b2 3a 87 cf 05 3f 5f d7 94 be
       -0.6549047 0.0013622033 0.52269787 -0.29070565
0000b0 1e c4 d9 be 25 95 70 bf d1 c3 e5 3e af d9 5e bf
       -0.42532438 -0.93977576 0.4487596 -0.8705091
0000c0 65 8b 6e bf 8f 26 e9 be 43 2a 42 3e 64 3b 24 be
       -0.9318145 -0.4553723 0.18961434 -0.1603828
0000d0 02 b1 6e 3d 4f 51 e7 be a1 9b fc be e8 42 dc bc
       0.058274277 -0.4517922 -0.49337485 -0.026887372
0000e0 34 38 3c be 48 23 83 bd f1 d4 33 3e 97 c6 43 bf
       -0.18380815 -0.06403214 0.175617 -0.764749
0000f0 f7 67 a4 3e b9 cc 62 bf a1 d9 d3 be 18 b5 f7 3d
       0.3211057 -0.8859363 -0.41376975 0.12095088
000100 a6 a1 ec be 49 37 e2 bd 1d f2 f4 bf fc c7 1b bf
       -0.46217078 -0.11045701 -1.9136387 -0.60852027
000110 c6 29 37 3d 94 ef 1f bf 14 8d c2 be 14 41 67 be
       0.044717573 -0.6247494 -0.3799826 -0.22583419
000120 79 94 d5 bd ef 31 b8 bf fc 77 2f bc 4e ab 1e be
       -0.104287095 -1.4390239 -0.010709759 -0.15495035
000130 44 5e d1 be 2f 43 0f bf 32 b0 8e bf 39 d0 1a be
       -0.4089223 -0.5596189 -1.114752 -0.15118493
000140 d6 78 64 be 9d 3e 57 be e9 f3 25 be c8 46 a2 3f
       -0.2231172 -0.21019979 -0.16206326 1.2677851
000150 d3 6c c5 be e4 de bb bf 96 b3 8c be e1 da 94 bf
       -0.3855959 -1.4677396 -0.27480763 -1.1629297
000160 95 0b 7a bf 9c 39 5c bd f2 8c 79 3e aa 62 16 be
       -0.9767392 -0.053765878 0.24370173 -0.14686075
000170 56 a5 70 be 75 5b 17 3f 64 10 42 bf 50 bb 6b bd
       -0.2350057 0.5912393 -0.7580626 -0.057551682
000180 e4 28 a0 bf 12 16 4e 3d a8 f3 f9 3d 62 c7 31 3e
       -1.2512479 0.050314017 0.12204677 0.17361215
000190 40 f7 cc bf bf dc 20 bf 92 d0 30 be be 7a c0 be
       -1.6012955 -0.6283683 -0.17267063 -0.37593645
0001a0 73 7c 67 bf e0 2e c1 3d 80 ed 93 3f 8c 1b 2b bb
       -0.9042427 0.09432769 1.1556854 -0.0026108949
0001b0 92 29 a1 bf 98 b0 01 3e 73 de 8c bd 7e 04 55 be
       -1.2590811 0.12665021 -0.06878366 -0.20802495
0001c0 06 fb 9e bf 01 85 54 3e 9c a1 0a 3f 8b 88 fb be
       -1.2420356 0.20753862 0.54152846 -0.49127612
0001d0 6e 81 09 bf d1 ac da be 54 fd 56 3f 07 33 15 3f
       -0.5371312 -0.42709973 0.839803 0.58280987
0001e0 86 55 43 bf e1 8f 1c bf fe 49 89 3e 6b 00 63 3e
       -0.76302373 -0.6115704 0.26814264 0.22168128
0001f0 0f ff 0a 3e 28 ef 10 bf 50 8e 6f be 12 1c 4f 3d
       0.1357386 -0.56614923 -0.23394132 0.05056388
000200 9d 1b b7 be ab 8e 92 be d7 1f 13 3f 16 ab cd be
       -0.35763255 -0.28624472 0.5747046 -0.4016959
000210 b0 8b d4 be d8 f0 95 be d2 7f 09 be bd 5f b4 bc
       -0.41512823 -0.29285312 -0.13427666 -0.022018308
000220 6d a0 58 3f 60 af b3 be e3 9d 00 bf 0e cb d1 bd
       0.8461979 -0.35094738 -0.50240916 -0.10243808
000230 fa 92 0a be 5c 8c c5 bd 73 21 48 bd 51 c5 23 3e
       -0.1353263 -0.09645912 -0.048860025 0.15993239
000240 d8 47 05 bf 2d 94 c2 be 1e 19 f1 bd 9c 5a 59 bf
       -0.5206275 -0.38003674 -0.11772369 -0.84903884
000250 a1 5f ac 3d a6 03 89 3e 92 43 67 be 6c a5 09 3e
       0.08416677 0.26760596 -0.2258437 0.1344201
000260 bc 42 9d bf 79 27 37 3d 5f 97 e7 3e c6 c3 0b bf
       -1.2285991 0.04471538 0.45232674 -0.545956
000270 2e b2 b7 be ed 4c 8d be 96 25 22 3f 0b ab a7 be
       -0.35878128 -0.27597752 0.633386 -0.32747683
000280 40 c5 1c 3e e3 e0 e4 bd b3 9a b8 bc 15 f8 98 be
       0.1530962 -0.11175706 -0.022534704 -0.29876772
000290 af fa 1a bf a3 3e 95 bc f0 c9 28 bf ec f0 55 bf
       -0.6053876 -0.018218344 -0.6593313 -0.8357074
0002a0 13 dc 6d be 38 24 9c 3e af 35 84 ba 5a c3 37 3f
       -0.23228483 0.30496383 -0.00100868 0.7178246
0002b0 dc 3a 69 bd 56 3a b0 3c 7a 29 0e be 63 27 49 bf
       -0.0569409 0.021512192 -0.1388301 -0.78575724
0002c0 3c d4 6a bc de f6 73 bf 4a cf 3c 3d 96 96 e5 be
       -0.014332827 -0.95298564 0.046096124 -0.4484145
0002d0 22 d2 2f 3d e6 35 27 ba 9c 7f 6f be af 58 12 3f
       0.042925008 -0.0006378576 -0.23388523 0.5716657
0002e0 d8 5f f7 3e 40 06 cc 3e 68 e3 be 3f b9 b0 02 3f
       0.4831531 0.39848518 1.4913149 0.5105091
0002f0 0e 03 9e be 7e b9 ff be 5e 24 d5 3d c5 a8 06 bf
       -0.30861706 -0.49946207 0.10407327 -0.5260127
000300 69 f3 cd 3e 43 d9 55 bf 1c 97 2b be c6 0c 61 3e
       0.4022477 -0.8353464 -0.16756862 0.21977529
000310 13 c9 ca be 17 e7 8e 3d 40 66 92 bf 34 72 49 be
       -0.39606532 0.06977671 -1.1437454 -0.19672471
000320 ea 09 83 3d 50 2e cb bd 67 bc f3 3d 67 12 29 3f
       0.06398375 -0.09920943 0.11901169 0.66043705
000330 07 90 c6 be 64 23 0d be f2 84 ee be 4c 20 ca 3d
       -0.3878176 -0.13783032 -0.46585804 0.098694414
000340 0c 38 d3 be 78 d8 85 3d 97 67 3c 3e 5f ff 08 3f
       -0.41253698 0.06535429 0.18398891 0.53514665
000350 55 ca 34 bf e5 6e 52 39 d2 dc f0 be 31 7b 0a bf
       -0.70621234 0.00020068472 -0.47043473 -0.54094225
000360 c0 d0 24 be f1 a0 21 3f 92 a7 88 be 95 cd 82 3e
       -0.16095257 0.631362 -0.26690346 0.25547472
000370 6a 5f 70 3e bf d0 69 3f 0c f9 4a be dd 31 b5 be
       0.23473898 0.91334146 -0.19821566 -0.35389605
000380 68 bf 37 3d ba 33 e9 be 34 6a 31 3c aa 27 1f bf
       0.044860274 -0.45547277 0.010828543 -0.621699
000390 af 98 86 be 93 87 c1 bf 58 1f 68 bf c4 e5 4e bf
       -0.26288363 -1.5119499 -0.90672827 -0.80819345
0003a0 8b ea fd bd 17 48 4e bd 55 37 0a 3e be e1 d3 3e
       -0.12398251 -0.05036172 0.1349767 0.41383165
0003b0 b6 e3 9b bd b8 ab 08 be 49 1f 11 3e 89 3f 9d bd
       -0.07611792 -0.13346756 0.1417209 -0.07678134
0003c0 89 35 8f 3e f0 cf 37 be 20 f5 bf be 9e 86 6f be
       0.27970532 -0.17950416 -0.37491703 -0.23391196
0003d0 e2 94 d3 3d 66 a3 b6 3e 91 62 80 3f 0a 23 a3 3e
       0.103311315 0.35671538 1.003008 0.3186267
0003e0 03 47 40 be 78 ca 56 be 95 24 cc be 87 f4 60 3c
       -0.18777089 -0.20975673 -0.3987166 0.013730175
0003f0 1a 69 bc bd 5d c3 bb bd 81 6c 0b 3f 7b ca 88 bf
       -0.09199734 -0.09168122 0.5446244 -1.0686792

feature_extractor.2.bias f4 [64]
000000 83 a4 96 be 58 f3 be bd 42 e8 f3 3d fc ec c4 bd
       -0.29422387 -0.09323758 0.11909534 -0.09615514
000010 9e 3d 81 3e 28 66 1b 3d c1 be 45 3f 18 2d 3c be
       0.25242323 0.03793922 0.7724419 -0.18376577
000020 47 04 0c c0 48 7c a8 bd a6 67 3f bf 96 3c 98 be
       -2.187761 -0.0822683 -0.7476753 -0.29733723
000030 c0 80 3b 3e aa fa 7a 3e 15 bd 56 bf fc c7 25 3d
       0.18310833 0.24509683 -0.83882266 0.040473923
000040 d4 1e ff 3e d6 4d 61 be 11 57 39 3e 72 de e5 be
       0.49828207 -0.22002348 0.1809962 -0.44896275
000050 3c 6a 3f be a2 85 41 bd b1 6f 32 be 86 fd 88 be
       -0.18692869 -0.047246583 -0.1742542 -0.26755923
000060 11 26 bd bf 57 d9 65 3e e1 1a 76 be de 2b 40 bf
       -1.4777242 0.2244619 -0.24033691 -0.75066936
000070 4b 31 14 3f 70 52 56 be 54 96 96 3e c3 27 64 be
       0.57887715 -0.20929885 0.29411566 -0.22280793
000080 9f 27 c7 3e a6 90 3d 3d 47 e0 81 bd 1f 07 df be
       0.38897416 0.046280526 -0.06341606 -0.4356012
000090 5f 23 7a be 78 b6 5b be ec e7 60 3e 9a 60 17 bf
       -0.24427556 -0.21456325 0.21963471 -0.5913178
0000a0 31 75 4d bf bd 53 cd bd 0e 54 b2 3e a6 43 f2 be
       -0.80256945 -0.100257374 0.34829754 -0.47317237
0000b0 5a c2 1c 3e c3 ca 1a 3e 0f 7e db 3a b3 59 e1 3e
       0.15308514 0.1511641 0.0016745942 0.44013748
0000c0 6b 1f 67 3d 23 96 0f be 9b 8f 22 3e a1 4e 3d 3e
       0.056426447 -0.14022116 0.15875094 0.18487026
0000d0 a0 cc 1e 3e b3 1c 55 be de 73 59 3d 29 75 b3 be
       0.15507746 -0.20811729 0.053089015 -0.35050324
0000e0 ef 0f 88 bc 52 d9 07 bf 1a b7 39 bf e8 d9 61 3c
       -0.01660916 -0.5306598 -0.72545016 0.013784863
0000f0 86 7f 1d be 6b b0 05 3e 88 69 39 be 85 46 02 3f
       -0.15380678 0.1305558 -0.18106663 0.50888854

lstm.weight_ih_l0 f4 [256, 64]
000000 c8 2b b7 3e e0 6c 37 bf b0 c1 0c 40 30 6f 9a 3e
       0.3577559 -0.71650505 2.1993217 0.30162954
000010 e5 8b 02 3f a3 73 bc bd d1 5e a2 be d1 71 86 3f
       0.5099471 -0.092017435 -0.31712964 1.0503484
000020 45 82 23 bf 07 db 90 3f 5c a3 01 be f4 da c2 3e
       -0.6387065 1.1316842 -0.12659973 0.38057673
000030 be 14 46 be f0 50 15 be e1 03 32 be 6b 64 df 3e
       -0.1934385 -0.14581656 -0.17384292 0.436313
000040 28 8c 18 be 38 f3 e7 3c 1b b1 d4 3e 8f 80 09 3f
       -0.14897215 0.028314218 0.4154137 0.5371179
000050 ed 94 94 be 3f 9e 18 be dc 49 51 3d e9 01 ea 3e
       -0.2901987 -0.14904116 0.05109583 0.45704582
000060 02 bc 06 bf d0 48 47 be d1 06 9b 3e bd 76 78 be
       -0.5263063 -0.1946137 0.30278638 -0.24264045
000070 82 51 96 3e bd 7e 71 3f 02 68 15 3f aa f2 0e 3f
       0.2935906 0.9433401 0.5836183 0.55839026
000080 16 4e 9e 3e 8c 40 99 3d 86 9c 05 bf 0e 65 3b bf
       0.3091895 0.074830145 -0.5219196 -0.7320107
000090 43 4b 4d 3e 5f 06 02 3e 3b c9 59 3f 7d ef 64 bd
       0.20048241 0.12697743 0.8507268 -0.055892456
0000a0 68 de fc 3b f6 7e 30 3e 93 73 6b 3d 4c 5c bc 3f
       0.0077169426 0.17235932 0.057483267 1.4715667
0000b0 8d 8b a5 be 3e 41 e7 3f 48 0c c9 be 34 56 28 be
       -0.3233303 1.8066785 -0.39267182 -0.16439134
0000c0 ce e5 a8 bc ea 54 02 3e 5a 98 45 3e ec c5 f8 3e
       -0.020617392 0.12727705 0.19296399 0.48588502
0000d0 3b 27 69 be 57 64 96 3e 3b db 6a 3e 35 12 b0 3e
       -0.22768871 0.29373428 0.22935192 0.3438889
0000e0 42 01 75 3f 05 32 b3 3e 5b 9b 39 bf 90 58 42 3f
       0.95705044 0.349991 -0.7250268 0.75916386
0000f0 b7 08 07 3f 84 cf 25 3f f9 0a ba 3d 40 13 8e 3f
       0.5274767 0.6476977 0.09084124 1.1099625
000100 d8 14 fb bd fe 9d 52 bc 0c 5b 6a 3e 16 85 6e be
       -0.12259835 -0.012855051 0.22886294 -0.23292956
000110 38 aa ab 3e ee b3 ef bd 24 b8 00 be c2 f6 82 3f
       0.33528304 -0.11704241 -0.12570244 1.0231555
000120 18 aa 13 bf 3c 5f 8c bd 74 29 02 3f 41 f8 0b 3f
       -0.5768142 -0.06854102 0.508445 0.5467568
000130 e4 3b 97 3e e7 3d 43 bf 30 35 8f 3f 10 4d b4 3b
       0.2953788 -0.7626633 1.1188107 0.0055023506
000140 a2 55 0e bc 70 a7 12 3e 13 ec 63 3e 32 a7 35 3e
       -0.008687409 0.14321685 0.22258024 0.17739561
000150 a9 41 66 3f 8f 68 8c be 22 8e 92 3c ae 22 92 3f
       0.8994394 -0.27423522 0.01789004 1.1416833
000160 d1 64 f0 3e ac 61 23 3f 75 ab 45 3f 53 d2 16 be
       0.46951917 0.6382091 0.7721475 -0.1472867
000170 74 63 0e be e2 1f 06 bd a0 cd 79 3e 18 cc 6c be
       -0.13905126 -0.03274525 0.24394846 -0.2312473
000180 96 69 14 bd 8d e5 c7 be d4 37 23 bc 05 b7 85 3f
       -0.036233507 -0.3904232 -0.009962041 1.0446478
000190 a1 65 c7 3d 5f aa 73 bc df 73 97 bd 47 5c 1e c0
       0.09736181 -0.014872163 -0.073951475 -2.4743822
0001a0 ab e3 cc 3f 24 6a 0e be 20 a6 1f 3e 32 d4 95 3e
       1.6006979 -0.13907677 0.15590715 0.29263455
0001b0 d8 04 06 3f ca 81 e9 3d af c3 47 bf 52 90 11 3f
       0.5235114 0.114017084 -0.78032964 0.5686084
0001c0 9b 9a aa 3f e9 05 9f be 8c ee 26 be 06 52 40 be
       1.3328432 -0.31059197 -0.16301936 -0.1878129
0001d0 ae fa df bd 29 0f c6 be c0 8b 5d bf 63 ca 81 3e
       -0.10936485 -0.3868344 -0.86541367 0.2534972
0001e0 6a 3a ba be 72 8a 72 bf b7 f3 08 3f 0a 47 88 be
       -0.3637269 -0.947425 0.5349688 -0.26616699
0001f0 76 b2 1e be 5d 95 0a 3f d2 6a a5 bd 28 96 ec be
       -0.15497765 0.5413416 -0.08077015 -0.4620831
000200 a9 77 08 bf 27 86 01 3f da f6 5b bf 86 c2 b6 3f
       -0.53307587 0.50595325 -0.8592354 1.4278114
000210 d5 54 bc 3f d5 81 37 3f 8e 1d 93 3f f7 71 90 be
       1.4713389 0.7168248 1.1493394 -0.28211948
000220 d7 79 02 40 b6 64 fe 3c 79 32 85 3f 97 e1 6f 3e
       2.0386865 0.031053882 1.0406028 0.234259
000230 fc 9d b5 3e 9c d6 b3 3e 42 c5 eb 3f c7 fd 6d 3f
       0.35472095 0.3512467 1.8419573 0.9296536
000240 7f 71 39 bf 7f 08 21 bf 71 f2 66 bf 22 df 4b be
       -0.72438806 -0.6290359 -0.90213686 -0.19909337
000250 df 02 38 be c7 28 ae 3f 5b c5 8e 3f 65 d7 3d 3f
       -0.17969845 1.3606194 1.1153978 0.7415679
000260 ad a7 06 3f c4 aa a8 3e 4c 3c 55 3d e7 b4 47 3f
       0.525996 0.32942784 0.052059457 0.7801041
000270 04 cc 37 bf 73 23 9f bf f9 f1 b1 3e 0d a7 7f bf
       -0.7179568 -1.2432693 0.34754923 -0.99864274
000280 29 84 7d 3e da 0c 8f bd 63 70 33 3e 65 89 53 3f
       0.24757446 -0.06984873 0.17523341 0.8263152
000290 cf 5f 1b 3f b4 b8 91 be 31 9a 0f bf f7 81 3b 3f
       0.6069307 -0.2846123 -0.5609465 0.73245186
0002a0 09 63 c6 3e c0 67 dd 3e a5 7e 07 bf e6 30 84 bf
       0.38747433 0.43243217 -0.5292762 -1.0327423
0002b0 32 7c ce 3f f5 8e 3d be 48 24 12 be 09 96 2f bf
       1.6131651 -0.18511565 -0.14271653 -0.6858831
0002c0 1f 58 20 3f bd 9b e0 3d fa 79 58 bf ee b9 94 be
       0.6263446 0.10967205 -0.8456112 -0.29048103
0002d0 5c ac eb 3d d7 c1 71 bf 3b 14 07 3f 02 67 bd 3f
       0.11507484 -0.944364 0.52765244 1.479706
0002e0 c7 75 ec 3e cf 74 26 3f ea c2 55 be 8f 72 fb 3e
       0.46183607 0.65021986 -0.20875135 0.4911084
0002f0 21 c8 6b 3e fd 71 b8 3e f4 2f fa 3f bf 8c 52 3f
       0.23025562 0.36024466 1.9545884 0.8224601
000300 1a ca 16 3f 16 e3 65 be a5 05 51 bf 76 88 14 3f
       0.5890213 -0.22449908 -0.8164924 0.5802072
000310 c3 69 9e 3d 29 ad 7f bf ec 27 85 3e 86 16 25 3f
       0.07735016 -0.99873596 0.2600702 0.64487493
000320 ee 8b ad be 64 4d 43 3f 12 ec 04 c0 bc ce a2 bb
       -0.3389582 0.76289964 -2.0769086 -0.0049684923
000330 51 23 e4 be 0a 2d 55 be b7 f9 be 3e cc 3a 10 bf
       -0.44558194 -0.20817962 0.37299892 -0.56339717
000340 b7 20 61 be d4 5a 97 be 55 87 9d 3e 5f 4e 32 3f
       -0.21985136 -0.29561484 0.30767313 0.69650835
000350 07 66 e9 3e 2d ba 21 3e 2b c8 de 3e 71 52 89 bd
       0.45585653 0.15793677 0.4351209 -0.067051776
000360 5f 37 97 3d 96 27 a2 3f 31 42 aa be 9d 69 7c 3f
       0.07383608 1.2668331 -0.33253625 0.98598653
000370 9d e0 74 3e b8 15 64 bd 16 d8 90 3e 8b db 15 bf
       0.23913808 -0.055684775 0.2828986 -0.5853812
000380 71 9d 17 bd ef 00 19 3f 04 3f 4f 3f 7d 39 8f 3f
       -0.037015382 0.5976705 0.8095553 1.1189419
000390 66 ba 80 3f 23 fd 95 3e 73 ba ca be df e7 ac bc
       1.0056884 0.2929469 -0.39595374 -0.021106659
0003a0 3f 8d 23 3c e5 30 a7 3d dd 12 ea 3e ed 8d a0 bf
       0.009982406 0.08163623 0.45717517 -1.2543312
0003b0 0b 0f 8b 3f 9a 89 dc bd 76 ee 3c 3f 0e 76 01 3e
       1.0863966 -0.10768433 0.7380136 0.1264269
0003c0 6c 43 c8 3f 97 e3 c3 3d d9 3f af 3f ea 09 c4 3d
       1.5645576 0.09564894 1.369136 0.095722035
0003d0 91 67 41 3f 79 16 49 bf 2c 0d 33 3f 72 ab 5d 3f
       0.75548655 -0.78549916 0.69941974 0.8658973
0003e0 d5 27 89 3f b7 e4 c4 bc f2 e3 5b 3d 35 08 58 3e
       1.0715281 -0.024034841 0.053684182 0.2109688
0003f0 52 88 9e 3f fe e7 32 3f e4 61 59 3e aa fb ac bf
       1.2385352 0.6988524 0.21228749 -1.3514302

lstm.weight_hh_l0 f4 [256, 64]
000000 3e 48 82 3e 70 2f 87 bf 6d f4 93 bf e5 ba 76 3d
       0.2544574 -1.0561352 -1.1558968 0.06023683
000010 16 e7 31 be df 7c aa bf 7e e9 df 3b 57 e6 a6 3f
       -0.17373309 -1.3319358 0.0068332544 1.3039044
000020 85 1e 3a 3f 25 64 00 be 6d 8f 40 bf c7 e9 bf 3d
       0.7270282 -0.12538202 -0.7521885 0.09370761
000030 3b 20 a7 3e ce 34 80 3e 4a bb 43 bd bd e2 01 be
       0.32641777 0.25040287 -0.047786035 -0.1268415
000040 e1 8c 86 bf c2 1d 19 c0 b7 c5 8d 3f 59 5e d1 3f
       -1.0511743 -2.3924413 1.1075963 1.6356918
000050 a5 42 e0 bf a9 ec bf be 08 f9 ac 3e 8f 83 70 3f
       -1.7520338 -0.37485245 0.33783746 0.9395074
000060 ce a1 22 bf 7c 2a f9 be 01 5f 11 c0 90 40 01 3f
       -0.63528144 -0.48665226 -2.2714236 0.5048914
000070 76 c4 5f 3f 2f ce 59 3e 32 17 65 3f 6d b3 b1 bf
       0.8740915 0.21270059 0.8948852 -1.3882881
000080 76 4a 40 be 52 fa 18 bf e2 ab db bf 41 02 3b 3f
       -0.18778405 -0.5975696 -1.716183 0.73050314
000090 df 1d d1 be 30 3b 13 c0 2e e4 05 3e 44 4b 3c 3f
       -0.40843102 -2.3004875 0.13075325 0.73552346
0000a0 86 91 a3 3e 50 cc 0e 3f 37 84 b5 be b1 4b 80 be
       0.31946963 0.55780506 -0.35452434 -0.25057748
0000b0 0a e7 2d 3e cc da e1 3e 99 cd 24 bf 04 32 93 3e
       0.16982666 0.4411224 -0.6437622 0.28749096
0000c0 86 c4 2f 3f 86 66 e2 be d2 af eb 3c 67 98 ff bf
       0.68659246 -0.44218844 0.028770361 -1.9968385
0000d0 24 30 00 3f 22 33 80 bf a2 1c 8c bf d9 19 fb 3d
       0.50073457 -1.0015604 -1.0946238 0.122607894
0000e0 0e d1 77 be 40 3d 88 be b4 b6 52 3f 1d 54 1d 3f
       -0.24200842 -0.2660923 0.8231003 0.6145647
0000f0 99 b2 83 bf f0 92 37 3e 4a d6 8f be 2a 2f bd 3e
       -1.0288879 0.17927146 -0.28093177 0.36950046
000100 9b 73 61 bf c8 13 51 3f 02 c5 ce be b4 65 54 3e
       -0.88067025 0.8167081 -0.4038468 0.20741922
000110 8f 7b a8 3e c5 8b 38 be 4d 0a af bf a7 33 c8 3c
       0.32906768 -0.18022068 -1.3675019 0.024438692
000120 be 3b b5 3e 5b f8 5f 3f a0 14 20 3f 4b 09 3d be
       0.35397142 0.87488335 0.6253147 -0.18460576
000130 1e 0c 73 bf df c1 83 3e de 02 bb be af 3d e7 3e
       -0.94940364 0.2573385 -0.36525625 0.45164248
000140 c5 47 1b bf 7d 8e ef bd c9 9d 79 3f 17 95 96 3e
       -0.60656387 -0.11697099 0.97506386 0.29410622
000150 98 48 04 be bc 4f c9 be dd 5a 52 3f b5 90 38 3f
       -0.12918317 -0.39318645 0.82169896 0.72095805
000160 6b 50 33 bf 61 0e 0a 3f ef 08 c1 bf af cf e5 3e
       -0.70044583 0.5392819 -1.5080851 0.44885013
000170 2f f7 16 be 5f 96 7f 3e 14 d1 a9 bb e8 2f d2 bf
       -0.1474273 0.24959706 -0.0051823948 -1.642087
000180 d8 aa 2c 3e d8 26 f3 3e b5 a3 7f 3f 38 42 01 3e
       0.16862047 0.47490573 0.9985917 0.12622917
000190 cf dd 0c be b7 7e f3 bd d0 86 79 be 96 88 a6 3e
       -0.13756488 -0.11889403 -0.24367833 0.32526082
0001a0 b0 14 2b 3d e6 aa f7 be 2d ea 2d bf 31 87 85 bf
       0.041767776 -0.48372573 -0.6793545 -1.0431882
0001b0 ca 9b 1e be 9d c0 91 3e 6e 11 0b 3c d8 d6 aa 3e
       -0.15489116 0.28467265 0.008488042 0.33367038
0001c0 c5 42 c0 3e de c5 15 bf bb cc fb bd 37 94 19 3f
       0.3755094 -0.58505046 -0.122949086 0.5999178
0001d0 e7 af 79 3e 3c fc 4b bf d0 5a 8a be 7b e0 03 40
       0.24383508 -0.79681754 -0.2702241 2.0605762
0001e0 92 6e 73 3f 2c 7c 5d be 81 80 c5 3e 73 60 61 be
       0.9509059 -0.21629399 0.38574603 -0.22009449
0001f0 00 6f 92 3f bd 2f 1d 3f 2f 3a 70 be 36 4c c5 be
       1.1440125 0.6140097 -0.23459695 -0.38534707
000200 e3 c8 76 bd 08 da 1f c0 56 66 1a 40 f2 a1 95 be
       -0.060250174 -2.4976826 2.412496 -0.29225117
000210 8a e0 27 3f 98 ea f7 3c d7 f0 3f 40 9f 67 53 3f
       0.65576994 0.03026323 2.9990747 0.8257999
000220 60 9a 9a 3e ab 54 fa be 7f 3e ec bf 2c ec 18 3f
       0.30195904 -0.48892722 -1.8456572 0.5973537
000230 ec 0b 7c 3f 87 06 74 bf 3d ac 11 c0 ee f5 49 3f
       0.9845569 -0.9532246 -2.2761376 0.78890884
000240 ea dd a9 bf a0 e3 9d 3f 9e 42 d8 3f 9c 18 d1 3e
       -1.3270848 1.2335091 1.689533 0.40839088
000250 32 df 6d bf 44 96 1f 40 32 fa bf 3f 22 03 fa 3f
       -0.92918694 2.4935465 1.4998229 1.9532206
000260 3a f8 97 3e d3 eb 82 3f 24 54 c6 3f 8a 21 02 3f
       0.2968157 1.0228218 1.5494428 0.50832427
000270 fb 42 8f be 73 dd 60 3f c5 91 e9 3f 05 3b 46 3d
       -0.2798079 0.87837905 1.824761 0.04839613
000280 0f 5c f7 be 71 6c 6e 3e b5 3a 81 bf f2 4b ee 3d
       -0.48312423 0.23283555 -1.0096041 0.11635579
000290 bf 55 7b 3f 6e 61 14 c0 24 4f 1d c0 35 28 0a 3e
       0.98177713 -2.3184466 -2.4579554 0.134919
0002a0 99 df ae bf dc 71 49 3e a5 89 c3 be e5 29 c4 3f
       -1.3661987 0.1967234 -0.38190952 1.5325285
0002b0 21 30 d4 3e 9a b5 12 3f ac 59 6e bf b2 7d 82 c0
       0.4144297 0.5730835 -0.9310558 -4.0778437
0002c0 b3 0a 90 bf d2 51 b2 bf d1 8a 4f 40 1f 82 0c 3f
       -1.1253265 -1.393122 3.2428477 0.5488605
0002d0 c8 5c 91 3f 91 8c 39 be 99 62 a1 3e aa 1e 02 40
       1.135644 -0.18120028 0.31520537 2.0331216
0002e0 56 c1 f7 3f 42 4c 07 c0 c4 2b 0d bf 7c 3f ae bf
       1.9355876 -2.1140294 -0.55144906 -1.3613124
0002f0 fd 7b c5 c0 9a 45 9f 3f bc 63 aa 3f 97 b7 1b 40
       -6.1713853 1.2443116 1.3311687 2.4330804
000300 82 c0 33 3e 7c 2c 23 3d 1f 7b 0a bf ea 98 91 bd
       0.17553905 0.039837345 -0.5409412 -0.07109244
000310 b2 b9 30 3f 4b 03 9d 3c ae aa d2 be e5 5a 2d bf
       0.6903335 0.01916661 -0.41145843 -0.6771682
000320 1a 2c 12 be 7e 76 ab bf 3e 55 95 3e 6c 90 c5 bc
       -0.14274636 -1.3395536 0.29166597 -0.024116717
000330 e4 74 76 3f be 86 8a be c9 ff 13 c0 9b 97 12 40
       0.9627211 -0.27055925 -2.312487 2.2905033
000340 77 17 79 3f 7c 32 6e 3f 9d 5d 81 3f 7b 2b 43 3f
       0.9730143 0.93045783 1.0106694 0.7623822
000350 b9 e9 98 3e 18 6f ea 3e 8d 03 28 be 8b 08 c8 3e
       0.29865816 0.45787883 -0.16407605 0.39069018
000360 23 7e ca be de e3 59 3e 98 5f a1 3f bf 72 0d 3e
       -0.3954936 0.2127833 1.2607298 0.13813303
000370 e8 a6 63 be d8 a3 08 bf 9d b7 94 3e 30 07 01 bf
       -0.22231638 -0.53375006 0.29046336 -0.5040159
000380 94 69 44 3e 42 66 74 3e 07 77 91 3e c4 60 c0 3d
       0.191809 0.23867133 0.28411123 0.093934566
000390 ea af cf bf 28 4c 7c 3e 32 5f 86 be aa d6 70 3f
       -1.622556 0.24638426 -0.26244503 0.9407755
0003a0 65 17 e8 bd 8b cf c1 be b5 61 e9 be 6c 61 27 be
       -0.11332587 -0.37853655 -0.45582357 -0.16345757
0003b0 85 71 14 3b 4b a9 05 bf 80 fe ac 3e 14 eb 4c bf
       0.002265067 -0.52211446 0.33787918 -0.800462
0003c0 e3 9b 06 be 48 03 b6 3f d3 3a 17 3e b3 1a 0b 3f
       -0.13145404 1.4219751 0.14768533 0.54337615
0003d0 b2 be 34 3f 62 aa 85 bf 18 9a 12 be b1 19 d5 be
       0.7060348 -1.0442622 -0.14316595 -0.41621163
0003e0 62 ae 43 bf a9 40 90 3d 8a 5f f2 be 59 39 c0 3e
       -0.7643796 0.07043583 -0.47338516 0.37543753
0003f0 64 18 8c be 77 c4 82 3f 5c 96 1a be 47 fb 8a 3f
       -0.2736236 1.0216206 -0.1509642 1.0857934

lstm.bias_ih_l0 f4 [256]
000000 b0 68 80 3e 4e 97 0a 3c 13 58 d1 3e 79 53 23 3e
       0.2507987 0.008458925 0.40887508 0.15949811
000010 11 6c b6 3e a2 79 36 3e bb 14 90 3e b9 e3 e9 3e
       0.35629323 0.17819837 0.28140816 0.4568155
000020 85 14 ee 3c 7a ac 6a 3e 44 98 97 3d e7 1b c4 3d
       0.029062519 0.22917357 0.07402089 0.095756344
000030 93 07 f5 3e 9a 3a cf 3d fc 94 0c 3e cd 78 6a 3e
       0.4785734 0.10118599 0.13728708 0.22897644
000040 b6 eb f0 3e c1 0c 17 3e d0 be af 3e 90 41 87 3f
       0.47054833 0.14750959 0.34325266 1.0566883
000050 75 56 bc 3e c7 59 aa 3e 63 b1 3c 3e 4c 2c 83 3e
       0.3678471 0.3327162 0.18427043 0.25619733
000060 9b 66 62 3e b3 ee d8 bd 4c 51 93 be 56 83 42 be
       0.22109453 -0.10592403 -0.28772962 -0.18995413
000070 1c 48 de 3e ef 1c 57 3e 14 98 89 3e 3a 10 16 3f
       0.4341439 0.21007131 0.2687384 0.5861851
000080 15 48 17 3d 7d 8b 94 be b6 08 17 be 3b 9d 2a 3d
       0.036933977 -0.2901267 -0.14749417 0.041653853
000090 73 d4 76 3e 7c 56 0b 3f 18 ae 02 3f b8 fc 5e be
       0.2410448 0.5442884 0.51046896 -0.21776092
0000a0 45 66 ba bc 8d cc d5 3e 41 6a 88 3e a5 dc 43 bd
       -0.022753844 0.41757622 0.26643565 -0.047817845
0000b0 67 b0 12 3e 82 79 0b bc b3 04 c6 3e 34 54 3f 3f
       0.14325105 -0.008512856 0.3867546 0.7473786
0000c0 8a b9 90 bd 8a 41 b3 3e 9f 39 7e 3e 9b 8d 05 bf
       -0.07066639 0.3501094 0.24826668 -0.521692
0000d0 d5 7a 2e 3c 97 32 67 bd dd 61 45 3f 87 c6 71 be
       0.010649403 -0.05644473 0.7710245 -0.23610888
0000e0 78 92 80 3e 48 35 a5 3f 32 89 81 3e ac 25 3f be
       0.25111747 1.2906885 0.25299984 -0.18666714
0000f0 5f 33 b5 3e d7 34 85 3d cd da 17 3e c8 63 8d 3e
       0.35390756 0.06504219 0.1482956 0.2761519
000100 03 03 c4 be 17 ad 83 3e 24 1c e8 be fc 8d 0c be
       -0.38283548 0.25717995 -0.4533397 -0.13726038
000110 3c 9e ea bd 02 eb 18 3e 19 d6 f7 3d 2a d6 11 bd
       -0.11455962 0.14933398 0.12101383 -0.035604633
000120 78 42 1a be 4c 3c 83 3e 76 f1 3f be 6e 38 4d be
       -0.15064418 0.2563194 -0.18744454 -0.20041057
000130 ff 2f 25 3e 62 c8 99 3e 0b 36 d9 be fc 27 3a 3f
       0.1613159 0.30035692 -0.42424044 0.7271726
000140 05 0a be be 9d 58 40 3f 3c 1a 05 be 36 a0 f0 bd
       -0.3711702 0.75135213 -0.12998289 -0.11749308
000150 a6 3f c1 3e fb 76 a4 bd 76 71 10 bd f4 d9 22 be
       0.37743872 -0.08030506 -0.035264455 -0.15903455
000160 0c 04 06 bf d7 bc 7d 3e 19 b6 74 be ab 21 52 be
       -0.52349925 0.24779068 -0.2389759 -0.20520656
000170 22 56 dc bd 9a cd 35 be 4b 8f c6 be 02 01 c9 3e
       -0.10758616 -0.17754212 -0.387812 0.3925858
000180 58 c0 a2 3e 9a 27 7d bf 03 68 ff be 57 90 dd be
       0.31787372 -0.9888855 -0.49884042 -0.43274185
000190 a0 88 3a 3e 96 0e 3d 3d 45 90 6f be 05 57 0c 3f
       0.18216181 0.04615649 -0.23394878 0.5482028
0001a0 54 dd df 3d 21 ee ed 3d b3 a4 5e 3e 67 91 53 be
       0.10930887 0.11617685 0.21742515 -0.20660935
0001b0 87 9c 23 3c 99 0d 0c 3f 1d f2 d3 3e 40 97 a2 bd
       0.0099860495 0.5470825 0.41395655 -0.07939005
0001c0 80 52 17 3f 13 ad 0f 3e 79 42 35 bf ba 75 60 be
       0.5911026 0.14030866 -0.70804554 -0.21919909
0001d0 bf fd e2 be 40 b5 0b bf 1f 07 76 3e c1 67 2c 3e
       -0.44334218 -0.5457344 0.24026154 0.16836454
0001e0 1f c5 05 3e a6 97 db bd 27 83 57 3e 15 de f0 bd
       0.13063477 -0.10722284 0.21046124 -0.11761109
0001f0 4e bd 5f 3e 84 9c 23 be 6d 8b 89 3e eb e3 29 be
       0.21849558 -0.15977675 0.26864186 -0.1659085
000200 ef 6e 14 3e b9 e3 14 be 03 06 0c be 31 f7 52 bf
       0.14495443 -0.14539994 -0.13674168 -0.82408434
000210 08 c4 1f 3e ba 67 16 be 6c f5 56 3e 8f b1 b8 3e
       0.15602124 -0.14688006 0.20992059 0.36072966
000220 7a be 8f 3d f2 19 48 be ca 06 cb 3e f0 37 d4 be
       0.070187524 -0.19541147 0.39653617 -0.41448927
000230 cb 92 46 be 24 6f 2f bc bc 64 68 be 25 77 a5 be
       -0.19391935 -0.01070765 -0.22694677 -0.32317463
000240 d4 85 80 be 6d 97 46 3e 66 f3 4f 3d 17 2e 94 3e
       -0.25102103 0.19393702 0.050769232 0.28941414
000250 60 e8 6d 3e 24 8e 63 3e 9e 1e aa 3d 1f 41 51 3e
       0.23233175 0.22222191 0.08306621 0.20434998
000260 fb ad d6 bc 6c 5c bf be fb 8a 08 3e f4 14 83 3e
       -0.026206007 -0.373752 0.13334267 0.25601923
000270 19 30 b6 3e 8e 73 bf 3e 65 0b cd 3a d1 80 c2 be
       0.3558357 0.3739285 0.0015643655 -0.37988904
000280 01 5d 91 be 25 7e 17 be 92 94 a6 be 5b d5 2c bd
       -0.2839127 -0.14794214 -0.32535225 -0.04219566
000290 3c fc c7 3d 30 0d 7d 3e 0c 52 cd 3d d3 f9 87 3e
       0.09764907 0.24712062 0.10025415 0.26557788
0002a0 9c 2b 2a be 3e 2f 0b 3e 44 9e 36 3e a7 5d 06 3e
       -0.16618198 0.1359224 0.17833811 0.13121663
0002b0 85 1c a1 be fb 8f 06 3d fe 28 d9 bd 8f 35 e1 bd
       -0.3146707 0.032852154 -0.10603522 -0.109965436
0002c0 15 7e 86 be c7 5b a2 bd d7 8e cb 3d c6 f0 d2 bd
       -0.26268068 -0.079276614 0.09939354 -0.1029983
0002d0 4d 74 ab be 37 d2 21 3d 7c 65 bb 3e 2b 97 a3 be
       -0.33487168 0.039507117 0.36600864 -0.3195127
0002e0 01 1a b6 be 90 71 11 3e 32 1f cc 3d df 21 0c 3c
       -0.35566714 0.14203477 0.099668875 0.008552997
0002f0 2e 98 ac bd 2f ed 05 3e e8 a5 4e be 8f 96 ae bd
       -0.084274635 0.1307876 -0.20180476 -0.085248105
000300 6e c9 d8 3e f4 54 23 3f e2 c9 8a 3e 64 17 25 3d
       0.4234118 0.63801503 0.2710715 0.04030551
000310 56 38 e0 3e c7 2e 62 be 05 ec 6d 3d 40 44 1c 3d
       0.4379298 -0.22088157 0.058086414 0.038151026
000320 27 ca 0f bc 54 ef fa 3e d6 5a 52 3e ee bb 3f be
       -0.008776224 0.49010718 0.20542464 -0.18724033
000330 c6 82 c6 3d b0 38 25 3f e0 c9 50 3e 28 ec 74 3e
       0.09692912 0.64539623 0.20389509 0.23918211
000340 28 a7 eb 3e 72 64 ca 3d 23 b3 97 3e fd f1 8d 3f
       0.46025968 0.0988244 0.29628858 1.1089474
000350 44 43 9a bd 80 6a 02 3f e1 0a 1f 3f f4 6e a3 3e
       -0.07532361 0.50943756 0.62125975 0.31920588
000360 50 71 f7 3e 82 de 11 3e ff 12 cf 3e 61 97 21 3f
       0.48328638 0.14245036 0.4044418 0.6312161
000370 5f ab b3 3e c2 24 e0 bc 29 44 a5 3e ab 53 9c be
       0.35091683 -0.027361277 0.32278565 -0.30532584
000380 8f bc 97 bd 76 23 b1 3e 96 a1 92 bd 40 9c e1 3e
       -0.074090116 0.34597367 -0.07159726 0.44064522
000390 65 e8 1f 3d ef 5f cc 3e 61 60 4f be f1 ad 79 3d
       0.039039988 0.39916942 -0.2025161 0.0609569
0003a0 4a c1 24 3e 24 34 95 be 60 bc 03 bc c5 4f 8a 3e
       0.16089359 -0.29141343 -0.008040518 0.27013984
0003b0 50 da 4d bd fb b9 02 3f 09 f2 dc 3e c7 87 14 3f
       -0.050257027 0.51065034 0.43153408 0.5801968
0003c0 a3 6d 95 3e 68 53 7d 3e 2b 0b 8f be 66 e5 3e 3e
       0.2918521 0.24738848 -0.27938208 0.18642196
0003d0 74 55 f5 be b1 f2 69 be 8a c1 c3 3e c5 43 4e bd
       -0.47916758 -0.22846486 0.38233596 -0.0503576
0003e0 5e f8 67 3e fa 0f 9a 3e 4c 69 0b be fd be 44 3f
       0.22653338 0.30090314 -0.13614386 0.76853925
0003f0 28 b1 9f 3e 6d 48 c0 3e 59 48 76 3e e6 ec 64 be
       0.31189847 0.37555256 0.24051036 -0.22355995

lstm.bias_hh_l0 f4 [256]
000000 72 d3 e6 3d 8e 3c cd bd d7 2f e9 3e ee 9f 19 3e
       0.11270799 -0.100213155 0.4554431 0.15002415
000010 c2 a1 b4 3e ab 80 99 3e a8 45 b5 3e 8c c7 ca 3e
       0.3527966 0.29980978 0.35404706 0.39605367
000020 77 2f 15 3c b6 ff a9 3e 7c c8 0c 3d 95 6d 86 3d
       0.009105555 0.33202904 0.034370884 0.0656387
000030 43 c8 b7 3e 44 ee 6c 3b 40 5f 37 3e 31 da 81 3e
       0.35894975 0.003615276 0.17907429 0.2536178
000040 e9 67 b4 3e 61 d9 47 3e e0 65 8b 3e 21 ab 8a 3f
       0.35235527 0.19516517 0.27226162 1.0833474
000050 b0 25 67 3e 54 03 e0 3e ba 48 19 3e 21 38 c0 3e
       0.2257297 0.4375254 0.14969149 0.37542823
000060 c2 46 36 3e 41 0a 8e 3d 3a 59 4f be 9b 79 68 be
       0.1780043 0.069355495 -0.20248881 -0.22702639
000070 8a db 85 3e f6 dc 22 3e 6c 4a b7 3e bd 98 fc 3e
       0.26144058 0.15904602 0.35798967 0.4933528
000080 6d 83 34 3e 6e d4 84 be ac 26 79 be 66 d2 4b 3e
       0.1762826 -0.2594332 -0.24331158 0.1990448
000090 21 e7 30 3e 41 81 28 3f 7f 96 23 3f 5b df 9c be
       0.17275669 0.65822226 0.63901514 -0.30639157
0000a0 73 0e 6a bd 10 fc b5 3e dd 65 9b 3e 0a 8b ba bb
       -0.057142686 0.3554387 0.30351153 -0.0056928443
0000b0 79 46 75 3d b8 2f 81 bb 17 4c bc 3e 6f 5d 37 3f
       0.05988166 -0.003942456 0.36776802 0.71626943
0000c0 d6 b7 92 3d e8 ba c2 3e 48 e3 cd 3e 0d fe d7 be
       0.0716397 0.38033223 0.40212464 -0.42186013
0000d0 2a 5c 42 3e ff 12 cb bd 03 22 3b 3f 7c 2e 93 be
       0.1898047 -0.099157326 0.7309877 -0.28746402
0000e0 a3 b3 2f 3e f9 f6 9a 3f fe fa b9 3e eb c5 8e be
       0.1715837 1.210662 0.36324304 -0.27885374
0000f0 da c8 c5 3e 8c e6 eb 3d 3d 6e 0c 3e 4f 66 c1 3e
       0.386298 0.11518583 0.13713928 0.37773368
000100 1e 38 30 be 7a 14 8e 3e 2c 11 f6 be 65 3a 90 be
       -0.17208907 0.27749997 -0.48059976 -0.28169551
000110 c0 37 c3 bd 3a 1f fe bb 43 90 b1 3d 3a 53 c7 3b
       -0.09532118 -0.0077551873 0.08670094 0.0060829194
000120 33 e2 55 bd c1 19 8a 3e 26 00 dc bd 5a c9 76 be
       -0.052217674 0.26972774 -0.10742216 -0.24100247
000130 6a 73 bd 3e bd 99 5d 3e b8 d6 c4 be d7 20 35 3f
       0.37002116 0.21640678 -0.38445067 0.70753235
000140 e5 c6 5b be ad fc 3f 3f fc f0 24 be 53 34 2a be
       -0.21462591 0.7499493 -0.16107553 -0.16621523
000150 16 1e 92 3e d5 8f 34 be 7e ae 0f 3e b0 c1 99 be
       0.2853858 -0.17632993 0.14031407 -0.30030584
000160 f4 2b e2 be 0e 0c 64 3e b8 77 cb be 76 a3 1a be
       -0.4417416 0.22270223 -0.39739776 -0.15101418
000170 d3 a1 cb bd ba ff d7 bd 15 6e 95 be 64 aa c9 3e
       -0.09942975 -0.10546823 -0.29185548 0.3938781
000180 d8 d2 27 3e 7b 90 5f bf 81 40 07 bf 88 53 4f be
       0.16389024 -0.87329835 -0.528328 -0.20246708
000190 f7 3b aa 3e fd 44 07 3e ac db 83 be 19 1e 00 3f
       0.33248875 0.1320991 -0.25753534 0.50045925
0001a0 24 55 ca 3d ea 2b 12 3e a6 bd 35 3e de 4d 06 be
       0.098795205 0.14274564 0.17748126 -0.13115641
0001b0 7f 75 a2 bd 66 cf 1a 3f 35 75 cf 3e ab 64 bd bd
       -0.07932567 0.60472715 0.4051911 -0.092477165
0001c0 28 db 23 3f 36 0e 1c 3e 0b f9 0c bf e0 29 bf be
       0.6400628 0.15239796 -0.5506751 -0.37336636
0001d0 24 1c a0 be 46 df e9 be 4f 60 ab 3e 50 b3 97 3d
       -0.3127147 -0.45678157 0.33471915 0.07407248
0001e0 1b 64 31 3e 42 3c e5 bd fb 82 40 3e ad 43 75 be
       0.17323343 -0.11193134 0.18799965 -0.23951598
0001f0 b9 f9 d0 3d 42 b1 76 bd a6 56 32 3e 9e a2 9d be
       0.10203881 -0.06022764 0.17415866 -0.3078813
000200 73 2e dd 3d 3a dc 2f be fa 7c d9 bd e7 53 27 bf
       0.10799875 -0.17173854 -0.106195405 -0.653624
000210 51 6c 5d 3e e5 a4 61 be 91 8c 3b 3e 5d 66 7a 3e
       0.2162335 -0.22035559 0.1831534 0.24453111
000220 59 73 66 3d af 2c b0 be 10 3e ec 3e 19 79 9a be
       0.056262348 -0.3440909 0.461411 -0.30170515
000230 0c f7 d4 be 74 64 43 bc a3 b2 92 be e6 c4 4b be
       -0.41594732 -0.011925805 -0.28651914 -0.1989933
000240 63 7a 91 be 6e 0e 19 3e 81 4e 71 bd fb 98 af 3e
       -0.28413686 0.1494691 -0.058912758 0.34296402
000250 0a dc 2a 3e 90 56 20 3e 6a 69 8e 3d fd 22 c3 3e
       0.166855 0.15658021 0.069537 0.3811263
000260 bf 65 2e bd 53 36 ba be 51 25 2d 3e bd 02 c7 3e
       -0.0425775 -0.3636957 0.16908766 0.38869277
000270 3d c3 77 3e 7b 34 97 3e 26 b7 ea bd 73 92 c5 be
       0.24195571 0.29532227 -0.11460714 -0.38588294
000280 c2 50 83 be cf 0a 0e be 3a ff 12 be f5 ea 85 bd
       -0.2564755 -0.1387131 -0.14355174 -0.06538955
000290 1a 83 af 3c 00 16 41 3e 57 6c 21 3e 0f 7d 47 3e
       0.021424819 0.18856049 0.15763985 0.194813
0002a0 81 72 3a be 9a 77 8e 3e 3f 2d 92 3e ef 9f 8b 3e
       -0.18207742 0.27825624 0.28550145 0.27270457
0002b0 25 53 df bd 31 3a 00 3e f0 24 10 3c 24 ad 20 3b
       -0.109045304 0.12522198 0.008797869 0.0024517262
0002c0 72 44 71 be c4 56 4e be 6b 30 ee bd 58 e2 50 bc
       -0.23561266 -0.20150286 -0.11630329 -0.012749277
0002d0 bb 1a cd be c6 43 41 3e 8d 64 c4 3e bd bc ba be
       -0.40059456 0.1887351 0.38357964 -0.3647212
0002e0 0f ee 77 be 93 5c 5d 3e bc 4c 03 3d 82 ed 8a bd
       -0.24211906 0.21617346 0.0320556 -0.06783582
0002f0 09 24 01 be 5c 19 ac 3e df 92 28 bd 28 44 0b be
       -0.12611403 0.33613098 -0.041155692 -0.13600218
000300 d5 b8 f1 3e 10 a0 31 3f 75 95 6e 3d 6c 5d 43 3e
       0.47211328 0.6938486 0.058248002 0.19078606
000310 74 79 e9 3e 0d 7d ee bd b8 85 1e 3d 86 f7 fb 3d
       0.45600474 -0.11644945 0.038701743 0.12303071
000320 5c 55 dd 3d 44 53 b7 3e ee a0 7c 3e 43 64 97 be
       0.10807297 0.35805714 0.24670765 -0.2956868
000330 ff 76 9f bc 43 df f4 3e 2b 45 67 3e 3b 30 a4 3e
       -0.019465921 0.47826585 0.22584979 0.32068047
000340 fc 7d 2c 3f a8 4d 79 3d d6 05 39 3e 93 3b 94 3f
       0.67379737 0.060865074 0.18068632 1.1580681
000350 a3 56 82 be e3 1c c2 3e f2 b3 22 3f db 84 cf 3d
       -0.25456724 0.37912664 0.63555825 0.10132762
000360 e1 53 f0 3e 1a 25 05 3e b0 b1 7b 3e 99 83 0a 3f
       0.46938995 0.13002434 0.24579501 0.5410705
000370 9e 27 e4 3e 32 22 50 3d a4 b4 e2 3d 0e 01 9d be
       0.44561476 0.05081386 0.11069611 -0.30664867
000380 06 b2 28 bd 22 7d fc 3e c1 8d 87 bd 15 03 df 3e
       -0.0411854 0.4931422 -0.06618834 0.4355704
000390 39 66 58 bd 87 00 9a 3e e3 d4 5f be 14 04 85 3d
       -0.052831862 0.30078527 -0.21858554 0.064949185
0003a0 23 b9 dc 3d dd 86 7a bd 25 2d 03 be da 9a cd 3e
       0.107774995 -0.061163772 -0.1281019 0.40157205
0003b0 22 db b9 3d 40 bb 18 3f b8 1d 4a 3e 7d c0 48 3f
       0.090749994 0.5966072 0.197379 0.78418714
0003c0 2d 90 b1 3e ea 02 47 3e f1 23 8a be fa 3d d2 3d
       0.3468031 0.19434705 -0.26980546 0.10265727
0003d0 7e 6b e6 be 1c 81 04 be 38 49 de 3e 86 ab 19 bc
       -0.45003885 -0.12939876 0.43415236 -0.009379273
0003e0 ca 37 59 3e 0c 68 3f 3e 96 16 d2 bd f6 ea 3a 3f
       0.21212688 0.18692034 -0.10258214 0.7301477
0003f0 c8 87 ad 3e 3c 7b 77 3e 60 bb cd 3e ad 51 92 be
       0.33892655 0.24168104 0.40182018 -0.2857794

actor_mean.weight f4 [1, 64]
000000 b1 5b db bf dc 86 cd c0 a7 9e 17 40 d8 c3 9f c0
       -1.7137357 -6.4227123 2.3690584 -4.9926567
000010 16 47 d1 3f f6 54 a9 3f a9 6e 67 bf a9 40 06 41
       1.6349819 1.3229053 -0.9040323 8.390786
000020 c7 9f 96 40 f9 60 52 40 de bf 9f 40 60 78 6a bf
       4.707004 3.2871687 4.9921713 -0.9158993
000030 6b 79 de 40 5d 39 86 40 0a ac af bf d5 47 b9 3f
       6.9523215 4.1945024 -1.3724377 1.4475046
000040 53 c7 0b 40 3a db cd 3f 5a ce 17 bf 7e 6b 9f c0
       2.1840408 1.6082528 -0.5929924 -4.9818716
000050 1e 53 e9 bf 66 f3 a5 3e 9f 70 12 40 4b e0 d6 be
       -1.822849 0.3241226 2.2881238 -0.41967997
000060 86 0e 8c 40 2f b9 40 3f 6e 35 9f bf 5c 9f ba bd
       4.376773 0.7528257 -1.243818 -0.09112427
000070 40 ab 32 3e ff cd bc bf 8d 6d b8 3f ad 17 f4 be
       0.17448139 -1.4750365 1.4408432 -0.47674313
000080 91 fc ab 3f 93 cf 48 40 f0 eb 46 bd 84 bb 82 40
       1.3436452 3.1376693 -0.04856485 4.08539
000090 6b be a9 40 28 f5 9f c0 b7 bc 7e 40 37 a3 c2 bf
       5.3044944 -4.9986763 3.9802682 -1.5206059
0000a0 45 ac e3 bf 98 f9 24 bf 8e e3 28 c0 5b 5b 9f be
       -1.7786947 -0.6444335 -2.6388888 -0.31124386
0000b0 a1 7d 9d bd a5 4e 77 3f 40 e1 78 bf d7 dd 0a 40
       -0.076899774 0.9660438 -0.97218704 2.16979
0000c0 af 55 ae be b8 8d 0e 40 c4 ef 9d be 5b 70 0b 41
       -0.34049746 2.2273998 -0.3084699 8.714931
0000d0 99 bd a8 3f f5 4e e6 bf 46 2f 90 bf f5 cb 79 40
       1.3182861 -1.7992846 -1.1264427 3.9030735
0000e0 70 0a d5 40 6e ce 33 3f 94 73 d2 3a df 02 4e 3e
       6.657524 0.7023686 0.0016056173 0.20118283
0000f0 1e 85 12 c0 35 99 4f 3f d2 1e 89 40 82 f0 90 be
       -2.2893748 0.8109315 4.2850122 -0.28308493

critic.weight f4 [1, 64]
000000 e4 b5 c3 c1 f7 36 8b 42 8e 5b 0f 42 46 c4 02 42
       -24.463814 69.60735 35.83941 32.691673
000010 29 54 00 c2 7f 54 e6 41 4f 31 6f c2 16 8d 75 c2
       -32.082188 28.791258 -59.798153 -61.38778
000020 1a 96 23 c2 ef 44 36 42 69 cf 0f 42 04 bd 82 42
       -40.896584 45.567318 35.95255 65.36917
000030 82 1a 31 c2 3d 3e 92 c2 be bd 6f 42 77 5d de 41
       -44.275887 -73.12156 59.935295 27.795637
000040 71 59 81 c2 56 9f a3 42 68 d5 9a 42 e9 a7 20 c2
       -64.67469 81.8112 77.41681 -40.163975
000050 21 f6 4d 41 8a ea 20 c2 f9 d5 03 42 61 7d 1e c2
       12.87259 -40.229042 32.958958 -39.62244
000060 db 09 57 42 2a 5e ed 41 57 05 37 42 ad 58 eb c1
       53.759624 29.670979 45.755215 -29.418299
000070 d4 84 53 42 f5 da 4b c2 3a 02 73 42 94 88 49 c2
       52.879715 -50.963825 60.752174 -50.383377
000080 90 9b db 41 f3 f2 3f 42 40 57 8c 42 f7 53 39 40
       27.450958 47.987255 70.17041 2.8957498
000090 b5 50 5e c2 04 23 01 42 d0 0d 13 42 d4 d0 3f c2
       -55.578815 32.284195 36.76349 -47.953934
0000a0 6c 4c d8 41 dd c2 54 c2 1c 9f 41 c2 75 50 d6 c1
       27.037315 -53.190296 -48.40538 -26.789286
0000b0 35 19 1b 42 e4 80 8b 42 07 07 0e 42 ca c2 2b 42
       38.774616 69.75174 35.506863 42.940224
0000c0 59 f1 38 42 d1 17 5b 42 6a 47 68 42 d2 31 4f 42
       46.23569 54.77326 58.06974 51.798653
0000d0 c7 69 83 42 96 4c 93 c1 68 8a ca c1 d9 7c cd 42
       65.7066 -18.412395 -25.317581 102.74384
0000e0 cd d7 9a 42 ed 78 0a c2 12 c7 0c c2 ee a1 9c 41
       77.421486 -34.61809 -35.194405 19.579067
0000f0 77 d3 17 42 20 7f 21 c2 c5 51 37 42 e5 6f a0 42
       37.95651 -40.374146 45.829853 80.218544
